models/dagger_model_iter3.pth (torch, 75510 bytes, 6 tensors)

layer1.weight f4 [128, 8]
0	0xba343f27	-0.00068758655
1	0x3bf03266	0.0073302267
2	0xbf15d56c	-0.5852878
3	0x405ed527	3.4817598
4	0x3d05c310	0.03265673
5	0xbe28383e	-0.16427705
6	0x3db09dba	0.08623834
7	0x3eb2a54b	0.34891734
8	0x3e53c5d6	0.20680937
9	0x3db87f3f	0.09008645
10	0x3e780c6f	0.24223493
11	0xbf0fd214	-0.5617993
12	0x3eea7777	0.4579427
13	0x3ed14921	0.40876105
14	0xbec7589d	-0.38934794
15	0xbcd0a2fd	-0.025468344
16	0xbe4d1ddb	-0.2003092
17	0xbed19d41	-0.40940288
18	0x3f806ea9	1.0033771
19	0x3f1b7e49	0.6073957
20	0x3eb8ff38	0.36132216
21	0x3f0840cd	0.5322388
22	0x3dbe99f2	0.093067065
23	0x3e2e8d83	0.1704617
24	0xbf42b515	-0.7605756
25	0x3ea6404a	0.32470924
26	0x3eccebc8	0.40023637
27	0xbf128e3a	-0.5724827
28	0x3ebd1c82	0.36935812
29	0x3ee1f1a6	0.44129676
30	0x3ef15a10	0.47139025
31	0xbee4f065	-0.44714656
32	0x3cb384f0	0.021913975
33	0x3dbcd5e4	0.09220484
34	0x3f3e1ae8	0.74259806
35	0xbf02ec72	-0.51142037
36	0x3ef307d1	0.474669
37	0x3f3a8155	0.72853595
38	0xbecfc5c3	-0.40580568
39	0x3efb613c	0.4909762
40	0x3ea57256	0.32313794
41	0x3ed763f6	0.42068452
42	0xbf2f7afb	-0.6854703
43	0x3f164651	0.58701044
44	0x3e4e3cdd	0.20140405
45	0x3dabf37b	0.083960496
46	0x3e34500a	0.17608657
47	0x3cd71897	0.026256843
48	0x3e9d7f03	0.30760965
49	0x3ec4e4a0	0.38455677
50	0xbf573282	-0.84061444
51	0xbe94fc97	-0.2909896
52	0x3e310fe1	0.17291214
53	0xbe76cb5a	-0.2410101
54	0x3e93bab5	0.28853384
55	0x3cfc169e	0.030772503
56	0x3e31e3f5	0.17372115
57	0x3e20e0d3	0.15710764
58	0xbf6194c9	-0.88117653
59	0x3f26afc1	0.6511193
60	0x3e97b8d3	0.29633197
61	0xbf3e15eb	-0.74252194
62	0x3e45013e	0.19238755
63	0xbe8340f6	-0.256355
64	0xbe5a99a8	-0.21347678
65	0xbdac0747	-0.083998255
66	0xbf287d86	-0.65816534
67	0x3fb6bf30	1.4277096
68	0x3ea58708	0.32329583
69	0xbea579a6	-0.32319373
70	0xbc04dd19	-0.008109354
71	0xbec25723	-0.37957105
72	0xbf11d923	-0.5697195
73	0xbf01d821	-0.5072041
74	0xbf9e40d2	-1.2363532
75	0x3eea0d64	0.4571334
76	0xbf310c95	-0.69159824
77	0xbf04553e	-0.5169257
78	0x3e160c60	0.14653158
79	0x3e5520c3	0.20813279
80	0x3e107b67	0.14109574
81	0xbe9215f8	-0.28532386
82	0xbf011150	-0.5041704
83	0xbe44c503	-0.19215779
84	0x3ef8120f	0.48451278
85	0x3f5541fd	0.83303815
86	0xbe94e750	-0.29082727
87	0xbee25119	-0.44202498
88	0xbedfb1c8	-0.43690324
89	0x3d8ca017	0.06866472
90	0x3eae4a01	0.34040835
91	0x3f12f399	0.5740295
92	0xbe4b9736	-0.19881901
93	0x3f4cc91d	0.79994375
94	0x3daf0b80	0.08547115
95	0xbeb480ac	-0.3525442
96	0x3f1d0ca2	0.613474
97	0x3ec02d04	0.37534344
98	0xbf087cca	-0.53315413
99	0x3f1249c3	0.571438
100	0x3de3f3fc	0.11130521
101	0xbe9575c8	-0.29191422
102	0x3e993e27	0.2993023
103	0x3e376b0c	0.17911929
104	0xbe3c21f9	-0.18372335
105	0x3eb68712	0.35649925
106	0x3c048190	0.008087531
107	0xbec5a157	-0.38599655
108	0x3e390fbd	0.1807241
109	0xbe6de75c	-0.23232788
110	0x3dad622b	0.0846599
111	0x3bb8019d	0.0056154267
112	0xbe475347	-0.19465362
113	0x3e99042a	0.2988599
114	0x3f2381a0	0.6386967
115	0x3e8dcf05	0.27697006
116	0xbf64520d	-0.891877
117	0xbdbce9cc	-0.09224281
118	0x3db5e98a	0.08882435
119	0xbdc81277	-0.09769147
120	0xbf307b99	-0.68938595
121	0xbda666e7	-0.08125096
122	0x3e06309c	0.1310448
123	0xbe7261e2	-0.23670152
124	0x3ed3789a	0.4130295
125	0x3f3306d7	0.6993231
126	0xbe6bd6f2	-0.23031214
127	0x3d7a1510	0.061055243
128	0xbb05296a	-0.0020318874
129	0x3ea52dcf	0.32261512
130	0x3e7fb219	0.24970283
131	0xbe211de2	-0.15734056
132	0x3dab0588	0.083506644
133	0x3f63b146	0.8894237
134	0xbeec2071	-0.461185
135	0xbeaabb23	-0.333459
136	0xbeada5db	-0.339156
137	0x3ec3ca17	0.3824012
138	0xbf3a69ee	-0.72817886
139	0x3de41630	0.111370444
140	0x3ea0564c	0.3131584
141	0x3e4371d9	0.19086398
142	0xbe841f91	-0.25805333
143	0x3e1e388f	0.15451263
144	0xbe030f75	-0.12798865
145	0x3e80401a	0.25048906
146	0x3f16e13e	0.5893744
147	0x3ede73d9	0.4344776
148	0xbefda640	-0.495409
149	0xbf193e69	-0.59860855
150	0x3e60cf7b	0.21954148
151	0xbe9abee5	-0.30223766
152	0x3f6a1ed3	0.91453284
153	0xbedba3a7	-0.42898294
154	0x3db0a019	0.08624286
155	0xbe0152cb	-0.1262924
156	0x3efefc36	0.49801797
157	0x3ee60ba6	0.44930762
158	0xbe8bc88f	-0.27301452
159	0x3e784c82	0.24247935
160	0x3ef338a9	0.47504166
161	0xbd295574	-0.04134126
162	0x3eb19fdc	0.34692276
163	0xbe08098e	-0.13284895
164	0xbf2f61ec	-0.6850879
165	0x3edc70d5	0.43054834
166	0x3d58a675	0.05289312
167	0xbcdd20b6	-0.026993137
168	0x3f274e76	0.65354097
169	0xbd3ff660	-0.04686582
170	0x3e939a99	0.28828886
171	0xbee45753	-0.44597873
172	0xbf40cf3c	-0.75316215
173	0xbefb07f7	-0.49029514
174	0x3db9df1b	0.09075757
175	0xbcee82e2	-0.029115144
176	0x3e6581a1	0.22412731
177	0xbe63597e	-0.22202107
178	0xbf258613	-0.64657706
179	0xbea91568	-0.33024144
180	0x3ed5b17c	0.41736972
181	0xbf950f14	-1.1645226
182	0x3e62e3a0	0.22157145
183	0x3d9d2b3d	0.07674263
184	0xbd15ba5f	-0.03655469
185	0x3f054f67	0.52074283
186	0x3e9e49c2	0.30915648
187	0x3f114647	0.5674786
188	0xbd6bf31f	-0.057604905
189	0xbd0e2892	-0.03470666
190	0xbd01b578	-0.031667203
191	0xbe7469f2	-0.2386854
192	0xbe890997	-0.2676513
193	0xbf859ef9	-1.043914
194	0x3fe872ad	1.8159996
195	0x3f528bd6	0.8224462
196	0x3f4297a7	0.76012653
197	0xbd6aec20	-0.057354093
198	0x3d1aa5c4	0.037755743
199	0x3e9249f0	0.28572035
200	0xbe055ce5	-0.13023718
201	0x3e7f689c	0.24942249
202	0x3e9b7a29	0.30366638
203	0xbd6f77a1	-0.058463696
204	0xbf6388b1	-0.8888045
205	0xbf62f56c	-0.88655734
206	0x3c98089f	0.018558798
207	0xbe0c15e2	-0.13680223
208	0xbcc311e9	-0.023812251
209	0xbafcc1e2	-0.0019283856
210	0xbf2458a0	-0.6419773
211	0x402f135b	2.7355564
212	0x3e1a9854	0.15097171
213	0xbc90047f	-0.017580269
214	0x3e290b18	0.16508138
215	0x3daff47b	0.08591553
216	0xbe01fb11	-0.1269343
217	0xbed0460e	-0.40678447
218	0xbf75f818	-0.96081686
219	0x3f2210b4	0.63306737
220	0xbf531704	-0.82456994
221	0x3e1226f8	0.14272678
222	0xbedb3922	-0.42817026
223	0xbefb8b61	-0.49129775
224	0xbe964c36	-0.2935502
225	0x3eb211ef	0.34779307
226	0x3f4846a0	0.78232765
227	0xbf13fc62	-0.5780698
228	0x3f08c39a	0.53423464
229	0x3f3e78be	0.7440299
230	0xbf39420c	-0.72366405
231	0x3e1c44fc	0.1526069
232	0xbe18db45	-0.14927395
233	0x3e1e2d8b	0.15447061
234	0x3d0007f3	0.03125758
235	0x3ed2845b	0.41116604
236	0xbe68be06	-0.22728738
237	0xbf19a18c	-0.60012126
238	0xbe81339d	-0.2523469
239	0x3c657797	0.014005563
240	0x3f3a55f2	0.7278739
241	0xbea88f04	-0.32921612
242	0xbc3b8f56	-0.011447748
243	0xbecca454	-0.39969122
244	0xbe91354c	-0.28360975
245	0xbba3dbf0	-0.005000584
246	0x3e18d2f9	0.1492423
247	0x3d76bf6b	0.060241144
248	0xbece7367	-0.4032242
249	0xbfe034b5	-1.7516085
250	0xbe7b055a	-0.2451376
251	0x3f918d3c	1.1371226
252	0xbed2f6c1	-0.41203883
253	0xbe84b3f2	-0.25918537
254	0x3d115a0a	0.03548626
255	0x3e68a216	0.22718081

layer1.bias f4 [128]
0	0x3d0d3f54	0.034484223
1	0x3db24f96	0.08706586
2	0x3e9189da	0.28425485
3	0xbe4fd98f	-0.20297836
4	0xbed38780	-0.41314316
5	0xbe97acb4	-0.2962395
6	0xbe7e6cfa	-0.24846259
7	0xbd461577	-0.048360314
8	0x3dbb6615	0.0915033
9	0xbe5650b9	-0.20929231
10	0x3d8964a5	0.067086495
11	0x3dbb7359	0.0915286
12	0xbe06d61b	-0.13167612
13	0xbd8fcada	-0.07021113
14	0x3de3d26c	0.11124119
15	0x3e391f4e	0.18078348
16	0xbebee603	-0.3728486
17	0x3e0c5703	0.13705067
18	0xbe80af4a	-0.25133735
19	0x3dc51534	0.09623185
20	0x3d8cd444	0.06876424
21	0x3e271ccf	0.16319583
22	0xbe0889eb	-0.13333862
23	0xbe6ec0bf	-0.23315714
24	0xbe4b44ef	-0.19850515
25	0x3e431a92	0.19053105
26	0x3d9801d0	0.07422221
27	0x3e032000	0.12805176
28	0xbe83c789	-0.2573817
29	0x3e6a5dd8	0.22887361
30	0x3b694fd6	0.0035600564
31	0xbdb782b8	-0.089604795
32	0xbe913b36	-0.28365487
33	0xbe23adeb	-0.15984313
34	0x3e9a4503	0.30130777
35	0x3ddbeb0a	0.107381895
36	0xbeb32df2	-0.3499599
37	0x3de704c8	0.11280209
38	0x3c54fd9e	0.01299992
39	0xbe39dbe6	-0.18150291
40	0x3e27bc86	0.1638051
41	0x3cf74cdc	0.030188017
42	0x3dc8611f	0.097841494
43	0x3dab2d7b	0.08358284
44	0x3e0e02bf	0.13868235
45	0x3bc7975f	0.006091043
46	0xbe8ee1dd	-0.27906695
47	0x3e4d079c	0.20022434
48	0x3dfb2e78	0.122647226
49	0xbd7d4f4c	-0.0618432
50	0x3e94e096	0.29077595
51	0x3adcc5a6	0.0016843572
52	0x3ea3dc55	0.32004037
53	0x3e3f272d	0.18667288
54	0x3b22d670	0.0024847053
55	0xbd856a86	-0.06514458
56	0x3df973f4	0.121803194
57	0xbc99b49c	-0.01876288
58	0xbe825cd8	-0.2546146
59	0x3e66866e	0.22512218
60	0x3dc4b5f6	0.09605019
61	0x3c4aac39	0.012370163
62	0x3e4aeae8	0.19816172
63	0xbe97a97c	-0.29621494
64	0x3dddcd3e	0.108301625
65	0x3cad2e3c	0.02114021
66	0xbe2da885	-0.16958816
67	0x3d854609	0.06507499
68	0x3e168348	0.14698517
69	0x3de6a254	0.112614304
70	0xbecc47e7	-0.39898607
71	0x3df573b3	0.119849585
72	0x3dce7edb	0.100827895
73	0xbeb8f461	-0.36123946
74	0xbe08fbe4	-0.13377339
75	0xbeb20abd	-0.34773818
76	0xbe1473f5	-0.14497359
77	0x3e314dfb	0.17314903
78	0x3e8950bc	0.26819408
79	0xbe16d701	-0.14730455
80	0xbd6b86f7	-0.05750176
81	0xbdbf7390	-0.09348214
82	0x3d620502	0.055180557
83	0xbe90512b	-0.28186926
84	0x3bf879ef	0.007582895
85	0xbe001254	-0.12506992
86	0x3d881173	0.06643953
87	0x3c1636ac	0.009168308
88	0x3db02b24	0.086019784
89	0xbe30396b	-0.17209403
90	0x3e076696	0.13222727
91	0x3e5c99e9	0.21543087
92	0xbd396dee	-0.045270853
93	0xbc19f192	-0.009395974
94	0x3e09a047	0.13440047
95	0x3e456785	0.19277771
96	0xbe22e19f	-0.1590638
97	0xbe1ee171	-0.15515687
98	0x3e84756e	0.25870842
99	0x3e863d5b	0.26218686
100	0x3d84afd0	0.06478846
101	0xbe8d5a59	-0.27607992
102	0x3d54b05d	0.051926006
103	0x3df070c5	0.11740259
104	0xbe6c10d3	-0.23053293
105	0x3d2c1129	0.042008553
106	0xbe6ae352	-0.22938278
107	0x3e106439	0.14100732
108	0xbe1f65b4	-0.1556614
109	0xbbd0e508	-0.006374959
110	0xbcefe3e3	-0.02928347
111	0x3d6a6945	0.0572293
112	0x3e0905ea	0.13381162
113	0x3e5a21e4	0.21301991
114	0x3d8bb55b	0.068217
115	0xbc58df2a	-0.0132368
116	0x3e805145	0.25062004
117	0xbe694924	-0.22781807
118	0x3e8579e7	0.26069567
119	0xbe146743	-0.14492516
120	0x3e5cc70b	0.21560304
121	0x3e6af18c	0.22943705
122	0xbeaf2029	-0.34204224
123	0x3e11d42e	0.14241096
124	0x3ebc2f8a	0.3675502
125	0xbea734bd	-0.32657424
126	0xbe90fc07	-0.28317282
127	0xbe1978d9	-0.14987506

layer2.weight f4 [128, 128]
0	0xbe174115	-0.1477092
1	0x3ad3612e	0.0016126984
2	0xbe553a10	-0.2082293
3	0x3df54bf2	0.11977376
4	0x3f0359b2	0.5130874
5	0xbd81f93a	-0.06346364
6	0xbd45e523	-0.048314225
7	0x3dc3e3db	0.09564944
8	0xbdf42e8d	-0.11922941
9	0x3e971f89	0.29516247
10	0x3eb6135a	0.3556164
11	0xbf016a5d	-0.5055292
12	0xbda17cbb	-0.078851186
13	0x3dbbc979	0.09169287
14	0xbe172755	-0.14761098
15	0x3d99b943	0.07506039
16	0x3e10fac6	0.14158162
17	0xbc671a46	-0.014105385
18	0x3ed956ac	0.42448938
19	0x3e381337	0.1797608
20	0x3d7a35e3	0.061086547
21	0x3dc9c65f	0.098522894
22	0x3e66bff1	0.22534157
23	0xbebf5021	-0.3736582
24	0x3e67ba90	0.22629762
25	0xbd315047	-0.04328945
26	0xbde437c3	-0.11143448
27	0x3e7081eb	0.2348706
28	0x3e91a309	0.28444698
29	0xbd3a1db8	-0.0454385
30	0x3dbc4dc7	0.09194522
31	0x3dd507e2	0.10401894
32	0xbdd772e1	-0.10519958
33	0xbda6fee4	-0.08154085
34	0xbd887cc1	-0.0666442
35	0xbd5aaa35	-0.05338498
36	0x3d8dc4e7	0.06922322
37	0xbea4a79c	-0.32159126
38	0x3ef2c33a	0.4741457
39	0xbea05db4	-0.3132149
40	0x3e170c09	0.14750685
41	0xbdd09519	-0.10184688
42	0x3e82e64c	0.25566328
43	0x3f0f3bc2	0.5595056
44	0x3ee8e672	0.45488316
45	0x3e5999f1	0.2125013
46	0xbf636c70	-0.8883734
47	0x3e2cacfb	0.16862862
48	0xbd0e399e	-0.034722917
49	0xbde4d2f6	-0.1117305
50	0xbcc7221f	-0.024308262
51	0xbcb4695a	-0.022022892
52	0x3e138433	0.14405899
53	0xbe0c6b44	-0.13712794
54	0x3e98147d	0.2970313
55	0x3e4f3fb5	0.20239146
56	0x3e420275	0.1894625
57	0xbe4530eb	-0.19256942
58	0x3f52c5be	0.8233298
59	0xbea7b48a	-0.32754928
60	0x3ebbc15c	0.3667096
61	0xbd0e49d4	-0.034738377
62	0x3de3711f	0.111055605
63	0xbdb1ffc3	-0.08691361
64	0xbf2b4d98	-0.66915274
65	0xbcffac36	-0.031210046
66	0x3cb6bfd2	0.022308264
67	0x3e9d10aa	0.30676776
68	0x3dca1988	0.09868151
69	0xbe8ffbe4	-0.28121865
70	0xbebcfec0	-0.3691311
71	0x3f169d44	0.5883372
72	0x3ec5a065	0.38598934
73	0xbe2e45aa	-0.17018762
74	0xbe0b5bc2	-0.13609222
75	0x3d59781c	0.05309306
76	0xbf1ff26c	-0.6247928
77	0x3e1e20c6	0.1544219
78	0x3cf36a98	0.029713914
79	0xbea1fcff	-0.31638333
80	0xbe4554e5	-0.19270666
81	0xbe5dd351	-0.21662642
82	0xbf02906d	-0.51001626
83	0x3bf08f56	0.0073413057
84	0x3b86133d	0.004091649
85	0xbcfceb3c	-0.030873887
86	0x3e1fbe88	0.15600026
87	0xbd155232	-0.03645534
88	0x3dbb46bc	0.09144351
89	0xbd7e29c7	-0.06205156
90	0x3cbf18cf	0.02332726
91	0xbd9bb02b	-0.07601961
92	0x3e815ac1	0.25264552
93	0xbd742df5	-0.05961414
94	0x3dff3153	0.1246058
95	0x3d266089	0.040619407
96	0xbf1cc0b3	-0.61231536
97	0x3dacd2d0	0.08438647
98	0x3d636f9c	0.05552636
99	0x3e4218e4	0.18954808
100	0x3e9b5550	0.30338526
101	0x3e7a754c	0.24458808
102	0x3ecc46ca	0.39897758
103	0x3dcf47c1	0.10121108
104	0x3e03ae9f	0.12859581
105	0x3ed0e53b	0.4079989
106	0x3ef82f15	0.4847342
107	0x3d4b3cf2	0.04961867
108	0xbd6efdb0	-0.058347404
109	0x3ebb9e8a	0.36644393
110	0x3d8c7ff2	0.06860341
111	0xbe952321	-0.29128364
112	0x3d381de0	0.044950366
113	0xbc8180cf	-0.015808491
114	0x3d71d3cb	0.059039872
115	0xbe8549ce	-0.2603287
116	0xbea4bae5	-0.3217384
117	0xbe1a31f0	-0.15058112
118	0x3e20156b	0.1563317
119	0x3f1d8278	0.61527205
120	0xbeb67dbb	-0.356428
121	0x3d8b8cbf	0.068139546
122	0xbd62c42f	-0.055362877
123	0x3df99fb6	0.121886656
124	0xbf36abba	-0.71355784
125	0xbd843cf1	-0.06456936
126	0xbd0a7283	-0.033800613
127	0xbe1c203f	-0.15246676
128	0x3f41b3bc	0.7566488
129	0x3dcedab4	0.10100308
130	0x3e83c30b	0.25734743
131	0x3de856cc	0.1134468
132	0xbe986b29	-0.29769257
133	0xbea185af	-0.31547305
134	0x3e95ab4b	0.2923225
135	0x3e3682aa	0.17823282
136	0x3f3faff6	0.7487787
137	0x3f19a6c0	0.60020065
138	0xbd35a04d	-0.044342328
139	0x3df4a025	0.11944608
140	0xbd2526ea	-0.040320314
141	0x3d33c6d0	0.043890774
142	0x3d0bfb24	0.034175053
143	0xbc15fb7f	-0.0091542
144	0xbe541481	-0.20710947
145	0x3e704364	0.23463207
146	0x3f34219c	0.70363784
147	0xbd9722c9	-0.073796816
148	0x3e1e2918	0.15445364
149	0x3dd25fe9	0.102722
150	0x3ebc5486	0.36783236
151	0xbdf4682a	-0.1193393
152	0xbe542af3	-0.20719509
153	0x3e351758	0.17684686
154	0x3ef40041	0.47656444
155	0xbed82a0e	-0.42219585
156	0x3e59e42e	0.2127845
157	0x3e3333fb	0.17500298
158	0xbd543f6b	-0.051818293
159	0x3eeda194	0.46412337
160	0xbe4f28f0	-0.2023046
161	0x3f36eb0d	0.7145241
162	0x3e229be9	0.15879788
163	0x3d7ca301	0.06167889
164	0xbe8b5747	-0.27215025
165	0x3e200fae	0.15630981
166	0xbeb96d89	-0.3621638
167	0x3eb3e506	0.3513567
168	0x3ddf5b5c	0.10906097
169	0x3e7afd3b	0.24510662
170	0x3bdad7d6	0.0066785617
171	0x3c50b662	0.012738796
172	0xbeaf07b2	-0.3418556
173	0x3deb4a73	0.114888094
174	0x3dc44cf1	0.09584988
175	0x3e4e9eb3	0.20177726
176	0x3e15a10f	0.1461222
177	0xbe3424b0	-0.1759212
178	0x3dc27d41	0.094965465
179	0x3df0f3eb	0.11765274
180	0xbd91378f	-0.07090675
181	0x3dd72690	0.10505402
182	0xbe52a5e6	-0.20571098
183	0xbec466ec	-0.38359773
184	0x3ce557b0	0.027995914
185	0xbec1dbbf	-0.37862965
186	0xbf3cd52c	-0.73762774
187	0x3e603376	0.21894631
188	0x3e2c6b1b	0.16837732
189	0x3e4f3ef2	0.20238855
190	0xbc0a88d1	-0.008455471
191	0xbd920cee	-0.071313724
192	0x3f163147	0.5866894
193	0xbf415d31	-0.75532824
194	0x3d7d889d	0.061897863
195	0xbe03735a	-0.12836972
196	0xbd3ca11a	-0.046052076
197	0x3e8284ab	0.25491843
198	0x3e39101e	0.18072554
199	0xbf4d6033	-0.80224913
200	0xbec0380a	-0.37542754
201	0xbe5de2ba	-0.2166852
202	0xbd7548e5	-0.05988397
203	0xbe809f32	-0.25121456
204	0x3ec2fe93	0.3808485
205	0x3db0857c	0.0861921
206	0x3e399edd	0.18127008
207	0x3ec23924	0.3793422
208	0xbda6a84a	-0.08137567
209	0xbd4d748c	-0.050159976
210	0x3e7b3d11	0.24535014
211	0xbcb84ce6	-0.022497606
212	0xbf0261d0	-0.509305
213	0x3ea3f1e7	0.32020494
214	0xbda87576	-0.08225529
215	0xbb4aa56c	-0.0030921353
216	0x3de9a352	0.11408104
217	0x3e5fc275	0.21851523
218	0x3c849d97	0.016188426
219	0xbe816e33	-0.25279388
220	0x3ebb15b7	0.36540005
221	0x3d89a257	0.06720417
222	0xbe57d31a	-0.21076623
223	0xbd907e4c	-0.07055339
224	0x3d07ae54	0.033125237
225	0x3ef92c82	0.4866677
226	0x3d104a04	0.035226837
227	0x3d29bd21	0.041440133
228	0xbeae1738	-0.3400209
229	0x3d56aeb5	0.052412707
230	0x3ee1e4de	0.44119924
231	0xbc72a356	-0.01480945
232	0x3eb63a8b	0.3559154
233	0xbeaa94b5	-0.3331658
234	0xbe907c43	-0.28219804
235	0x3d6c2e52	0.057661362
236	0x3c5558f5	0.013021697
237	0xbf4d1f11	-0.8012553
238	0x3df9682a	0.12178071
239	0x3ef7b322	0.48378855
240	0x3e07b598	0.13252866
241	0x3dc8b7cd	0.09800682
242	0x3d825c53	0.06365266
243	0xbe709aa4	-0.2349649
244	0x3e9ffff6	0.3124997
245	0x3e6d8cf1	0.23198296
246	0x3cf04d98	0.029333875
247	0xbea5bf46	-0.32372493
248	0xbd0ff930	-0.035149753
249	0x3d348095	0.044067938
250	0xb95d9147	-0.00021130322
251	0x3dbbcd95	0.09170071
252	0x3c8655ce	0.016398337
253	0xbe6f91e7	-0.23395501
254	0x3d8d8910	0.06910908
255	0x3f120ea8	0.57053614

layer2.bias f4 [128]
0	0xbc9f2513	-0.019426858
1	0x3d64b189	0.055833373
2	0x3dc0ff5e	0.094237074
3	0xbd397b3d	-0.045283545
4	0x3d368862	0.04456366
5	0x3dbfb0bd	0.09359882
6	0x3d81c671	0.06336678
7	0x3db019c2	0.08598663
8	0x3d5af185	0.053452987
9	0x3de82585	0.11335281
10	0x3d45451e	0.04816162
11	0x3e05ae5b	0.13054793
12	0x3e0bba82	0.13645366
13	0xbd10290e	-0.035195403
14	0x3d882b56	0.06648891
15	0x3d68e529	0.05685917
16	0x3d96f35b	0.07370635
17	0x3d94eaf4	0.07271376
18	0x3d02dde1	0.03194988
19	0x3cc25e75	0.023726681
20	0xbd8490f8	-0.06472963
21	0x3c5defe1	0.013545961
22	0x3e16450a	0.14674774
23	0x3d3030d5	0.04301532
24	0x3dff7407	0.12473302
25	0x3d004209	0.031312976
26	0xbdac9143	-0.08426144
27	0xbe2332ed	-0.15937395
28	0x3d7f6e46	0.062361024
29	0x3db01084	0.085969
30	0xbd954b96	-0.072898075
31	0x3df97c6b	0.12181934
32	0x3de4b935	0.11168138
33	0x3db7b6e8	0.089704335
34	0xbdcfe600	-0.10151291
35	0x3d0e0701	0.03467465
36	0x3e06fd93	0.13182668
37	0xbd6917b6	-0.056907378
38	0x3ddb9967	0.107226186
39	0xbd79b146	-0.060960077
40	0xbcafa278	-0.021439776
41	0x3ddb10a8	0.10696536
42	0x3cdb79f6	0.026791554
43	0x3d33dcec	0.04391186
44	0x3d312679	0.04324958
45	0x3d97ce3b	0.07412382
46	0x3d424fa5	0.047439236
47	0x3d5ed47f	0.05440187
48	0x3cbfdb88	0.02342011
49	0x3e1cf5b0	0.15328097
50	0x3db79c75	0.08965389
51	0x3d4a9d50	0.04946643
52	0x3ddcc5cd	0.10779915
53	0x3c35bacf	0.011091902
54	0x3d1f9070	0.038956106
55	0x3bab7025	0.0052318745
56	0x3c82b234	0.015954114
57	0x3d15a33d	0.03653263
58	0x3dd97af2	0.10619153
59	0xbcd5f49d	-0.026117617
60	0xbd928f54	-0.07156244
61	0x3df1baa0	0.11803174
62	0xbd70b4c5	-0.058766145
63	0x3db0444c	0.086067766
64	0x3dcf2bdf	0.101157896
65	0x3c7d46d5	0.015458782
66	0x3d34deba	0.04415772
67	0xbcc17d1b	-0.023619225
68	0x3ce34030	0.027740568
69	0x3c876b4c	0.016530655
70	0xbd12bdbc	-0.035825476
71	0x3de79fc0	0.11309767
72	0x3dc733b3	0.09726658
73	0x3d5eb8dd	0.054375518
74	0x3db68c6f	0.08913504
75	0x3db07868	0.08616716
76	0xbdbe72af	-0.09299218
77	0x3d8b731a	0.06809063
78	0xbd1d10a7	-0.03834596
79	0xbc5c7c79	-0.013457411
80	0x3dd8ccd9	0.105859466
81	0xbca607cb	-0.020267388
82	0xbddda4aa	-0.10822423
83	0x3d9e519b	0.07730409
84	0xbb4713c0	-0.0030376762
85	0x3c0c4c04	0.008563045
86	0x3e0455f5	0.12923415
87	0x3ca267f6	0.019824963
88	0x3dbc33ad	0.09189544
89	0x3d6ea1eb	0.058259886
90	0x3dac5289	0.0841418
91	0x3e1eafd2	0.15496758
92	0xbd905fd7	-0.0704953
93	0xbd2729cd	-0.04081135
94	0xbbc59127	-0.0060292664
95	0x3ca671b4	0.02031789
96	0xbdadb17c	-0.08481118
97	0x3de4a857	0.11164921
98	0x3d4c37a7	0.04985776
99	0x3d24c36a	0.040225424
100	0x3d205f8f	0.03915363
101	0x3b9c1942	0.004763753
102	0x3d2ecfce	0.042678647
103	0xbd68fef9	-0.056883786
104	0xbd8bf389	-0.0683356
105	0x3dfb0fea	0.12258895
106	0xbd9657be	-0.07340954
107	0xbda22ba4	-0.0791848
108	0xbd9b78eb	-0.07591423
109	0x3d08adc1	0.03336883
110	0xbd93eaf9	-0.07222552
111	0x3d791410	0.06081015
112	0x3ddbb4a1	0.107278116
113	0x3e2999b6	0.16562542
114	0xbd392f31	-0.04521102
115	0xbdced6cf	-0.10099565
116	0x3d82cf07	0.063871436
117	0x3d0f4e1b	0.034986597
118	0x3ddb09d7	0.10695236
119	0x3c865be5	0.01640124
120	0x3d84cb5d	0.06484101
121	0x3e2b8bb5	0.16752513
122	0xbd0f87ef	-0.035041746
123	0x3d763aea	0.06011478
124	0x3dabf2dc	0.08395931
125	0x3d7d787e	0.06188249
126	0x3d95e4a4	0.07319
127	0x3df04d47	0.117334895

layer3.weight f4 [4, 128]
0	0xbf8c2abc	-1.0950541
1	0x3de6f50b	0.11277207
2	0x3ddc001b	0.107422076
3	0x3c99e77a	0.018787134
4	0x3ed1a946	0.40949458
5	0x3e519144	0.2046557
6	0xbde193cd	-0.11014519
7	0x3e5c93b2	0.21540716
8	0xbe82f8cc	-0.25580442
9	0xbebbd999	-0.3668945
10	0x3e43168b	0.19051568
11	0x3d21552b	0.039387863
12	0x3e14f0b4	0.14544946
13	0xbee04245	-0.4380056
14	0x39ad8d89	0.00033102583
15	0x3e31dc50	0.17369199
16	0x3e73c011	0.23803736
17	0x3e367819	0.17819251
18	0x3f049151	0.51784235
19	0xbc08b5f9	-0.008344167
20	0xbd9d43a2	-0.076789156
21	0xbd7f8cc2	-0.062390096
22	0x3e5321e6	0.206184
23	0xbebc1f80	-0.36742783
24	0x3ebf52d8	0.37367892
25	0xbe1a0e56	-0.15044531
26	0xbc8697fd	-0.016429896
27	0x3eaab33f	0.3333988
28	0xbf6197d2	-0.88122284
29	0x3e6c46cc	0.23073882
30	0xbcf60ef1	-0.030036421
31	0x3e5eb83a	0.21749964
32	0x3e7c69e4	0.24649769
33	0x3e9e9851	0.30975583
34	0x3de81898	0.11332816
35	0xbebf2592	-0.3733335
36	0xbd8cc53c	-0.06873557
37	0x3eb5eaf4	0.35530818
38	0xbee70274	-0.4511906
39	0xbd5bb27e	-0.05363702
40	0xbf32740e	-0.69708335
41	0x3e646c89	0.22307028
42	0x3e0b34ea	0.13594404
43	0x3e1c59be	0.15268609
44	0x3e11a43d	0.14222808
45	0x3ca8d135	0.02060757
46	0x3f0deab4	0.55436254
47	0xbf10820f	-0.56448454
48	0x3e862693	0.26201305
49	0xbf392c19	-0.7233291
50	0x3e17f23a	0.14838496
51	0x3f04a438	0.5181308
52	0x3e24c30c	0.1609003
53	0x3db6b863	0.08921888
54	0xbe8e8674	-0.27836955
55	0x3cb91cff	0.022596834
56	0x3d05c2bf	0.032656427
57	0x3e5b3279	0.21405973
58	0xbef998eb	-0.4874948
59	0x3e81828e	0.25294918
60	0x3d254ef1	0.040358488
61	0xbf43321b	-0.7624833
62	0xbc716649	-0.014733859
63	0x3e44c869	0.19217075
64	0x3ebb4337	0.36574718
65	0x3dd20f89	0.10256869
66	0x3f175a36	0.59122026
67	0x3da6fe71	0.081539996
68	0xbdabfa56	-0.08397357
69	0x3dfc3d30	0.12316358
70	0x3d6062d9	0.05478177
71	0x3cc96bed	0.024587596
72	0x3e81d63e	0.25358766
73	0xbc33c501	-0.010972262
74	0xc001f78a	-2.0307336
75	0x3ef615b1	0.48063424
76	0x3cca3aef	0.024686305
77	0x3d425515	0.04744442
78	0xbcd1a097	-0.02558927
79	0xbdc10042	-0.09423877
80	0x3e2eee6c	0.17083138
81	0xbe9f15e4	-0.3107139
82	0x3e74fead	0.23925276
83	0xbed4c6a3	-0.41557798
84	0x3e1ba064	0.15197903
85	0xbd90a206	-0.070621535
86	0x3e527480	0.20552254
87	0xbf4ef198	-0.8083739
88	0xbfbb1d96	-1.4618404
89	0x3e73622c	0.23767918
90	0xbd8d80bc	-0.0690932
91	0x3e81fc6f	0.25387904
92	0x3b286634	0.0025695683
93	0x3d9eaca3	0.077477716
94	0xbe0f5791	-0.13998248
95	0x3eb8279b	0.35967717
96	0x3c2dded9	0.010612213
97	0x3e6585cf	0.22414325
98	0xbe111a3c	-0.14170164
99	0xbea84640	-0.32866096
100	0xbda78662	-0.08179928
101	0x3e0aad69	0.13542713
102	0xbe8b8006	-0.27246112
103	0xbd9ce08a	-0.07660015
104	0xbda22849	-0.0791784
105	0xbf1cf528	-0.6131158
106	0x3cfd1438	0.03089343
107	0xbc55b880	-0.0130444765
108	0xbdc1779d	-0.094466425
109	0xbeab8543	-0.33500108
110	0xbce4f2f9	-0.02794789
111	0x3e0aedec	0.13567322
112	0x3e089b4d	0.13340493
113	0x3e3e31dc	0.18573707
114	0x3c07932e	0.0082748365
115	0xbd9d5da7	-0.076838784
116	0xbfbd14b6	-1.4771945
117	0x3ce5f39a	0.02807026
118	0xbf2dd0ca	-0.6789671
119	0xbed351a2	-0.41273218
120	0xc0105468	-2.2551517
121	0x3e5574af	0.20845293
122	0xbd725e84	-0.05917217
123	0x3ad7cb32	0.0016463755
124	0xbef8eafe	-0.48616785
125	0x3ccc8f35	0.02497063
126	0xbe089f40	-0.13341999
127	0x3cd23da6	0.025664162
128	0x3e1023ae	0.1407611
129	0xbd099d9f	-0.033597585
130	0xbf2630f3	-0.6491844
131	0xbd36e08a	-0.04464773
132	0xbcb4be03	-0.02206326
133	0xbf9c4b5d	-1.2210499
134	0x3f0185d0	0.50594807
135	0xbfacecc2	-1.3509753
136	0x3d420853	0.04737122
137	0x3d7e87c4	0.062141195
138	0x3e6dd904	0.23227316
139	0x3f2237d4	0.63366437
140	0xbe9550c3	-0.2916318
141	0x3e7933d2	0.24336174
142	0x3d2c93e9	0.042133246
143	0x3e9a18b3	0.3009697
144	0x3e604e92	0.21904972
145	0x3e685d48	0.22691834
146	0x3dc86bb9	0.097861715
147	0xbfda1a16	-1.7039211
148	0x3d912cf4	0.07088652
149	0x3ec39d68	0.3820603
150	0x3eefe0b9	0.46851137
151	0xba0d2e61	-0.0005385634
152	0x3f70a2a0	0.93998146
153	0x3e8231d8	0.25428653
154	0xbd97173d	-0.07377479
155	0xbf6b4e92	-0.91916764
156	0x3e8716ae	0.2638449
157	0xbd049b59	-0.032374714
158	0x3d65d596	0.056111895
159	0xbf6afe1e	-0.91794
160	0x3ec1c184	0.37842953
161	0x3eae8c5b	0.34091458
162	0x3e98c690	0.2983899
163	0x3ee34a40	0.44392586
164	0x3e952aa6	0.291341
165	0xbe1e1249	-0.15436663
166	0xbeb7275c	-0.35772216
167	0x3c16d31f	0.009205609
168	0xbf189de2	-0.5961591
169	0x3e917f5d	0.28417483
170	0x3e82f31c	0.25576103
171	0x3f0b9a1d	0.54532033
172	0xbe8f219e	-0.27955335
173	0x3e98c7b3	0.29839858
174	0xbd64be0e	-0.055845313
175	0xbf49d4f3	-0.7884056
176	0xbf95eba8	-1.1712542
177	0x3e9a6e64	0.30162346
178	0xbf4b6c45	-0.7946208
179	0x3f3798f8	0.71717787
180	0x3eb553fa	0.35415632
181	0xbecaa510	-0.39579058
182	0xbd2731d7	-0.040819015
183	0xbf67946d	-0.90460855
184	0x3d849f78	0.06475729
185	0x3db53339	0.088476606
186	0x3f4ecd42	0.8078195
187	0x3e39b081	0.18133737
188	0xbc649fde	-0.013954131
189	0xbf278eea	-0.65452445
190	0x3c7daea9	0.015483537
191	0xbf7652bc	-0.9621999
192	0xbf7444e3	-0.9541761
193	0x3e2e692b	0.17032306
194	0xbf5990dc	-0.8498666
195	0x3c6e57c2	0.01454729
196	0xbf41893d	-0.75600034
197	0xbcce1328	-0.025155619
198	0xbedffed7	-0.43749115
199	0xbf3274bc	-0.6970937
200	0xbe82cbf5	-0.25546232
201	0xbf4a91cc	-0.7912872
202	0x3f48bebe	0.7841605
203	0x3eac9457	0.33706924
204	0x3d12374b	0.035697263
205	0xbf9d022c	-1.2266288
206	0x3e46e127	0.19421826
207	0x3e192024	0.14953667
208	0x3e036a2d	0.12833472
209	0xbcfdad6d	-0.030966485
210	0xbf2f3781	-0.6844407
211	0x3f34ab6b	0.70574063
212	0x3e944450	0.28958368
213	0xbfa473ac	-1.28478
214	0x3a70af9a	0.000918144
215	0xbf01899a	-0.5060059
216	0xbd82ea0c	-0.06392297
217	0x3e0cfa1d	0.13767286
218	0xbf5255c2	-0.82162106
219	0xbdf98e60	-0.12185359
220	0x3cd57fe4	0.02606196
221	0xbfad2762	-1.3527644
222	0x3f35bba1	0.70989424
223	0x3eed47dd	0.4634389
224	0x3c32d562	0.010915132
225	0x3e2d7e25	0.16942652
226	0x3f240d82	0.6408311
227	0x3f004913	0.501115
228	0x3a85ae09	0.0010198961
229	0xbfbcbb63	-1.4744686
230	0xbf0fb956	-0.56142175
231	0xbd25aeb0	-0.040449798
232	0xbda3e876	-0.08003323
233	0x3f146e7b	0.5798108
234	0xbf3380a2	-0.70118153
235	0xbd0ef2e7	-0.03489962
236	0xbceaa4f2	-0.028643105
237	0x3dcc5ac6	0.09978251
238	0xbcb99cf1	-0.022657843
239	0x3e9623c5	0.29324165
240	0xbf04ab47	-0.5182385
241	0x3ef291c7	0.47376844
242	0x3d0820d3	0.03323443
243	0xbd98f7dd	-0.07469151
244	0x3c483ef0	0.012222037
245	0xbf5da4b6	-0.86579454
246	0xbeb81636	-0.35954446
247	0xbe454282	-0.19263652
248	0x3ea66e8b	0.32506213
249	0x3e953f70	0.2914996
250	0x3e16a93a	0.14712992
251	0x3c7b223c	0.015327986
252	0xbde72b45	-0.1128755
253	0xbee6a9a6	-0.45051306
254	0xbf10b4db	-0.56525964
255	0x3f4c7ff0	0.7988272

layer3.bias f4 [4]
0	0xbc00da55	-0.007864554
1	0xbd9fabc9	-0.07796437
2	0x3cc58c71	0.02411482
3	0xbb5d4bd0	-0.0033767112
