models/dagger_model_iter4.pth (torch, 75510 bytes, 6 tensors)

layer1.weight f4 [128, 8]
00000000: 0bdb 7b3d c934 0b3d 3783 42bf 88aa 6c40
00000010: 0460 9abc cea1 20be b1d1 9d3d d673 ba3e
00000020: f244 4d3e f031 a13d b811 773e 86f0 12bf
00000030: 2076 003f af64 e43e 8bd4 d7be 9b74 d9bc
00000040: ff7c 5cbe d18f dcbe 39a0 843f dbba 213f
00000050: b7b2 b23e 00bc 0e3f c0bf b93d f0e5 233e
00000060: 4196 44bf d357 a53e bfe9 c03e b014 19bf
00000070: a749 b83e 7122 e63e 1232 f93e ae6c e5be
00000080: 2663 6cbc b167 e23d 1b15 4e3f ae1f 08bf
00000090: 0709 d23e d38e 3e3f ff9b 1fbf 80af 013f
000000a0: 6b88 683e 5cd0 f53e 8755 3bbf 95cd 1e3f
000000b0: 40cd 833e 426f ac3d e87d 1a3e 9718 d73c
000000c0: 9ce6 b03e cabb cf3e 13e9 5dbf 089d 9fbe
000000d0: c8f8 373e 8ccf 52be 6213 9c3e 9994 063d
000000e0: 69f3 1c3e 4fc1 253e 6922 89bf e864 213f
000000f0: 98ad 943e a8e4 4fbf 9937 2e3e 9658 8ebe
00000100: c0fd 87be cc20 7bbd 0f4f 21bf 96a8 ba3f
00000110: 85d2 b33e ca48 acbe 8667 cb3b e6f9 cdbe
00000120: 85a5 17bf e7f5 11bf 4128 b7bf ba03 043f
00000130: 65f9 27bf dff7 fbbe f979 1c3e 3bc4 5e3e
00000140: 32d1 013e 57b2 93be b7a6 fcbe 10f0 4bbe
00000150: a957 d83e efcd 803f 1596 9dbe fb6a 14bf
00000160: 36e3 f4be d30c 883d 6b8f a33e 574e 2a3f
00000170: ddd6 afbd e8e2 493f 665e ba3d 3d5e 9cbe
00000180: e786 183f 317a d43e 5958 21bf 8e9d 0b3f
00000190: 19af 223e 7b90 b7be 7159 963e f805 323e
000001a0: 9df7 6dbe d156 b03e 1fdf 113b 8acf dcbe
000001b0: f389 743e dfd2 99be a05f a73d 0a91 d8bb
000001c0: 98e5 65be 2b80 ac3e 6b77 243f 93ee 8d3e
000001d0: a8f7 72bf 332a 92bd 1255 a03d c845 afbd
000001e0: 6285 45bf e637 e5bd 7239 083d bcc8 83be
000001f0: b286 093f 60d4 153f c12c 70be 219f 0d3d
00000200: fcb6 abbb 95f9 a83e c68a 673e b007 10be
00000210: 186a 213e e50d 703f 9f6a 05bf 1db0 96be
00000220: 5bbd a8be 7b8a b93e 8c67 4cbf 644b 223e
00000230: ff55 b23e 517d 3d3e cc47 81be 5bc0 2f3e
00000240: e3b0 503e aba9 793e 1a47 193f c11e 063f
00000250: 6eb0 07bf 0d4c 5ebf b3c5 a33e 7b7f 67be
00000260: 5984 863f cf23 cbbe ba37 da3d 5214 cbbd
00000270: 6ed1 0c3f 111f aa3e cb44 a3be 73d3 863e
00000280: ce24 f03e 4501 0fbd f3e8 c63e 07f1 dfbd
00000290: 0044 4ebf aafc 1c3f 9a3a 423d b427 a1bc
000002a0: baec 283f 5cdb 09bd 781b b83e be9b e5be
000002b0: bb68 3cbf 6f83 eebe 559a 623d dd07 57bd
000002c0: 05ed 4d3e 76d6 81be 4b7e 36bf 6816 acbe
000002d0: 9c8c 9d3e 78ea aabf 6d8b 6d3e 126f b83d
000002e0: b25c dcbb b804 0c3f 57ac 5a3e 1792 1e3f
000002f0: b57f 60bc 4088 2c3d 78b5 01bd f269 74be
00000300: de85 70be 056f 95bf 2ace 1040 4c88 803f
00000310: f0d8 573f 4d7c c6bd 18ca 683d 5364 933e
00000320: db4f 0fbe cee0 733e 9906 b13e 3c7b 04bd
00000330: f830 60bf 3871 64bf 5bbe 09bd e581 0ebe
00000340: 95bd 8fbc 8b6e 9dbd 8a8f 5fbf c7c1 3940
00000350: 9359 fb3d 1ea0 d3bc 3e3a 203e 16ab ae3d
00000360: de6d e6bd ff5b cebe 9048 81bf 56fd 533f
00000370: 8cc6 69bf d2d4 d43d 5160 b1be 823d 06bf
00000380: 0784 15be f861 b23e 6cde 473f cb12 1dbf
00000390: 1440 2c3f 4560 433f 0c42 39bf e843 333e
000003a0: 1c5b 65be 9052 2a3e 37b6 543d 8530 d03e
000003b0: 128e 93be b5c0 2fbf 05f2 82be 1598 41bd
000003c0: bd99 493f 7a89 a9be d892 93bd 74c6 cbbe
000003d0: 7d2b aabe 371e 763d defa 063e 971b 513d
000003e0: 842b b3be 2869 02c0 ebab c7be fca6 b73f
000003f0: f39b ffbe 6207 74be fc0d 863c 7614 483e
0.061488193 0.033985887 -0.7598147 3.6979084 -0.018844612 -0.15686724 0.07706011 0.364165
0.20045832 0.07870853 0.24127853 -0.5739826 0.50180244 0.44608065 -0.42154345 -0.02654486
-0.21532057 -0.43078473 1.0361396 0.63175744 0.34901974 0.55755615 0.090697765 0.16005683
-0.7679177 0.32293567 0.37678334 -0.5979719 0.35993692 0.44948152 0.48671013 -0.4480948
-0.014427936 0.11054934 0.80500954 -0.5317334 0.41022512 0.7443668 -0.62347406 0.50658417
0.2270829 0.48010528 -0.7317738 0.62032443 0.2574253 0.08419658 0.15087092 0.026256843
0.3455094 0.4057296 -0.8668377 -0.31174493 0.17965996 -0.20586985 0.30483538 0.032856558
0.15327229 0.16187023 -1.0713626 0.63044596 0.29038692 -0.81208277 0.17013396 -0.2780196
-0.26560783 -0.061310574 -0.6301126 1.4582698 0.3512155 -0.33649284 0.0062074093 -0.4022972
-0.5923694 -0.5701584 -1.430916 0.51568186 -0.6561492 -0.49212548 0.15280904 0.21754543
0.12677458 -0.28847 -0.49345943 -0.19915795 0.4225438 1.0062846 -0.30778566 -0.5797574
-0.47829598 0.06643071 0.31945357 0.6652579 -0.08585904 0.78861856 0.09100036 -0.30540648
0.59580845 0.41499475 -0.6302543 0.54537284 0.15887107 -0.35852417 0.29365113 0.1738509
-0.23238988 0.34441236 0.0022258235 -0.4312709 0.23880748 -0.30043694 0.08172536 -0.006609087
-0.22450864 0.33691534 0.6424472 0.2772108 -0.94909143 -0.07136955 0.07828726 -0.085582316
-0.7715665 -0.111923024 0.03325791 -0.25739086 0.53721154 0.58527184 -0.23454572 0.034575585
-0.0052403193 0.33002916 0.22611532 -0.14065433 0.15763128 0.937712 -0.52115816 -0.2943124
-0.32956967 0.36238465 -0.798455 0.15849072 0.34831235 0.18504836 -0.2525009 0.17163222
0.20379977 0.2438113 0.5987412 0.52390677 -0.53003585 -0.86834794 0.3198677 -0.22607224
1.0509139 -0.39675757 0.1065516 -0.09915985 0.55007064 0.33226827 -0.31888422 0.26333198
0.4690308 -0.03491332 0.388496 -0.10934644 -0.8057251 0.61323035 0.047419168 -0.019672252
0.65986216 -0.033656463 0.35958457 -0.44845384 -0.73597306 -0.4658465 0.055322964 -0.052497733
0.20109947 -0.25358933 -0.7128646 -0.33610845 0.3077134 -1.3352804 0.23197718 0.0900556
-0.0067249173 0.546947 0.21354805 0.61941665 -0.013702323 0.042122126 -0.031667203 -0.2386854
-0.23488566 -1.1674505 2.2625833 1.0041595 0.84315395 -0.09691677 0.056833357 0.2878748
-0.13995306 0.23816225 0.34575346 -0.032344088 -0.8757472 -0.8923526 -0.033628803 -0.13916738
-0.017546454 -0.076871 -0.873284 2.9024522 0.12272944 -0.025833186 0.15647218 0.08528726
-0.11251424 -0.40304562 -1.0100269 0.82808435 -0.91318583 0.10392155 -0.34643796 -0.52437603
-0.14601146 0.3484037 0.78073764 -0.613568 0.67285275 0.7631877 -0.72366405 0.17506373
-0.22398037 0.16633058 0.051931586 0.40662017 -0.2881933 -0.6865342 -0.2557527 -0.047264177
0.7875021 -0.331127 -0.072057426 -0.39799845 -0.33236304 0.06008741 0.13181636 0.051051702
-0.34994137 -2.0376682 -0.3899835 1.4347835 -0.49923667 -0.23830941 0.01636409 0.19539055

layer1.bias f4 [128]
00000000: b331 8c3c 8256 953d dc9b 973e a32d 5cbe
00000010: 5ec0 d4be 01d5 9fbe 16fa 84be 4f10 61bd
00000020: abe3 bc3d aba2 62be 1768 933d 4688 eb3d
00000030: 9b4c 1dbe 0db6 4abd c501 e93d e9d4 2c3e
00000040: d7df bfbe 47c0 f23d 8e24 57be 6120 913d
00000050: 068a 973d 9879 0e3e 08a0 06be 537e 7bbe
00000060: d60f 52be 7023 403e 4ef3 9b3d 194f 0a3e
00000070: 4087 92be adee 5a3e f0a9 4cbb 20d0 83bd
00000080: 30ff 96be dc83 28be b1ff 8c3e 9f3a e43d
00000090: a826 bbbe 9d23 d93d 5de7 0f3d c8ae 61be
000000a0: 0763 183e fe2b 033d 4732 bd3d 7ca6 d33d
000000b0: c9d0 0b3e ccb0 003c 269f 8cbe 6b7d 423e
000000c0: 2c28 a63d 0c54 51bd fa43 933e d033 513c
000000d0: 572d a03e 1459 3a3e 904d c7bc 448f 92bd
000000e0: 2124 de3d 6a55 193b 63bd 74be 5487 5d3e
000000f0: 2463 e83d a0dc 0a3b d98c 343e 719a 97be
00000100: c173 f13d df45 3e3c 85a8 2dbe 55b4 8c3d
00000110: f626 023e 6dee e33d a684 cbbe a600 073e
00000120: 51d8 e73d 8a9b c3be b1fe 03be 3607 b4be
00000130: 3d49 24be 0c5a 173e 19c7 823e e0bd 0bbe
00000140: b990 3abd 51c1 d1bd a991 4a3d 1d72 97be
00000150: cdff 643b 351e 0bbe 7210 9b3d 2fd2 a53c
00000160: 3aa2 c93d f18f 32be c66e 1e3e be15 603e
00000170: 4d65 04bd 69e9 babc 5b04 013e eeea 513e
00000180: e8a8 26be 0dbb 1bbe 08a9 863e 6976 873e
00000190: 6013 883d cde4 8cbe ce2e c93c 78cd ad3d
000001a0: 0288 77be bb49 3c3d 0e81 6ebe 22b9 033e
000001b0: a1b6 28be fe9d 63bc 8b44 bfbc 3d64 7a3d
000001c0: fd0c c33d 25cd 493e ac7e 883d 137d 2ebd
000001d0: de83 7e3e baa9 81be 8bab 823e be4f 16be
000001e0: 1267 743e 6921 773e 2920 afbe 0d97 123e
000001f0: be57 ba3e e26c b3be 07fc 90be f693 3cbe
0.017113542 0.07291891 0.296111 -0.21501784 -0.41553015 -0.31217197 -0.2597205 -0.054947194
0.09223112 -0.22132365 0.07197588 0.115006015 -0.15361254 -0.049490023 0.11377291 0.16878094
-0.37475464 0.1185308 -0.21010038 0.07086254 0.07399373 0.13913572 -0.13146985 -0.24559908
-0.20513853 0.18763518 0.07614766 0.13506736 -0.28618813 0.2138011 -0.003122922 -0.06436181
-0.29491568 -0.1645655 0.27538827 0.111439936 -0.3655293 0.10602496 0.035132755 -0.2203933
0.14881526 0.032024376 0.09238105 0.10334489 0.13653864 0.007854652 -0.2746517 0.18993156
0.08113131 -0.051105544 0.287628 0.012768701 0.31284592 0.18198043 -0.024328977 -0.07156232
0.10846735 0.0023396858 -0.2390037 0.21633655 0.113470346 0.0021188632 0.17631854 -0.29610017
0.117896564 0.011613338 -0.16958816 0.06870333 0.12710175 0.111294605 -0.3974964 0.13183841
0.11320556 -0.38204604 -0.12890126 -0.35161752 -0.16043563 0.14780444 0.25542524 -0.1364665
-0.045548175 -0.1024195 0.04945532 -0.2957925 0.0034942508 -0.13585742 0.07571496 0.020241825
0.098453954 -0.17437722 0.15471944 0.21883294 -0.03232317 -0.022816377 0.12599318 0.20499775
-0.1627537 -0.15208073 0.26300836 0.26457527 0.066443205 -0.2751831 0.024558451 0.08486456
-0.24172977 0.045968752 -0.23291418 0.12863591 -0.16475917 -0.013892649 -0.023348114 0.06113075
0.09523962 0.19707163 0.06664786 -0.04259975 0.24854991 -0.25324804 0.25521502 -0.14678857
0.23867443 0.24133839 -0.34204224 0.14315434 0.36395067 -0.35044008 -0.28317282 -0.18415818

layer2.weight f4 [128, 128]
00000000: 6e3d 0abe c713 05bc 13c0 53be 9229 f73d
00000010: 597c 183f af4f e3bd f440 babd 62a4 de3d
00000020: 66c4 f5bd 73c1 a23e bcc1 cd3e 609f 11bf
00000030: fdbf d4bd a884 ae3d 3921 14be 5ec7 8f3d
00000040: 6254 2e3e de8a 06bd 86ec 3b3f f582 313e
00000050: c46f 8b3d d9e9 a83d 7bef 9d3e ce79 01bf
00000060: bd2f 8c3e e048 5ebd 6425 99bd 2955 b53e
00000070: e441 a13e e605 8fbd afff b63d aa3b 993d
00000080: 73ec d4bd 9add b6bd c478 a0bd 4ea9 8cbd
00000090: 52d3 7f3d 13f3 b3be c6b8 fa3e 7cb9 a3be
000000a0: 0bb6 1e3e a523 debd 7cfd 6c3e 224c 1f3f
000000b0: a69c dd3e a28d 883e 9d56 70bf 186c 403e
000000c0: 3001 6abd 50df cbbd 430e 31bd 237a 20bd
000000d0: 4820 143e f3c1 1bbe 95db 8a3e 7ed4 5d3e
000000e0: 1af5 7d3e f4dc 64be 939c 423f c2ec bcbe
000000f0: 9f3e cb3e bdcf 8ebd a75e 173e 6ff9 9fbd
00000100: b30a 34bf 481c cebb d2bf b63c 7848 a73e
00000110: 2327 d83d 54ec 8dbe bd12 bdbe 4b33 243f
00000120: f684 be3e 65f4 43be 0101 3dbe 4819 bb3d
00000130: fa0e 2cbf c605 263e 82b8 133c 23bb 99be
00000140: 2c6a 4dbe 83cd 7ebe cd5c ffbe 40b2 693b
00000150: 2824 ecbd 6801 1abd b4be 2d3e 5453 dfbc
00000160: 4cbb d53d 2fe9 cabd e234 a93d 669a 94bd
00000170: e0aa 983e 98df 1dbe ea23 103e e63b 7a3d
00000180: d3ed 29bf cc92 113e 9314 c43d 85e4 413e
00000190: e093 cf3e c705 803e 9f9c e03e b3f6 af3d
000001a0: d527 1f3e 8a89 cd3e 2a58 0a3f dc78 183d
000001b0: cd5d dfbc f2a5 c53e 912e 573d 0d04 85be
000001c0: e68f 143d 9ab6 91bc 6163 853d 02be a9be
000001d0: 2e97 aebe 9cb9 eebd be61 243e e1cd 143f
000001e0: a25c c1be 79be a63d 2fc4 62bd 8fbe fa3d
000001f0: 2d2f 49bf 94f8 72bd 8372 0abd 77e8 ecbd
00000200: 2b80 503f 7e7e de3d 26ee 623e d82f b03d
00000210: ae60 a3be a634 e4be 2c6d aa3e 788a 0d3e
00000220: b094 353f 2b4c 093f b05b 01bd b9bc a33d
00000230: c1bd 1c3d e7ee 163d 55e0 d23c 3a37 21bd
00000240: 4763 1dbe a217 6a3e 93ad 443f c3f4 cdbd
00000250: 48f9 133e fdaf e93d 4331 b43e 0bc1 8bbe
00000260: 34b3 a2be 3e6c 293e dfdc 003f cd2a 0cbf
00000270: e5af 873e faac 123e fc4d 583b b258 143f
00000280: f77f 7dbe 7adf 6d3f 247c 083e 2320 7a3d
00000290: b1fe 8bbe 39b3 143e 84b8 c3be c38d ab3e
000002a0: 9341 f43d dcb3 873e edcd 01bd 993a 55bd
000002b0: ebf4 bdbe 7862 af3d 230c 91bd c7f4 5c3e
000002c0: 2991 1c3e 9eec adbe 53ee c13d baf9 1a3e
000002d0: 6eea a1bd 932c 9a3d 46e3 79be 504e c0be
000002e0: 8bcd 523d e205 f5be b7d9 1dbf 72e0 313e
000002f0: e36d 513e 789e 893e 1809 d4bb a859 a4bd
00000300: 3bc8 143f 328a 43bf 9d88 7d3d ad7b 26be
00000310: 6316 82bd 68b9 6d3e 1e10 393e efe4 45bf
00000320: 0136 cebe a6d4 67be 0547 6fbd 9fe6 adbe
00000330: 59c2 ff3e 7fba ab3d 2885 2e3e f66c c93e
00000340: d6e3 8fbd 6adc 76bd 339a a03e cd0d d4bc
00000350: 0f00 03bf ede9 a33e 7af9 87bd 7c36 5cbd
00000360: 961a b33d d827 813e ad62 11bd 6896 91be
00000370: 2e87 d33e da4c 153e f461 66be fa39 8cbd
00000380: 6a9c 073d 8687 0a3f 626c 11bc 7a84 423c
00000390: d323 e3be 0289 643d 809c ed3e 264b e4bc
000003a0: 09dc 033f 3d18 b0be a41a 9cbe a31b 403d
000003b0: fe4e 8fbd 096a 49bf 179f 073e 86a4 fd3e
000003c0: 773b e13d 11c4 a03d a731 d63d 886d 86be
000003d0: 4116 a03e 63e4 693e b674 273d 6000 90be
000003e0: 4f46 8abd aea4 3a3c 4791 5db9 7f71 7d3d
000003f0: 5f17 47bb 79b3 8fbe 1089 8d3d 8a1a 383f
-0.13499996 -0.008122391 -0.20678739 0.12068476 0.5956474 -0.11099183 -0.0909442 0.10871197
-0.12000351 0.31788215 0.4018687 -0.5688381 -0.10388181 0.08521396 -0.14465798 0.07020448
0.17024377 -0.032847278 0.7340778 0.17335112 0.06808427 0.08247728 0.30846772 -0.50576484
0.2738017 -0.054268718 -0.07477835 0.35416535 0.31495583 -0.06983547 0.089354865 0.07482083
-0.103966616 -0.08928986 -0.07835534 -0.0686823 0.06245739 -0.35146388 0.48969096 -0.3197745
0.15499131 -0.108466424 0.23143572 0.62225544 0.43283576 0.26670557 -0.9388216 0.18791234
-0.05713004 -0.09954703 -0.04322649 -0.03917898 0.1446544 -0.15210705 0.27120653 0.2166309
0.2480053 -0.22349912 0.76020163 -0.36899382 0.39696214 -0.06973217 0.14782201 -0.078112476
-0.70328826 -0.0062899925 0.022308264 0.32672477 0.1055434 -0.27719367 -0.3692836 0.64140767
0.37210816 -0.19136198 -0.18457414 0.091356814 -0.6721035 0.1621314 0.009016158 -0.30025586
-0.20060033 -0.24883084 -0.4987549 0.0035659224 -0.11530334 -0.037598997 0.16967279 -0.027261414
0.10436115 -0.099077575 0.0826204 -0.07256012 0.29817867 -0.15417325 0.140762 0.06109228
-0.66378516 0.14216155 0.09574237 0.1893483 0.40542507 0.25004408 0.43869492 0.08591976
0.15542538 0.40143996 0.5404078 0.037224635 -0.027266407 0.3860317 0.052534644 -0.25979653
0.036270045 -0.017787267 0.06513096 -0.33152777 -0.34099716 -0.11656496 0.1605291 0.58126646
-0.37765986 0.081417985 -0.055362877 0.122433774 -0.7858761 -0.059319094 -0.033800613 -0.11567777
0.8144557 0.1086397 0.22161159 0.086028755 -0.31909698 -0.44571418 0.33286417 0.13822353
0.70930004 0.5363185 -0.03158158 0.0799498 0.0382669 0.03684893 0.025741735 -0.03935931
-0.15369903 0.22860578 0.76827353 -0.1005645 0.14450562 0.1141052 0.35193834 -0.27295718
-0.31777346 0.16545197 0.5033702 -0.5475281 0.26501384 0.14323798 0.0033005467 0.5794784
-0.24755846 0.92919123 0.13328606 0.061065804 -0.27342752 0.14521493 -0.38226712 0.33506593
0.1192657 0.2650441 -0.031690527 -0.052057836 -0.3710092 0.08563703 -0.07082393 0.2157775
0.15289749 -0.33969587 0.09469285 0.15134326 -0.07906042 0.07528033 -0.24403104 -0.37559748
0.051465552 -0.4785605 -0.6166033 0.17370775 0.20452075 0.26878715 -0.0064708106 -0.08024913
0.5811803 -0.76382744 0.061897863 -0.16258116 -0.06351926 0.23215258 0.18072554 -0.7730245
-0.40275577 -0.22639713 -0.05841734 -0.33965012 0.49952963 0.08385181 0.17042983 0.39340943
-0.07025878 -0.060268797 0.31367645 -0.025885487 -0.51171964 0.3201441 -0.06639381 -0.053762898
0.08745305 0.2522571 -0.035494495 -0.28435063 0.4131407 0.14580098 -0.22498304 -0.06846996
0.033108152 0.5411304 -0.008875938 0.011872405 -0.4436327 0.055794723 0.46408463 -0.027867865
0.5150762 -0.34393492 -0.30489075 0.046901356 -0.069974884 -0.7867742 0.13244282 0.49539584
0.1099767 0.07849897 0.10458689 -0.2625544 0.31266978 0.22841029 0.04088279 -0.28125286
-0.067516916 0.011391802 -0.00021130322 0.061875816 -0.003037892 -0.28066614 0.06910908 0.71915495

layer2.bias f4 [128]
00000000: 514a e1bc c3de 2b3d 556a e93d 3d7b 39bd
00000010: 4a7a 883d e4d3 d13d d0dc 6a3d 7d0f e53d
00000020: fb12 843d b979 e43d 07b9 823d 273b 163e
00000030: 00bb 203e 10ed 12bb 562b 883d bc7a 653d
00000040: 0aef a13d e16e a23d 6a63 fe3c 3593 253d
00000050: f890 84bd a0d8 823b e8c6 293e 0d2a 383d
00000060: 06ff ef3d 8ea2 393d 4391 acbd 3642 5dbe
00000070: fe3e 633d c66b e63d 964b 95bd f1ab 0f3e
00000080: 65a5 0d3e ccb8 c03d f381 d9bd 7b0d 843d
00000090: c9dc 133e 5aab 69bd ee93 e43d 46b1 79bd
000000a0: ed27 a1bc 7d95 f23d 6421 803b 82cd 923d
000000b0: dfc3 853d d104 cb3d bded 403d f315 4c3d
000000c0: ccb3 073d b39b 1a3e f160 e53d 684d 4a3d
000000d0: c230 f03d 9e3f b13c f03f 6a3d e75a ab3c
000000e0: 34b2 823c cd87 4b3d e57b 0c3e 5bfa 0ebb
000000f0: 548f 92bd b198 fb3d a775 a3bd 02b8 e53d
00000100: 6691 ee3d 8357 773c 6614 c33c 1b7d c1bc
00000110: 6166 1e3d 88f1 ad3c 2334 d3bc f116 073e
00000120: 70db dc3d c31f 4c3d c08f f13d d06b bd3d
00000130: 9d3a f5bd c849 ae3d aba8 4dbd 9c42 223c
00000140: 07fd f13d 39ab 69bc 9171 afbd e087 973d
00000150: 068a c0bc b930 1ebc 7765 ee3d 163e 413d
00000160: d12d dc3d a5de 803d 9c71 bb3d 1fd7 253e
00000170: d75f 90bd 3afc 64bd 9adb 03bd c294 1a3d
00000180: 7cb1 adbd bd04 ff3d 8ae8 8c3d 387f 253d
00000190: 8f5f 203d 771e de3c 622f 773d f9fe 68bd
000001a0: 89f3 8bbd 5daf 043e b8f7 b0bd cc20 a3bd
000001b0: eb78 9bbd 6ba9 973c f9ea 93bd 1284 a53d
000001c0: 48f2 0d3e 01e9 2a3e 312f 39bd cfd6 cebd
000001d0: a484 6a3d 127f 133d aa94 033e c0ee 3f3c
000001e0: 31eb a13d 2e33 313e 95ac 11bd 071f 763d
000001f0: 3546 b03d 730e 5d3d 93db 8e3d 9d23 e73d
-0.027501257 0.04196049 0.11397234 -0.045283545 0.0666395 0.10245493 0.05733949 0.11184595
0.06448933 0.11156029 0.063829474 0.14671002 0.15696335 -0.0022419132 0.06648891 0.05602525
0.07906921 0.07931305 0.031053264 0.04042359 -0.06472963 0.003993109 0.16579783 0.044961978
0.11718564 0.04532104 -0.08426144 -0.21607289 0.055479996 0.11251025 -0.072898075 0.14030434
0.13832624 0.09410247 -0.10620489 0.06447884 0.14439692 -0.05704818 0.11161028 -0.060960077
-0.019672358 0.11844919 0.0039102305 0.07168104 0.065315 0.09913028 0.047101725 0.04982562
0.033130452 0.15098457 0.11200131 0.049390227 0.1172805 0.02163678 0.05718988 0.020917369
0.015954114 0.049690057 0.13719137 -0.0021816704 -0.07156244 0.12284983 -0.07981425 0.11216737
0.11648826 0.015096548 0.023813438 -0.023619225 0.038671855 0.021233335 -0.025781697 0.13192345
0.10784042 0.049834978 0.11794996 0.09249079 -0.1197407 0.085101664 -0.050209682 0.009903576
0.11815839 -0.014262014 -0.08566583 0.07398963 -0.023503315 -0.009655171 0.11640447 0.04717835
0.10750926 0.06292466 0.09152529 0.16195343 -0.0704953 -0.055904604 -0.03219185 0.037739523
-0.08481118 0.12452076 0.06880291 0.04040453 0.03915363 0.027114136 0.060347922 -0.056883786
-0.0683356 0.12957521 -0.086409986 -0.0796524 -0.07591423 0.018513402 -0.07222552 0.08081831
0.13861954 0.16690446 -0.04521102 -0.10099565 0.057255402 0.036009856 0.1284968 0.011714637
0.07906187 0.1730468 -0.035564978 0.060088184 0.08607141 0.053968858 0.06975474 0.112860896

layer3.weight f4 [4, 128]
00000000: a2d9 94bf 9e4f 113e 1ebd ff3d 7ae7 993c
00000010: e696 e73e dee8 803e 809f 1bbe 2c23 6a3e
00000020: 0fff 93be c2a2 c2be a330 573e 10c1 943d
00000030: 528a 363e 6a21 f7be 898d ad39 9589 5a3e
00000040: 8d81 913e a345 533e fa48 0c3f 114b 633d
00000050: a243 9dbd 9caf debd 2727 673e 7ab1 dabe
00000060: 804a be3e 5ca5 4abe fd97 86bc cbea c03e
00000070: 70a9 75bf afa7 8d3e f10e f6bc 7c95 793e
00000080: 79a9 7e3e b8e5 b23e def8 8e3d 59b8 c5be
00000090: c702 06bd 554d c93e ecf0 d6be 7eb2 5bbd
000000a0: e1e1 33bf c393 753e 12c3 073e d434 013e
000000b0: f44a 233e f592 663d 465d 1e3f 57d5 07bf
000000c0: 980c 863e 8d0e 34bf 4556 3d3e 95bd 083f
000000d0: 4c37 3d3e d511 073e 5ba5 d1be 6955 8a3d
000000e0: bfc2 053d db27 983e 3f61 01bf baf7 a33e
000000f0: f14e 253d 4fbf 3bbf a587 71bc 24d4 6f3e
00000100: 961f cc3e c7fa 073e 5d5a 4a3f 71fe a63d
00000110: 9813 92bc 8d87 243e 32e8 843d 8cdd 833d
00000120: 6479 993e 96e4 893c 610b 16c0 843a 043f
00000130: a72d d7bb 7140 793d 22ab 82bd 9c74 19be
00000140: 4ea2 4e3e 5d7e 99be 12db 6b3e 6ce8 d9be
00000150: 3ae6 033e 6c66 88bd f7bc 823e ce03 3dbf
00000160: dbf1 cbbf 9069 913e 2ab6 6abc 5af0 9c3e
00000170: 3466 283b 8f1a 9b3d 8405 08be d124 b43e
00000180: d9de 2d3c 906f 813e eeee bfbd f36a babe
00000190: 6286 a7bd f5cc 473e 941b 1abe 8ae0 9cbd
000001a0: 4928 a2bd d6a6 2abf df53 413d 6860 56bc
000001b0: 9d77 c1bd 5759 d8be f9f2 e4bc c344 303e
000001c0: 2afd 533e d6a0 073e 2e93 073c a75d 9dbd
000001d0: e333 cabf 2ae8 893d 25f0 18bf 3dc7 dfbe
000001e0: 20cf 1dc0 dc6d 723e c4e4 b1bd 32cb d73a
000001f0: d434 06bf 89fd c43d fd81 d3bd d48b 0a3d
00000200: ae11 073e 47f0 89bd 985a 50bf 8ae0 36bd
00000210: 2e96 11bd 4713 b4bf a46d 0b3f 086f bbbf
00000220: cbb9 413e a680 643d 799c 843e 7cb6 383f
00000230: 6a87 b7be c9ff 563e e993 2c3d 69c6 9d3e
00000240: 09f2 5b3e 01a1 813e f885 be3d 3cb2 fcbf
00000250: f42c 913d 56b0 e13e e99d 0f3f 85c8 923c
00000260: c317 9a3f 3397 c53e 3d17 97bd ca94 62bf
00000270: 0080 ba3e 506d 84bd 96d5 653d 309e 85bf
00000280: d8bf f63e c4e6 d43e f568 bd3e c1d8 183f
00000290: 1206 963e bfed 0cbe 1db7 d8be 1fd3 163c
000002a0: c5aa 36bf 43a3 b73e 6b05 9b3e 91a0 253f
000002b0: 2621 84be 0786 a83e 7d7d 7ebd ccd5 6dbf
000002c0: 04b2 acbf ff79 903e abdd 8dbf f197 6a3f
000002d0: 1c26 c03e d8f6 fdbe 90cf b7ba 0906 7ebf
000002e0: 789f 843d 410e 643d cc5a 883f 91d7 3a3e
000002f0: de9f 64bc af7d 3bbf 7b3c 253b d5fb 9abf
00000300: ae74 8dbf ebad 393e c8f5 82bf c257 6e3c
00000310: 625b 63bf 74b4 74bd 039c 12bf ca0c 5abf
00000320: 009d 99be dac2 7fbf 5aa3 743f 0b9a b83e
00000330: 4e31 cf3d 8df1 bbbf 3fcb 803e 8ff7 6f3e
00000340: a6f1 db3d 57d0 46bd 24c8 37bf 028a 323f
00000350: c9a1 c13e e20b b1bf 6150 f3bc ec62 27bf
00000360: c32b 2bbd df30 ef3d 8e7f 72bf 3ea6 2abe
00000370: e47f d53c 3eec c6bf 8e5e 453f 7b6e 203f
00000380: 62d5 323c df5b 203e 9189 453f dc48 0b3f
00000390: 09ae 853a 81e2 e9bf 51eb 2cbf b0ae 25bd
000003a0: 76e8 a3bd c42f 223f 346c 3dbf 77ca 0ebd
000003b0: f2a4 eabc 03d9 353e f19c b9bc 4f91 9b3e
000003c0: 5266 19bf 3ccd 1a3f d320 083d ddf7 98bd
000003d0: c6be 4a3c aee5 74bf 480f e2be 9b2b 49be
000003e0: ea2f a93e 8c3a 9e3e 31cc 523e 4a14 7b3c
000003f0: a231 c9bd 7809 30bf 20c8 24bf 216b 493f
-1.1628916 0.14190528 0.12487243 0.018787134 0.45232314 0.25177664 -0.15197563 0.2286498
-0.28905532 -0.380148 0.21014647 0.07263386 0.17826203 -0.4826768 0.00033102583 0.21341546
0.28419152 0.20632033 0.54798853 0.05549151 -0.076789156 -0.108733386 0.22573529 -0.4271353
0.37166214 -0.19789642 -0.016429896 0.37679133 -0.95961666 0.27666995 -0.030036421 0.2437343
0.24869336 0.34940886 0.069810614 -0.3861721 -0.032717492 0.39316812 -0.41980684 -0.05363702
-0.7026654 0.23982148 0.13258007 0.12617809 0.15946561 0.056292493 0.61861074 -0.53059906
0.26181483 -0.703347 0.1848994 0.5341428 0.18478125 0.13190396 -0.4094647 0.06754572
0.032656427 0.29717907 -0.5053901 0.32024938 0.040358488 -0.7333879 -0.014741813 0.23420769
0.39867848 0.13279258 0.79044133 0.081539996 -0.017831609 0.16067334 0.064896 0.06438741
0.29975426 0.016832631 -2.3444445 0.5165179 -0.0065667215 0.06085247 -0.06380297 -0.14985889
0.20179102 -0.2997922 0.23032787 -0.42560136 0.12880793 -0.066601604 0.25534794 -0.7383393
-1.5933183 0.2840085 -0.014325658 0.30652124 0.0025695683 0.07573425 -0.13283354 0.3518434
0.010612213 0.25280428 -0.09371744 -0.3640972 -0.08179928 0.19511779 -0.15049583 -0.07660015
-0.0791784 -0.6666082 0.047199126 -0.0130845085 -0.094466425 -0.4225566 -0.02794789 0.1721373
0.20702043 0.13244948 0.0082748365 -0.076838784 -1.5797085 0.06733735 -0.5974143 -0.43706694
-2.465767 0.2367472 -0.08686212 0.0016463755 -0.5242436 0.096186705 -0.10327528 0.033824757
0.13190338 -0.067352824 -0.81388235 -0.04464773 -0.035543613 -1.4068383 0.54464173 -1.4643259
0.1891853 0.05578675 0.2590063 0.7215345 -0.358455 0.20996012 0.042133246 0.30815437
0.21479048 0.2531815 0.09302896 -1.9741893 0.07088652 0.44079846 0.56100327 0.01791788
1.2038502 0.38591918 -0.07377479 -0.88508284 0.3642578 -0.06466162 0.056111895 -1.04389
0.4819324 0.4158231 0.36994138 0.5970574 0.29301506 -0.13762568 -0.42327204 0.009205609
-0.71354324 0.35866746 0.3027757 0.6469813 -0.2580654 0.32914755 -0.062131394 -0.92904353
-1.3491826 0.28218076 -1.1083273 0.91638094 0.37529075 -0.4960239 -0.001402365 -0.9922796
0.06475729 0.055677656 1.0652709 0.18246295 -0.013954131 -0.7323865 0.002521305 -1.2108103
-1.1051233 0.1813275 -1.0231256 0.01454729 -0.88811314 -0.059742406 -0.57269305 -0.85175765
-0.30002594 -0.99906695 0.95561755 0.36055025 0.10116826 -1.468309 0.25155064 0.2343428
0.1073945 -0.048538532 -0.71789765 0.69741833 0.37818745 -1.3831751 -0.029701414 -0.6538532
-0.04178978 0.11679243 -0.94725883 -0.16664979 0.02606196 -1.5540845 0.77097404 0.6266858
0.010915132 0.15660046 0.77163035 0.5440805 0.0010198961 -1.8272249 -0.67546564 -0.040449798
-0.08003323 0.63354135 -0.7399323 -0.034861054 -0.028643105 0.17758565 -0.022657843 0.303843
-0.59921753 0.6046941 0.03323443 -0.07469151 0.0123745855 -0.95662963 -0.44152284 -0.1964554
0.33044368 0.30904043 0.20585705 0.0153246615 -0.0982392 -0.6876445 -0.64367867 0.7867909

layer3.bias f4 [4]
00000000: 8cfd 07ba ae9b b6bd 9665 e63c 531c b1bb
-0.0005187623 -0.08916412 0.028124612 -0.005404988
