models/dagger_model_iter2.pth (torch, 75510 bytes, 6 tensors)

layer1.weight f4 [128, 8]
-0.09334857 -0.019366749 -0.36083433 3.2214453 0.07852153 -0.16588792 0.11559893 0.30981657
0.19405676 0.13915993 0.18809015 -0.54199785 0.3664704 0.35635465 -0.3802303 -0.039109573
-0.21628842 -0.3912091 0.91039306 0.5925137 0.33649915 0.519452 0.10540222 0.18201627
-0.72033817 0.3125521 0.36049646 -0.5461882 0.25509316 0.44690964 0.5188152 -0.3943674
0.0026130562 0.10730733 0.6744031 -0.5260149 0.4706476 0.78336215 -0.4042651 0.44066134
0.40309453 0.37518317 -0.6240615 0.42629743 0.122977465 0.05258178 0.22143765 0.059823673
0.23020588 0.36311516 -0.751314 -0.27330786 0.13029768 -0.34940344 0.26092944 0.038005706
0.12134648 0.13437381 -0.7077733 0.61878115 0.3504711 -0.67533296 0.2170233 -0.23918426
-0.2267607 -0.09127854 -0.62519944 1.3988043 0.28529567 -0.3104542 0.022380568 -0.3838634
-0.5189729 -0.40328544 -1.0162783 0.42019585 -0.632351 -0.5637257 0.1758654 0.1572934
0.17232764 -0.26420802 -0.4793929 -0.18603268 0.49282926 0.6267314 -0.32205942 -0.26264518
-0.33424455 0.042817324 0.36937213 0.48868155 -0.27941206 0.80410063 0.09053211 -0.34931955
0.60925263 0.3310986 -0.5108635 0.50166637 0.054745242 -0.2579055 0.27087888 0.17786941
-0.18247095 0.36284426 0.01692852 -0.34736902 0.06605379 -0.16971628 0.08613096 0.014639032
-0.18329175 0.26182717 0.6015003 0.25522003 -0.8728829 -0.16617799 0.10275323 -0.11384591
-0.58398926 -0.06363922 0.16911118 -0.238981 0.3923573 0.673815 -0.12531006 0.09101828
0.06827179 0.3317036 0.25090483 -0.1612768 0.049927574 0.8142606 -0.3458053 -0.27331188
-0.31503746 0.3893935 -0.7124339 0.10120884 0.25363642 0.18650417 -0.26127532 0.14928211
-0.08902152 0.22791849 0.5821761 0.33956233 -0.34100366 -0.39905858 0.24851464 -0.18713635
0.73510545 -0.44018495 0.06376383 -0.15288036 0.48407766 0.44885898 -0.17184222 0.22824252
0.40432546 -0.043873418 0.33867133 -0.12191115 -0.59921294 0.38627216 0.04285505 -0.056428187
0.656769 -0.05995683 0.2703256 -0.45028505 -0.72833854 -0.46352854 0.120764114 -0.04102258
0.26103678 -0.24043997 -0.5128255 -0.30252743 0.53872406 -1.0296545 0.2225096 0.06031366
-0.04953797 0.49073547 0.30180934 0.45703122 -0.026182318 -0.09759419 -0.031667203 -0.2386854
-0.30170527 -1.0104657 1.4412361 0.6032334 0.6857974 0.0041979747 0.025881447 0.2855668
-0.18178849 0.24390055 0.2912864 -0.06288004 -0.8698991 -0.8683424 0.1113623 -0.107334
-0.11710708 -0.028065994 -0.5315724 2.3928566 0.13740169 0.009254321 0.19127002 0.0794422
-0.22844668 -0.36124936 -0.80214983 0.51407087 -0.7233472 0.18443125 -0.29750165 -0.41519958
-0.37094527 0.3571923 0.7035657 -0.5301538 0.3397551 0.7082863 -0.72366405 0.20726638
-0.20548286 0.122020006 0.035403784 0.41773394 -0.24551578 -0.5664608 -0.14791733 0.04389139
0.6358722 -0.31308022 -0.059626035 -0.45830423 -0.3512927 0.0040153884 0.12546678 0.05268461
-0.3251421 -1.2295039 -0.2956422 0.86392903 -0.3266323 -0.21892945 0.015921773 0.2851052
00000000: 892d bfbd 04a7 9ebc 47bf b8be 292c 4e40
00000010: e5cf a03d 86de 29be 22bf ec3d 47a0 9e3e
00000020: d1b6 463e f17f 0e3e b49a 403e 5fc0 0abf
00000030: 02a2 bb3e 1e74 b63e 8cad c2be 5c31 20bd
00000040: b67a 5dbe 8f4c c8be 850f 693f faae 173f
00000050: 9e49 ac3e cefa 043f 1edd d73d 7962 3a3e
00000060: 1568 38bf d406 a03e fe92 b83e fdd2 0bbf
00000070: 929b 823e 57d1 e43e 13d1 043f 86ea c9be
00000080: cf3f 2b3b f2c3 db3d aea5 2c3f eaa8 06bf
00000090: b9f8 f03e 6c8a 483f d6fb cebe 5d9e e13e
000000a0: 6862 ce3e 0218 c03e 7fc2 1fbf a843 da3e
000000b0: 9cdb fb3d fe5f 573d 8dc0 623e ab09 753d
000000c0: 17bb 6b3e 3bea b93e 1d56 40bf 02ef 8bbe
000000d0: c16c 053e 02e5 b2be 8b98 853e dfab 1b3d
000000e0: 8184 f83d 4a99 093e a230 35bf 7168 1e3f
000000f0: f370 b33e 9fe2 2cbf 5b3b 5e3e b8ec 74be
00000100: f533 68be 3ef0 babd 120d 20bf 050c b33f
00000110: 4612 923e daf3 9ebe 7457 b73c be89 c4be
00000120: 68db 04bf 6e7b cebe 6815 82bf e923 d73e
00000130: c1e1 21bf 5450 10bf 0f16 343e 8511 213e
00000140: a876 303e 4646 87be fc72 f5be 5a7f 3ebe
00000150: 1e54 fc3e 7871 203f f9e4 a4be 6e79 86be
00000160: 1a22 abbe 3861 2f3d 581e bd3e 7834 fa3e
00000170: 190f 8fbe 8ad9 4d3f e668 b93d 03da b2be
00000180: fbf7 1b3f c185 a93e f3c7 02bf 356d 003f
00000190: 8c3c 603d 310c 84be a3b0 8a3e 6623 363e
000001a0: aad9 3abe b9c6 b93e aead 8a3c 5ada b1be
000001b0: 3647 873d 1bca 2dbe 6e65 b03d 8dd8 6f3c
000001c0: d5b0 3bbe 360e 863e ecfb 193f 33ac 823e
000001d0: 4175 5fbf 902a 2abe 4970 d23d 0b28 e9bd
000001e0: 5280 15bf 4855 82bd 7b2b 2d3e 6fb7 74be
000001f0: 0ee3 c83e 247f 2c3f 4851 00be cb67 ba3d
00000200: 15d2 8b3d 0ed5 a93e 9976 803e bf25 25be
00000210: db80 4c3d 6273 503f 640d b1be 89ef 8bbe
00000220: 974c a1be 965e c73e 1162 36bf 9546 cf3d
00000230: a2dc 813e f3fa 3e3e e1c5 85be 69dd 183e
00000240: ea50 b6bd 7763 693e 7e09 153f 1ddb ad3e
00000250: 0898 aebe 6851 ccbe 9f7a 7e3e aca0 3fbe
00000260: df2f 3c3f ec5f e1be 9c96 823d ab8c 1cbe
00000270: 07d9 f73e d8d0 e53e 68f7 2fbe 68b8 693e
00000280: bf03 cf3e 9db4 33bd 5466 ad3e 8eac f9bd
00000290: 0566 19bf 77c5 c53e c788 2f3d 3e21 67bd
000002a0: 0322 283f 4b95 75bd 1e68 8a3e c38b e6be
000002b0: 6574 3abf 9d53 edbe 2d53 f73d 4b07 28bd
000002c0: 9da6 853e e535 76be 8848 03bf e0e4 9abe
000002d0: d2e9 093f b8cb 83bf 8ed9 633e 750b 773d
000002e0: 54e8 4abd ae41 fb3e c186 9a3e ffff e93e
000002f0: 4d7c d6bc 76df c7bd 78b5 01bd f269 74be
00000300: 1d79 9abe f156 81bf 6d7a b83f 816d 1a3f
00000310: 6b90 2f3f 2a8f 893b 5405 d43c d035 923e
00000320: c326 3abe 11c1 793e 7e23 953e 40c7 80bd
00000330: b5b1 5ebf b04b 5ebf eb11 e43d eed1 dbbd
00000340: d6d5 efbd a8ea e5bc 2115 08bf 9024 1940
00000350: 07b3 0c3e 709f 173c 4adc 433e 98b2 a23d
00000360: eded 69be adf5 b8be b159 4dbf 269a 033f
00000370: 482d 39bf 8cdb 3c3e 2352 98be 0a95 d4be
00000380: 8aec bdbe e9e1 b63e e21c 343f 29b8 07bf
00000390: 61f4 ad3e 4052 353f 0c42 39bf a33d 543e
000003a0: 196a 52be a0e5 f93d 8f03 113d 39e1 d53e
000003b0: 7d68 7bbe 9303 11bf a477 17be 75c7 333d
000003c0: 85c8 223f 0d4c a0be 6e3a 74bd daa6 eabe
000003d0: a3dc b3be 8593 833b 5d7a 003e d1cb 573d
000003e0: 0679 a6be 6260 9dbf 6a5e 97be 742a 5d3f
000003f0: 593c a7be 0b2f 60be 616e 823c 4ff9 913e

layer1.bias f4 [128]
0.048857577 0.114372574 0.2781548 -0.18307409 -0.37987873 -0.2754522 -0.22889587 -0.041385155
0.09185364 -0.1786419 0.07765046 0.089117855 -0.12406878 -0.08896297 0.11301753 0.22586241
-0.37297568 0.14302757 -0.27423647 0.13124554 0.062263504 0.17805955 -0.09103665 -0.28485134
-0.16602743 0.2124601 0.071000166 0.12657323 -0.23555483 0.25123703 0.016709935 -0.103342734
-0.2660577 -0.15562373 0.31820884 0.10708613 -0.33142155 0.09930263 0.0026993123 -0.15559626
0.18981093 0.02174436 0.10258697 0.07548944 0.13557583 0.0030368683 -0.2500787 0.23674062
0.12914898 -0.087682225 0.29741424 -0.009919657 0.30982268 0.18988581 -0.017160576 -0.07985991
0.1550702 -0.0471152 -0.25735727 0.22461094 0.09303689 0.041669846 0.21161418 -0.29751164
0.104269944 0.026152125 -0.16958816 0.057604704 0.15471813 0.113189965 -0.3103731 0.101574965
0.086909644 -0.3548331 -0.12793875 -0.31035373 -0.17760478 0.20905815 0.2807376 -0.16226791
-0.058549512 -0.09627158 0.06248745 -0.27310553 0.023269562 -0.11617297 0.086024374 0.009370509
0.07718834 -0.16552009 0.18444467 0.18010893 -0.030081209 -0.002900106 0.122861445 0.17951144
-0.14550394 -0.15923998 0.27061126 0.24958186 0.09194806 -0.28314415 0.07238792 0.15001024
-0.21311884 0.03162883 -0.228343 0.15395807 -0.14091435 0.006255099 -0.029444272 0.052694667
0.14466006 0.2230327 0.054687057 -0.023871206 0.24028589 -0.1642228 0.26028624 -0.107103206
0.17459963 0.23384371 -0.34204224 0.154325 0.35795808 -0.32886818 -0.28317282 -0.14324388
00000000: e21e 483d 2b3c ea3d 4e6a 8e3e c677 3bbe
00000010: 777f c2be 1208 8dbe ae63 6abe 7b83 29bd
00000020: c31d bc3d e7ed 36be 3407 9f3d 6c83 b63d
00000030: c617 febd 3832 b6bd bc75 e73d 7a48 673e
00000040: abf6 bebe d275 123e b968 8cbe 3b65 063e
00000050: 0408 7f3d 3e55 363e 6c71 babd 09d8 91be
00000060: 1803 2abe 248f 593e 8968 913d 6a9c 013e
00000070: 4935 71be 24a2 803e 46e3 883c 5ba5 d3bd
00000080: b738 88be d45b 1fbe 45ec a23e f94f db3d
00000090: 16b0 a9be 2d5f cb3d f2e6 303b a054 1fbe
000000a0: cc5d 423e 3a21 b23c 1e19 d23d 359a 9a3d
000000b0: 64d4 0a3e 3206 473b 510a 80be 226c 723e
000000c0: a13f 043e bd92 b3bd ae46 983e 0f86 22bc
000000d0: 14a1 9e3e 6d71 423e 5694 8cbc 988d a3bd
000000e0: b9ca 1e3e defb 40bd 55c4 83be 6900 663e
000000f0: 208a be3d 00ae 2a3d 63b1 583e 7253 98be
00000100: 7b8b d53d fb3c d63c 85a8 2dbe e9f2 6b3d
00000110: 6e6e 1e3e 24d0 e73d 39e9 9ebe 8906 d03d
00000120: affd b13d afac b5be 6002 03be afe6 9ebe
00000130: 07de 35be 5713 563e d7bc 8f3e 8f29 26be
00000140: 9dd1 6fbd 092a c5bd d7f2 7f3d 7dd4 8bbe
00000150: cf9f be3c 18ec edbd 8c2d b03d c386 193c
00000160: ec14 9e3d 197e 29be 10df 3c3e 7a6e 383e
00000170: de6c f6bc b40f 3ebb c89e fb3d d9d1 373e
00000180: fcfe 14be ce0f 23be 8f8d 8a3e 6392 7f3e
00000190: 444f bc3d 45f8 90be 1e40 943d 499c 193e
000001a0: d33b 5abe 3b8d 013d bfd2 69be 2fa7 1d3e
000001b0: da4b 10be 93f7 cc3b 1d35 f1bc 5dd6 573d
000001c0: c421 143e af62 643e 89ff 5f3d 8c8d c3bc
000001d0: 810d 763e 062a 28be 3d44 853e ed58 dbbd
000001e0: 3fca 323e ba74 6f3e 2920 afbe 5f07 1e3e
000001f0: 4846 b73e 6961 a8be 07fc 90be 86ae 12be

layer2.weight f4 [128, 128]
-0.14851923 -0.016822387 -0.19369607 0.14444293 0.39370146 -0.09417932 -0.019725708 9.913043e-05
-0.15082377 0.17194232 0.18090817 -0.45926797 -0.102603205 0.09534996 -0.14586084 0.052344255
0.06667576 -0.008239198 0.074251525 0.13154927 -0.00067313144 0.10162801 0.108589284 -0.40992525
0.19903061 -0.018665059 -0.11413635 0.12224653 0.25606108 -0.0029956782 0.0392557 0.08039339
-0.1298624 -0.12010906 -0.038813487 -0.04625127 0.048703242 -0.28292742 0.4514447 -0.3217065
0.10216943 -0.09707916 0.28339607 0.42511544 0.5335235 0.13523091 -0.7798052 0.11784169
-0.025533678 -0.12316234 -0.022298722 -0.020938441 0.15271251 -0.12305846 0.33523384 0.084474765
0.14249139 -0.19041288 0.95639896 -0.2828067 0.2778761 -0.03848791 0.10991746 -0.04899039
-0.5375905 -0.05241589 0.022308264 0.30356964 0.08578165 -0.27171698 -0.44813934 0.5388979
0.4100763 -0.1500098 -0.11291238 0.020331427 -0.53095186 0.12914635 0.01174348 -0.3304267
-0.19658981 -0.19924477 -0.47717032 0.00043085782 0.049964488 -0.030491786 0.08279867 -0.04339776
0.04530086 -0.03834229 0.004910974 -0.0797725 0.19173616 0.016599037 0.09071039 0.012145704
-0.5176599 0.04242345 0.0422975 0.18287006 0.23746511 0.17056118 0.34021854 0.11027883
0.056468714 0.42254776 0.44416553 0.060195178 -0.08126209 0.31292248 0.043284357 -0.36118737
0.036327325 -0.020847593 0.02267873 -0.15296718 -0.27934632 -0.1619243 0.18867272 0.64877623
-0.29267308 0.056498777 -0.055362877 0.108910136 -0.6009342 -0.06735723 -0.033800613 -0.12580459
0.71385336 0.08223288 0.28049263 0.1394175 -0.22318406 -0.11168158 0.20515066 0.22993076
0.7956718 0.49091288 -0.013177938 0.12284994 -0.19275658 0.04770343 0.05018061 0.015210198
-0.19572143 0.22129065 0.4961363 -0.020937964 0.08743575 0.048191115 0.34494773 -0.008589864
-0.17168391 0.17919339 0.45920673 -0.30662587 0.15742803 0.20027298 -0.2021472 0.20440687
-0.1629891 0.6612155 0.16513985 0.048118584 -0.18686631 0.20293508 -0.34581146 0.3198067
0.09815062 0.19772163 0.0045168893 0.061295614 -0.29677302 0.100831755 0.09098926 0.17636597
0.12693982 -0.10259039 0.073845156 0.072836846 -0.09083348 0.10514469 -0.1901119 -0.38705802
0.008396442 -0.4187136 -0.6462217 0.2668339 0.1014787 0.18436207 -0.042694 -0.02758507
0.6084369 -0.7515886 0.061897863 -0.123498134 -0.05659164 0.24105549 0.2596508 -0.8702005
-0.38660133 -0.19193928 -0.05229488 -0.22461374 0.14541522 0.08833859 0.18628272 0.2771481
-0.09490674 -0.057830617 0.25490257 -0.0006664539 -0.54595286 0.2533242 -0.071758986 0.043958407
0.122925274 0.18232656 0.033390608 -0.17984465 0.37252393 -0.016011307 -0.22545473 -0.08746048
-0.048904594 0.34497204 0.032705393 0.07567446 -0.27547637 0.10188288 0.3975883 -0.023818411
0.15433136 -0.32553777 -0.300367 0.046772726 0.050171185 -0.7229014 0.09739923 0.42769292
0.13540705 0.08832569 0.059223317 -0.21082567 0.2904353 0.19618675 -0.030015536 -0.31942606
-0.027419271 0.044127487 -0.00021130322 0.11349305 0.025897948 -0.20638147 0.06910908 0.41903186
00000000: 6d15 18be 1acf 89bc 4358 46be d9e8 133e
00000010: 3d93 c93e 16e1 c0bd cf97 a1bc 3fe4 cf38
00000020: 8c71 1abe a611 303e fe3f 393e 2c25 ebbe
00000030: a121 d2bd d746 c33d 8b5c 15be ee66 563d
00000040: 4d8d 883d b3fd 06bc 2f11 983d dab4 063e
00000050: 1675 30ba 5922 d03d 0f64 de3d b9e1 d1be
00000060: aece 4b3e 77e7 98bc 52c0 e9bd 645c fa3d
00000070: 701a 833e 2453 44bb 96ca 203d 4aa5 a43d
00000080: a6fa 04be bdfb f5bd e4fa 1ebd f971 3dbd
00000090: 0d7d 473d dddb 90be c223 e73e b7b6 a4be
000000a0: 353e d13d 70d1 c6bd 4a19 913e bba8 d93e
000000b0: ff94 083f f979 0a3e 50a1 47bf fc56 f13d
000000c0: 012c d1bc 893c fcbd cfab b6bc 1887 abbc
000000d0: ab60 1c3e 1306 fcbd c5a3 ab3e 1b01 ad3d
000000e0: 43e9 113e 98fb 42be 90d6 743f 0acc 90be
000000f0: c745 8e3e 80a5 1dbd 681c e13d 26aa 48bd
00000100: 889f 09bf 0bb2 56bd d2bf b63c 7b6d 9b3e
00000110: 4aae af3d 7d1e 8bbe 8572 e5be 36f5 093f
00000120: 85f5 d13e 2b9c 19be 9b3e e7bd 188e a63c
00000130: 76ec 07bf f13e 043e ba67 403c b02d a9be
00000140: d74e 49be d206 4cbe ab4f f4be c2e4 e139
00000150: 90a7 4c3d e9c9 f9bc 5992 a93d d9c1 31bd
00000160: 658d 393d ce0c 1dbd 3cec a03b c45f a3bd
00000170: 7c56 443e b4fa 873c 5ec6 b93d c6fe 463c
00000180: 5c85 04bf 36c4 2d3d 2540 2d3d 4a42 3b3e
00000190: 0e2a 733e 97a7 2e3e 2031 ae3e ded9 e13d
000001a0: bd4b 673d 2e58 d83e aa69 e33e 388f 763d
000001b0: bd6c a6bd 6037 a03e f04a 313d 8ded b8be
000001c0: f6cb 143d 92c8 aabc bec8 b93c 6ea3 1cbe
000001d0: 7b06 8fbe 7ccf 25be 6c33 413e 3316 263f
000001e0: 3fd9 95be 436b 673d 2fc4 62bd 470c df3d
000001f0: d3d6 19bf 96f2 89bd 8372 0abd ebd2 00be
00000200: 18bf 363f b669 a83d bb9c 8f3e 76c3 0e3e
00000210: 5d8a 64be 50b9 e4bd 0413 523e f872 6b3e
00000220: 26b1 4b3f ef58 fb3e 47e8 57bc c098 fb3d
00000230: fb61 45be ac64 433d 2f8a 4d3d 3234 793c
00000240: 336b 48be 049a 623e 9405 fe3e 1886 abbc
00000250: 8411 b33d 0c64 453d fd9c b03e 80bc 0cbc
00000260: e8cd 2fbe 797e 373e 251d eb3e 11fe 9cbe
00000270: d034 213e 5c14 4d3e adff 4ebe 0950 513e
00000280: 9de6 26be 6b45 293f 6c1a 293e fe17 453d
00000290: e259 3fbe 37ce 4f3e 330e b1be b4bd a33e
000002a0: 3103 c93d 8a77 4a3e 6a02 943b 1c11 7b3d
000002b0: a2f2 97be e180 ce3d 9458 ba3d 4899 343e
000002c0: 83fc 013e e91a d2bd 213c 973d 7c2b 953d
000002d0: e706 babd 1956 d73d b2ac 42be 782c c6be
000002e0: 3b91 093c a161 d6be c96e 25bf 749e 883e
000002f0: 11d4 cf3d 69c9 3c3e e7df 2ebd 16fa e1bc
00000300: 85c2 1b3f 1c68 40bf 9d88 7d3d 97ec fcbd
00000310: a3cc 67bd 40d7 763e f3f0 843e 76c5 5ebf
00000320: 9cf0 c5be bb8b 44be 2833 56bd 2501 66be
00000330: bae7 143e ddea b43d e6c0 3e3e 5be6 8d3e
00000340: 775e c2bd ccdf 6cbd 9782 823e f7b4 2eba
00000350: 91c3 0bbf b6b3 813e 60f6 92bd bb0d 343d
00000360: 3fc0 fb3d d0b3 3a3e 97c4 083d 3229 38be
00000370: 75bb be3e 252a 83bc 9bdd 66be 7b1e b3bd
00000380: 2f50 48bd 2da0 b03e 17f6 053d 36fb 9a3d
00000390: 3d0b 8dbe f9a7 d03d b290 cb3e d41e c3bc
000003a0: 0a09 1e3e e3ac a6be b4c9 99be c294 3f3d
000003b0: 4d80 4d3d 1110 39bf 3f79 c73d 91fa da3e
000003c0: 25a8 0a3e 19e4 b43d 2694 723d afe2 57be
000003d0: f0b3 943e 2ee5 483e 24e3 f5bc d08b a3be
000003e0: 619e e0bc 06bf 343d 4791 5db9 0b6f e83d
000003f0: ef27 d43c aa55 53be 1089 8d3d 588b d63e

layer2.bias f4 [128]
-0.0173774 0.04850779 0.095165096 -0.028273629 0.0433425 0.06427572 0.078310244 0.0726227
0.039110333 0.11705664 0.030101907 0.12950884 0.12719324 -0.07909838 0.06648891 0.0548963
0.07430882 0.059936166 0.035485137 0.009504181 -0.06472963 0.005792512 0.11247569 0.04498349
0.11281454 0.026305083 -0.08426144 -0.09833754 0.049118623 0.083097205 -0.072898075 0.086700946
0.092336796 0.07604906 -0.102902345 0.041011047 0.12113883 -0.045939684 0.09680334 -0.060960077
-0.0211194 0.10206895 0.03407941 0.024820544 0.0318317 0.07657043 0.04800677 0.0506911
0.017872741 0.1477175 0.07221714 0.036501437 0.10660308 -0.025811058 -0.006743958 -0.010883357
0.015954114 0.03035059 0.10463967 -0.014950185 -0.07156244 0.1156102 -0.05865124 0.059896953
0.08031157 0.019843293 0.058276795 -0.023619225 0.016549807 0.020724306 -0.061078377 0.0988031
0.0969457 0.045166045 0.06920285 0.060946845 -0.085766144 0.038405463 -0.034122344 -0.020163795
0.09629074 -0.014623953 -0.116413474 0.081204176 0.01278876 0.01681276 0.12983602 0.0023854782
0.089812115 0.05293465 0.07678193 0.14967917 -0.0704953 -0.036835477 -0.0044745295 0.002700651
-0.08481118 0.09962189 0.036958024 0.031429876 0.04708969 -0.02745005 0.04581418 -0.056883786
-0.0683356 0.11473343 -0.07364459 -0.07918505 -0.07591423 0.036799107 -0.07222552 0.056312237
0.083417065 0.14575389 -0.04521102 -0.10099565 0.062036436 0.018281119 0.10082848 0.011954719
0.027182829 0.16318761 -0.028739179 0.060114954 0.076570004 0.047999047 0.072301894 0.12330352
00000000: 0d5b 8ebc 1bb0 463d ebe5 c23d 199e e7bc
00000010: e887 313d fda2 833d 1f61 a03d 36bb 943d
00000020: 2832 203d 64bb ef3d 4698 f63c f79d 043e
00000030: f23e 023e 55fe a1bd 562b 883d f1da 603d
00000040: 392f 983d a07f 753d dd58 113d 6db7 1b3c
00000050: f890 84bd 1dcf bd3b a859 e63d 9c40 383d
00000060: 4f0b e73d c27d d73c 4391 acbd 3165 c9bd
00000070: 9c30 493d de2e aa3d 964b 95bd 4490 b13d
00000080: 131b bd3d 9cbf 9b3d 77be d2bd 33fb 273d
00000090: a317 f83d 402b 3cbd d440 c63d 46b1 79bd
000000a0: 9802 adbc 8709 d13d da96 0b3d 7454 cb3c
000000b0: f561 023d f5d0 9c3d bfa2 443d 79a1 4f3d
000000c0: db69 923c 4243 173e 94e6 933d 8882 153d
000000d0: b752 da3d b671 d3bc 6cfc dcbb 1c50 32bc
000000e0: 34b2 823c cda1 f83c 534d d63d 9ff1 74bc
000000f0: 548f 92bd 0ac5 ec3d 483c 70bd 8256 753d
00000100: 647a a43d 678e a23c a6b3 6e3d 1b7d c1bc
00000110: 7693 873c 05c6 a93c 522d 7abd 4859 ca3d
00000120: 788b c63d 0800 393d 39ba 8d3d 66a3 793d
00000130: 29a6 afbd 0c4f 1d3d dfc3 0bbd 8b2e a5bc
00000140: 1434 c53d 4e99 6fbc 306a eebd 604e a63d
00000150: f287 513c eaba 893c bcf3 043e af55 1c3b
00000160: 6aef b73d 01d2 583d d83f 9d3d 7f45 193e
00000170: d75f 90bd cce0 16bd 139f 92bb 68fd 303b
00000180: 7cb1 adbd 9006 cc3d 4c61 173d 9dbc 003d
00000190: 1ee1 403d edde e0bc a6a7 3b3d f9fe 68bd
000001a0: 89f3 8bbd 5cf9 ea3d fad2 96bd c62b a2bd
000001b0: eb78 9bbd a9ba 163d f9ea 93bd a9a7 663d
000001c0: 91d6 aa3d 8240 153e 312f 39bd cfd6 cebd
000001d0: eb19 7e3d 49c2 953c 2a7f ce3d badd 433c
000001e0: 86ae de3c a71a 273e 6d6e ebbc 193b 763d
000001f0: bcd0 9c3d a69a 443d 0413 943d 8e86 fc3d

layer3.weight f4 [4, 128]
-0.9261581 0.105870344 0.10138718 0.018787134 0.36441413 0.21851529 -0.071608946 0.20026359
-0.17689317 -0.3701857 0.17150307 -0.0050481525 0.15187666 -0.44652653 0.00033102583 0.16475733
0.22753908 0.14305408 0.4431447 -0.056112647 -0.076789156 -0.011617901 0.19480228 -0.3503966
0.24670888 -0.11744942 -0.016429896 0.31405187 -0.78706735 0.19700636 -0.030036421 0.19300699
0.2226069 0.21742648 0.13298757 -0.28902125 -0.07471125 0.32157516 -0.45711812 -0.05363702
-0.6762945 0.18490611 0.13435794 0.16220957 0.13644587 -0.0070819943 0.50200087 -0.54338545
0.25257528 -0.72148174 0.13847874 0.3634452 0.15636699 0.08157458 -0.2505623 -0.004496926
0.032656427 0.1802884 -0.40210316 0.24359986 0.040358488 -0.6358131 -0.014733859 0.19302788
0.30808055 0.10702586 0.47272238 0.081539996 -0.10455341 0.084535785 0.028504465 0.005964611
0.22006397 -0.025942834 -1.5905702 0.3973885 0.02514084 0.045897715 -0.02730351 -0.0732713
0.15978712 -0.23920377 0.2539692 -0.3306245 0.12418908 -0.08707142 0.21513073 -0.6647506
-1.3622802 0.21128383 -0.09079246 0.21345016 0.0025695683 0.059546035 -0.11925777 0.33658552
0.010612213 0.22276568 -0.12962914 -0.2610302 -0.073277056 0.109598845 -0.18156108 -0.07660015
-0.0791784 -0.54423475 -0.00038241115 -0.013044408 -0.094466425 -0.3224477 -0.02794789 0.095163874
0.10495098 0.18469612 0.0082748365 -0.076838784 -1.2768062 0.004158017 -0.68037397 -0.41241887
-1.7032272 0.19344413 -0.057572905 0.0016463755 -0.48006392 -0.042612165 -0.15400085 0.037469056
0.14781417 -0.022230254 -0.56103194 -0.04464773 -0.04759436 -1.0491272 0.4445858 -1.1618495
-0.054675784 0.08142708 0.17704275 0.5593208 -0.30133632 0.28086 0.042133246 0.28226963
0.20438397 0.19335303 0.062246233 -1.396809 0.07088652 0.33341756 0.37007037 0.0138162
0.7453042 0.17489609 -0.07377479 -0.8709747 0.22390352 -0.024446126 0.056111895 -0.73227674
0.314632 0.28248954 0.24163887 0.35990128 0.25771105 -0.18852073 -0.32236716 0.009205609
-0.44651693 0.22939843 0.22649041 0.44593975 -0.31068814 0.26630846 -0.075655304 -0.6599237
-1.014092 0.29645357 -0.6529348 0.5605422 0.31588084 -0.32469115 0.02493202 -0.7665995
0.06475729 0.108533785 0.6130155 0.10991422 -0.013954131 -0.5652197 0.015551379 -0.79369885
-0.7261005 0.14644502 -0.68730116 0.01454729 -0.5918265 -0.009990338 -0.3010839 -0.568071
-0.23556174 -0.63525796 0.67325556 0.28166428 -0.0006528257 -0.9813218 0.164985 0.09211289
0.123393655 -0.0029709635 -0.63026375 0.6521534 0.22499049 -1.1887212 -0.011881314 -0.37530467
-0.062543556 0.07018626 -0.6571295 -0.1015841 0.02606196 -1.0555713 0.6497352 0.3431909
0.010915132 0.1564532 0.5338117 0.43058768 0.0010198967 -1.079227 -0.43246248 -0.040449798
-0.08003323 0.5289972 -0.6057038 -0.03489962 -0.028643105 0.0878552 -0.022657843 0.27563402
-0.4970861 0.3457924 0.03323443 -0.07469151 0.038925998 -0.74660194 -0.28315353 -0.14728111
0.29025137 0.2504416 0.110204816 0.015327989 -0.095251404 -0.24158163 -0.4918486 0.75067776
00000000: b218 6dbf 8dd2 d83d 15a4 cf3d 7ae7 993c
00000010: 7d94 ba3e 79c2 5f3e b6a7 92bd e611 4d3e
00000020: 7c23 35be fb88 bdbe 809e 2f3e f96a a5bb
00000030: 8e85 1b3e 209f e4be 898d ad39 25b6 283e
00000040: 0100 693e c57c 123e dde3 e23e 60d6 65bd
00000050: a243 9dbd 0259 3ebc 407a 473e 2f67 b3be
00000060: 41a1 7c3e 5289 f0bd fd97 86bc 68cb a03e
00000070: 3f7d 49bf 09bc 493e f10e f6bc a0a3 453e
00000080: 10f3 633e 0ca5 5e3e e52d 083e 98fa 93be
00000090: 3602 99bd 80a5 a43e 630b eabe 7eb2 5bbd
000000a0: a321 2dbf 0758 3d3e 2195 093e 441a 263e
000000b0: 77b8 0b3e 1310 e8bb 2183 003f 4f1b 0bbf
000000c0: 8c51 813e 07b3 38bf 5fcd 0d3e 7d15 ba3e
000000d0: ab1e 203e 9310 a73d b449 80be f35a 93bb
000000e0: bfc2 053d 869d 383e 77e0 cdbe 3e72 793e
000000f0: f14e 253d a6c4 22bf 4966 71bc 1aa9 453e
00000100: bcbc 9d3e 6030 db3d ab08 f23e 71fe a63d
00000110: 1920 d6bd 1921 ad3d 3282 e93c c972 c33b
00000120: 7358 613e 1186 d4bc ce97 cbbf 8176 cb3e
00000130: 2af4 cd3c 3eff 3b3d 9cab dfbc 430f 96bd
00000140: 3c9f 233e d5f1 74be 4008 823e 9d47 a9be
00000150: d856 fe3d 8052 b2bd 3b4b 5c3e 182d 2abf
00000160: 335f aebf ca5a 583e 66f1 b9bd ae92 5a3e
00000170: 3466 283b 8be6 733d 6b3d f4bd f054 ac3e
00000180: d9de 2d3c b01c 643e 80bd 04be c0a5 85be
00000190: 4812 96bd 5c75 e03d 26eb 39be 8ae0 9cbd
000001a0: 4928 a2bd f852 0bbf 5b7e c8b9 36b8 55bc
000001b0: 9d77 c1bd dd17 a5be f9f2 e4bc 47e5 c23d
000001c0: 8af0 d63d fb20 3d3e 2e93 073c a75d 9dbd
000001d0: 636e a3bf fa3f 883b fd2c 2ebf 9128 d3be
000001e0: 5903 dabf 3816 463e 91d1 6bbd 32cb d73a
000001f0: f0ca f5be 188a 2ebd 66b2 1dbe 2779 193d
00000200: 995c 173e 391c b6bc ca9f 0fbf 8ae0 36bd
00000210: 4ef2 42bd cd49 86bf c0a0 e33e 7cb7 94bf
00000220: b7f3 5fbd 3ec3 a63d b24a 353e a62f 0f3f
00000230: c148 9abe e2cc 8f3e e993 2c3d a585 903e
00000240: 084a 513e 56fe 453e e8f5 7e3d a3ca b2bf
00000250: f42c 913d b5b5 aa3e dd79 bd3e 585d 623c
00000260: 42cc 3e3f f617 333e 3d17 97bd 33f8 5ebf
00000270: f746 653e 3e43 c8bc 96d5 653d 7d76 3bbf
00000280: 7217 a13e 78a2 903e 2e70 773e fb44 b83e
00000290: b4f2 833e 940b 41be 4f0d a5be 1fd3 163c
000002a0: de9d e4be 6ce7 6a3e 1aed 673e 3752 e43e
000002b0: 8412 9fbe 9559 883e 2bf1 9abd c2f0 28bf
000002c0: c4cd 81bf c3c8 973e bc26 27bf b27f 0f3f
000002d0: 22bb a13e eb3d a6be 3c3e cc3c dd3f 44bf
000002e0: 789f 843d f646 de3d 95ee 1c3f b51a e13d
000002f0: de9f 64bc 3db2 10bf 36cb 7e3c d92f 4bbf
00000300: b9e1 39bf aff5 153e f8f2 2fbf c257 6e3c
00000310: f181 17bf 84ae 23bc ab27 9abe 1a6d 11bf
00000320: 1937 71be 44a0 22bf 7a5a 2c3f 4d36 903e
00000330: 6422 2bba e837 7bbf d4f1 283e afa5 bc3d
00000340: d0b5 fc3d 7fb4 42bb f758 21bf 86f3 263f
00000350: e863 663e 0428 98bf d8a9 42bc ef27 c0be
00000360: d616 80bd d0bd 8f3d a439 28bf 530b d0bd
00000370: e47f d53c f61c 87bf 0c55 263f b8b6 af3e
00000380: 62d5 323c 4535 203e e2a7 083f fd75 dc3e
00000390: 0eae 853a 1c24 8abf b96b ddbe b0ae 25bd
000003a0: 76e8 a3bd 5c6c 073f 670f 1bbf e7f2 0ebd
000003b0: f2a4 eabc 6ded b33d f19c b9bc e71f 8d3e
000003c0: 1282 febe b40b b13e d320 083d ddf7 98bd
000003d0: de70 1f3d 4e21 3fbf 80f9 90be dcd0 16be
000003e0: d49b 943e e239 803e 10b3 e13d 3f22 7b3c
000003f0: 2b13 c3bd 2d61 77be 94d3 fbbe 6b2c 403f

layer3.bias f4 [4]
-0.009013837 -0.073271215 0.030075407 -0.013657775
00000000: c6ae 13bc 380f 96bd b360 f63c dcc4 5fbc
