models/dagger_model_iter1.pth (torch, 75510 bytes, 6 tensors)

layer1.weight f4 [128, 8]
-0.049581453 -0.06519596 -0.060648795 2.665767 0.16850545 -0.2761978 0.0984089 0.31738657
0.20051095 0.11867055 0.03293685 -0.4614033 0.20932245 0.27046114 -0.3225491 0.023900641
-0.22569238 -0.40495244 0.6369887 0.5299924 0.22453216 0.5216559 0.12158872 0.19774617
-0.6725612 0.31809592 0.20384772 -0.5423934 0.051115334 0.55288124 0.48520014 -0.42041722
0.14761417 0.09661347 0.6461207 -0.48342937 0.57155347 0.7162944 -0.30197656 0.3799101
0.4238721 0.35528973 -0.56708556 0.28237182 0.16109587 -0.021520376 0.22044316 0.04967066
0.2680333 0.35062376 -0.55409515 -0.2144493 0.19620754 -0.4189172 0.25806117 0.0428675
0.09320328 0.19560485 -0.48725554 0.50285393 0.3515654 -0.74390614 0.14830749 -0.24146463
-0.24558865 -0.10136753 -0.57234496 1.3325254 0.3215289 -0.30808136 -0.030763308 -0.3982246
-0.45710042 -0.35179707 -0.6673378 0.21597405 -0.50293285 -0.7082066 0.16189197 0.11470624
0.22032504 -0.22046648 -0.4404463 -0.14531578 0.5093842 0.5584197 -0.20480873 -0.10068304
-0.23657605 0.06279178 0.28396624 0.47260863 -0.33589333 0.73323077 0.056461006 -0.37615725
0.5493879 0.26018575 -0.5236795 0.22633566 -0.08473339 -0.28723472 0.22015125 0.17116183
-0.20034377 0.33793843 -0.01800657 -0.28929392 -0.029649906 -0.1127262 0.11953721 0.05010241
-0.14575486 0.25322968 0.5688188 0.21426131 -0.7698146 -0.20903973 0.100231946 -0.13539766
-0.5245213 -0.04320512 0.14554143 -0.24389265 0.3686197 0.7256984 0.022334304 0.18525946
0.1632009 0.33513403 0.239567 -0.17988454 -0.005767251 0.6721636 -0.31421372 -0.10757295
-0.31976137 0.38359183 -0.6924619 0.070361055 0.21347475 0.1858157 -0.21325655 0.1716979
-0.14199173 0.22522505 0.5435569 0.27480927 -0.34757304 -0.23704283 0.19915769 -0.29660782
0.6648204 -0.40062743 -0.047218837 -0.14370829 0.5833804 0.41207492 -0.11649755 0.20157644
0.32914746 -0.021747438 0.21632315 -0.10249018 -0.48999736 0.2815707 0.0689016 -0.006946919
0.6450949 -0.054943442 0.23704849 -0.44208091 -0.65888697 -0.47809088 0.10825243 -0.053491037
0.2558981 -0.23662472 -0.44768545 -0.23579058 0.6126842 -0.7805416 0.20399761 0.030913148
-0.20353177 0.46765 0.34144732 0.31929258 -0.1643373 0.09394992 -0.031667203 -0.2386854
-0.32041627 -0.84719604 1.2398067 0.50959045 0.43477002 -0.0039152643 0.011741449 0.27764
-0.19865017 0.24565142 0.25679514 -0.07353408 -0.7808544 -0.84930915 0.17306408 -0.09388879
-0.12546664 -0.07173845 -0.33123472 1.951186 0.13191624 0.058483418 0.21332058 0.07445552
-0.19250059 -0.31036848 -0.57383627 0.4258423 -0.56180483 0.21978155 -0.28887895 -0.35254392
-0.3408981 0.3405804 0.5588546 -0.5051066 0.12932569 0.77051294 -0.68560624 0.2016264
-0.21130836 0.11820211 0.05595803 0.41048366 -0.22868276 -0.55746937 -0.032097455 0.09012214
0.5650118 -0.27702704 -0.170575 -0.46601948 -0.43130955 -0.015649669 0.0790153 0.044664938
-0.30504042 -1.0238461 -0.23797615 0.5697243 -0.16052626 -0.09499322 0.10446882 0.35777864
00000000: ec15 4bbd 7685 85bd df6a 78bd ed9b 2a40
00000010: b18c 2c3e cc69 8dbe 9b8a c93d 7e80 a23e
00000020: be52 4d3e 8c09 f33d cae8 063d 0e3d ecbe
00000030: a058 563e e279 8a3e 2825 a5be 47cb c33c
00000040: e71b 67be ed55 cfbe b111 233f 95ad 073f
00000050: c2eb 653e 3e8b 053f 8203 f93d f97d 4a3e
00000060: f92c 2cbf 78dd a23e 75bd 503e 4bda 0abf
00000070: 505e 513d a089 0d3f 276c f83e ed40 d7be
00000080: 2b28 173e 48dd c53d 2b68 253f 0e84 f7be
00000090: 5451 123f 125f 373f ac9c 9abe 9483 c23e
000000a0: c405 d93e 89e8 b53e 852c 11bf 0a93 903e
000000b0: 51f6 243e 804b b0bc dabb 613e 7673 4b3d
000000c0: a93b 893e f584 b33e 2ed9 0dbf 9998 5bbe
000000d0: a1ea 483e 517c d6be 9820 843e d595 2f3d
000000e0: 5ce1 be3d a34c 483e 8f79 f9be 09bb 003f
000000f0: 6100 b43e a270 3ebf ebdd 173e 8142 77be
00000100: 977b 7bbe c899 cfbd 3385 12bf 3190 aa3f
00000110: 709f a43e d7bc 9dbe 5503 fcbc 18e4 cbbe
00000120: 1109 eabe bf1e b4be a6d6 2abf 4d28 5d3e
00000130: 35c0 00bf 074d 35bf 02c7 253e 1beb ea3d
00000140: e39c 613e f7c1 61be 2d82 e1be a9cd 14be
00000150: 0167 023f 98f4 0e3f 61b9 51be e932 cebd
00000160: fe40 72be fa98 803d 0664 913e c2f9 f13e
00000170: 36fa abbe 03b5 3b3f a843 673d af97 c0be
00000180: afa4 0c3f 1137 853e dc0f 06bf 89c4 673e
00000190: b388 adbd 6e10 93be 546f 613e 0c45 2f3e
000001a0: eb26 4dbe 4406 ad3e 8482 93bc 551e 94be
000001b0: 5ce4 f2bc fedc e6bd edcf f43d 2f38 4d3d
000001c0: c340 15be 52a7 813e 1c9e 113f 5167 5b3e
000001d0: 9212 45bf 830e 56be 6846 cd3d afa5 0abe
000001e0: 0747 06bf daf7 30bd d008 153e ffbe 79be
000001f0: b9bb bc3e 5fc7 393f 6ef6 b63c a8b4 3d3e
00000200: 231e 273e b096 ab3e 0d51 753e a733 38be
00000210: 35fb bcbb ea12 2c3f 9fe0 a0be 354f dcbd
00000220: c3b7 a3be 2666 c43e 2f45 31bf 7519 903d
00000230: 2099 5a3e 7946 3e3e ed5f 5abe 93d1 2f3e
00000240: 4866 11be 65a1 663e 8c26 0b3f cdb3 8c3e
00000250: 18f5 b1be 5bbb 72be feef 4b3e fbdc 97be
00000260: ab31 2a3f 0a1f cdbe 8a68 41bd 4428 13be
00000270: 6b58 153f 7cfb d23e 4496 eebd 0e6a 4e3e
00000280: 0486 a83e af27 b2bc d183 5d3e 5fe6 d1bd
00000290: efe0 fabe 092a 903e 481c 8d3d fba2 e3bb
000002a0: f024 253f 600c 61bd d7bc 723e 6e58 e2be
000002b0: d1ac 28bf 54c8 f4be 73b3 dd3d 6b19 5bbd
000002c0: 1305 833e c04d 72be 0737 e5be 1673 71be
000002d0: dfd8 1c3f 93d1 47bf c0e4 503e 923d fd3c
000002e0: a26a 50be d26f ef3e 2fd2 ae3e 517a a33e
000002f0: 0a48 28be d168 c03d 78b5 01bd f269 74be
00000300: 9a0d a4be d7e1 58bf fcb1 9e3f 8574 023f
00000310: 2d9a de3e 9e4b 80bb 355f 403c d526 8e3e
00000320: f36a 4bbe 0c8c 7b3e a77a 833e 0999 96bd
00000330: 13e6 47bf 536c 59bf b637 313e c448 c0bd
00000340: 547a 00be 9ceb 92bd 9997 a9be 76c0 f93f
00000350: 0d15 073e 4f8c 6f3d b670 5a3e 237c 983d
00000360: e01e 45be 9ee8 9ebe efe6 12bf 0008 da3e
00000370: 71d2 0fbf 6a0e 613e f1e7 93be a380 b4be
00000380: 328a aebe 8e60 ae3e 1811 0f3f ab4e 01bf
00000390: f46d 043e 5640 453f e483 2fbf 2777 4e3e
000003a0: 3861 58be f313 f23d 3f34 653d ea2a d23e
000003b0: d02b 6abe 50b6 0ebf 9f78 03bd f591 b83d
000003c0: 9da4 103f 7dd6 8dbe 36ab 2ebe 1b9a eebe
000003d0: 9bd4 dcbe bc33 80bc c6d2 a13d 95f2 363d
000003e0: 422e 9cbe 640d 83bf 05b0 73be 74d9 113f
000003f0: ff60 24be ce8b c2bd c0f3 d53d c32e b73e

layer1.bias f4 [128]
0.07725735 0.14137799 0.253615 -0.14709407 -0.3957059 -0.25595608 -0.22471862 -0.026812745
0.092872836 -0.14210504 0.06137247 0.068074934 -0.11371386 -0.107870586 0.11836205 0.26250762
-0.3320043 0.15909703 -0.2900752 0.12258237 0.07156345 0.19067077 -0.062287014 -0.29676807
-0.14604174 0.2354159 0.07901593 0.11475206 -0.17624342 0.25410822 0.035023548 -0.07488966
-0.25596252 -0.15752685 0.32639167 0.09551974 -0.30870488 0.09339224 -0.028591903 -0.13534099
0.20680651 0.037536956 0.1154344 0.07007078 0.12987857 0.011770396 -0.21915902 0.25078464
0.1397758 -0.086051844 0.2948465 -0.029118922 0.28999448 0.19414903 -0.029057985 -0.028143346
0.15912904 0.0146089895 -0.24476351 0.2281192 0.09580258 0.066358365 0.22134262 -0.34086272
0.09875561 0.021349402 -0.16958816 0.059645966 0.16389099 0.11185239 -0.29934645 0.0919072
0.074113436 -0.31870186 -0.1098023 -0.29517886 -0.17040269 0.23341955 0.2923552 -0.17278622
-0.044581547 -0.07691584 0.058527388 -0.2681011 0.025043795 -0.10451374 0.090369105 0.030905768
0.08583499 -0.16093402 0.22965321 0.20441906 -0.044252437 0.01617205 0.10707435 0.1792079
-0.12106084 -0.15109393 0.29166055 0.26813212 0.10635633 -0.32937813 0.05334226 0.1784078
-0.1670848 0.027082494 -0.20648539 0.17504917 -0.120421454 -0.010376038 -0.006624988 0.05006617
0.17685919 0.23617427 0.051990766 -0.0016555052 0.21870017 -0.15801387 0.27186838 -0.04637416
0.16931339 0.22786285 -0.34204224 0.17143376 0.3423162 -0.3071779 -0.28317282 -0.16674387
00000000: 1a39 9e3d 64c5 103e d3d9 813e d49f 16be
00000010: f799 cabe ad0c 83be a31c 66be 67a6 dbbc
00000020: 1d34 be3d fc83 11be b361 7b3d df6a 8b3d
00000030: d0e2 e8bd 41eb dcbd cd67 f23d 6667 863e
00000040: 78fc a9be 55ea 223e bd84 94be 770c fb3d
00000050: dc8f 923d 333f 433e ab20 7fbd fcf1 97be
00000060: f78b 15be de10 713e 1bd3 a13d 2103 eb3d
00000070: 2879 34be 791a 823e da74 0f3d c05f 99bd
00000080: 850d 83be b84e 21be cf1c a73e da9f c33d
00000090: 910e 9ebe 6e44 bf3d 9139 eabc d496 0abe
000000a0: 16c5 533e 5ac0 193d df68 ec3d 4581 8f3d
000000b0: e3fe 043e 9ed8 403c 396b 60be d866 803e
000000c0: 6321 0f3e f33b b0bd 1ff6 963e ce8a eebc
000000d0: 287a 943e 01cf 463e 030b eebc e08c e6bc
000000e0: b9f2 223e 8b5a 6f3c 49a3 7abe 1498 693e
000000f0: 2534 c43d e5e6 873d a4a7 623e 8f85 aebe
00000100: 6240 ca3d f1e4 ae3c 85a8 2dbe 544f 743d
00000110: 0ad3 273e de12 e53d f043 99be d839 bc3d
00000120: c9c8 973d e42c a3be 07e0 e0bd af21 97be
00000130: 0b7e 2ebe 8905 6f3e 95af 953e dfee 30be
00000140: 249b 36bd 0d86 9dbd 6aba 6f3d 8c44 89be
00000150: a528 cd3c 4d0b d6bd 7013 b93d 182e fd3c
00000160: 41ca af3d e3cb 24be 362a 6b3e 3b53 513e
00000170: 0b42 35bd 3f7b 843c cc49 db3d 4782 373e
00000180: bfee f7bd 5eb8 1abe 8854 953e 9d48 893e
00000190: 59d1 d93d 40a4 a8be 6a7d 5a3d 89b0 363e
000001a0: 4718 2bbe 1bdc dd3c e870 53be 1740 333e
000001b0: 869f f6bd 4200 2abc 6d16 d9bb 2f12 4d3d
000001c0: 931a 353e abd7 713e 45f4 543d 89fd d8ba
000001d0: f0f2 5f3e 63ce 21be 5532 8b3e d5f2 3dbd
000001e0: 7d60 2d3e e154 693e 2920 afbe 558c 2f3e
000001f0: 1244 af3e 6c46 9dbe 07fc 90be e8be 2abe

layer2.weight f4 [128, 128]
-0.14939322 -0.019565467 -0.16885418 0.1475175 0.335389 -0.035466254 -0.009337423 -0.004913268
-0.20045048 0.040870987 0.019075926 -0.48488858 -0.09423054 0.099750794 -0.16602203 0.064135075
-0.032029126 0.020187443 -0.11416455 0.1228894 -0.008543787 0.0972789 0.010325981 -0.48011488
0.18980692 -0.016943019 -0.108690254 -0.0073040402 0.23498973 0.018005839 -0.018295225 0.07761017
-0.15020141 -0.06392904 -0.031203536 -0.035064686 0.07332166 -0.25557634 0.34510198 -0.37653854
0.10837801 -0.07864989 0.29338196 0.26078728 0.55267376 0.122814916 -0.64154905 0.104426324
-0.0025753572 -0.14361125 0.0111628985 0.0086000785 0.10489074 -0.09252019 0.29428628 0.023056364
0.12649351 -0.2029447 1.0160186 -0.27259225 0.19256967 -0.011229994 0.11582813 -0.036273833
-0.4573727 -0.04686226 0.022308264 0.2865044 0.080392614 -0.38002056 -0.32277322 0.42971352
0.42329785 -0.18902402 -0.14357802 0.025509972 -0.41619134 0.1321692 0.03698264 -0.36157063
-0.1316857 -0.21911389 -0.41839895 -0.009859375 0.08526688 -0.03460001 0.11266544 -0.034993395
-0.06029155 -0.011056899 0.028037528 -0.10052524 0.14708702 0.09112258 0.06601808 -0.01218886
-0.44229418 0.08059767 0.009103026 0.13468777 0.20011531 -0.028215671 0.30290106 0.11724787
0.031292412 0.30898187 0.2201251 0.06999298 -0.023254165 0.385605 0.0014934596 -0.49015364
0.051089566 -0.011293658 0.07920127 -0.102783106 -0.2388444 -0.1502779 0.14431623 0.54718506
-0.20668557 -0.0053265896 -0.055362877 0.10216299 -0.5390853 -0.12428709 -0.033800613 0.01749201
0.5369419 0.059091177 0.19782737 0.12981655 -0.25716794 0.021083152 0.18867722 0.37815365
0.73013777 0.3954062 -0.011520853 0.11216505 -0.0011732624 0.05813722 0.04468465 0.01588839
-0.09432607 0.21129215 0.3882648 0.0037121337 0.091722496 0.030507235 0.30083796 0.06916069
-0.021800963 0.17549713 0.2804181 -0.18816306 0.09861039 0.19860046 -0.19629261 0.114935085
-0.110024646 0.5868238 0.15203378 0.055431586 -0.14324054 0.17305091 -0.31402725 0.2771788
0.06645566 0.1708715 -0.01352286 0.057817623 -0.3016305 0.062939085 0.010686367 0.15888442
0.1124277 -0.0053906348 0.055990092 0.065754026 -0.06009432 0.09388964 -0.12646808 -0.36604646
0.006641442 -0.28805318 -0.5753073 0.25500643 0.094875075 0.15804902 -0.06540341 0.13021015
0.48904693 -0.53309846 0.061897863 -0.13764821 -0.04738353 0.1492888 0.123189144 -0.75908744
-0.40981662 -0.108023904 -0.0923432 -0.08950521 0.094787225 0.09888738 0.17480688 0.19669482
0.014547055 -0.061321322 0.22011489 0.029731266 -0.43848807 0.17864543 -0.07063965 0.06745378
0.091313824 0.14937305 0.04196146 0.007867113 0.3447959 -0.036703665 -0.21593764 -0.08374044
-0.12644444 0.2666404 0.018740661 0.09691131 -0.28914398 0.034067538 0.46144822 -0.0277412
0.28401345 -0.3319221 -0.20388547 0.049964603 0.031267717 -0.6672299 0.09959259 0.36794704
0.13138933 0.06426697 0.045285683 -0.21119207 0.2242224 0.17439029 -0.04855085 -0.28105196
-0.09573508 0.04292592 -0.00021130322 0.13369693 -0.028694533 -0.09726541 0.06910908 0.27383173
00000000: 89fa 18be c247 a0bc 1ce8 2cbe d40e 173e
00000010: 1bb8 ab3e 1045 11bd fefb 18bc 7bff a0bb
00000020: e442 4dbe 5668 273d 1e45 9c3c 5143 f8be
00000030: f1fb c0bd 254a cc3d ae01 2abe 4059 833d
00000040: f930 03bd 2360 a53c 1bcf e9bd 70ad fb3d
00000050: 3dfb 0bbc 293a c73d 4e2e 293c 9ed1 f5be
00000060: bf5c 423e 16cc 8abc ff98 debd bb56 efbb
00000070: 26a1 703e fb80 933c dedf 95bc 15f2 9e3d
00000080: 66ce 19be 3bed 82bd 8f9e ffbc fd9f 0fbd
00000090: ab29 963d e7da 82be 35b1 b03e a9c9 c0be
000000a0: 4af5 dd3d 3213 a1bd 2936 963e e985 853e
000000b0: 077c 0d3f 6386 fb3d 8f3c 24bf 78dd d53d
000000c0: 53c7 28bb d40e 13be 97e4 363c 58e7 0c3c
000000d0: f5d0 d63d 3a7b bdbd b1ac 963e b3e0 bc3c
000000e0: 8487 013e bcd0 4fbe e60c 823f 3691 8bbe
000000f0: fc30 453e 02fe 37bc 4c37 ed3d df93 14bd
00000100: c12c eabe a4f2 3fbd d2bf b63c b4b0 923e
00000110: e2a4 a43d 0e92 c2be 8842 a5be 6903 dc3e
00000120: 7fba d83e 838f 41be 1e06 13be 4afa d03c
00000130: 0817 d5be 5d57 073e 1c7b 173d c91f b9be
00000140: 9ed8 06be 645f 60be 6338 d6be 3789 21bc
00000150: 67a0 ae3d bdb8 0dbd 23bd e63d 3c55 0fbd
00000160: 46f4 76bd ff27 35bc f5ae e53c 2de0 cdbd
00000170: fb9d 163e 7a9e ba3d 7d34 873d c9b3 47bc
00000180: 6274 e2be 6410 a53d dc24 153c 97eb 093e
00000190: 07eb 4c3e 8d24 e7bc d915 9b3e a71f f03d
000001a0: 792c 003d df32 9e3e 7968 613e 7b58 8f3d
000001b0: 857f bebc 056e c53e 30c0 c33a 6bf5 fabe
000001c0: 4b43 513d 0909 39bc 4734 a23d f37f d2bd
000001d0: a093 74be 73e2 19be a2c7 133e 5214 0c3f
000001e0: 62a5 53be ac8a aebb 2fc4 62bd d43a d13d
000001f0: 7f01 0abf 3b8a febd 8372 0abd 674b 8f3c
00000200: 0675 093f 9709 723d 4293 4a3e a1ee 043e
00000210: 84ab 83be 93b6 ac3c 9a34 413e 5b9d c13e
00000220: 4fea 3a3f ae72 ca3e f6c1 3cbc cab6 e53d
00000230: 27c8 99ba 4b21 6e3d 4007 373d 5e28 823c
00000240: 072e c1bd f85c 583e a5ca c63e 4547 733b
00000250: 01d9 bb3d 4fea f93c 6f07 9a3e 1fa4 8d3d
00000260: ef97 b2bc 85b5 333e f692 8f3e d1ad 40be
00000270: 3ff4 c93d eb5d 4b3e ee00 49be 1663 eb3d
00000280: 9a54 e1bd 163a 163f beae 1b3e 3b0c 633d
00000290: a6ad 12be 4234 313e 2ec8 a0be 61ea 8d3e
000002a0: e819 883d f0f8 2e3e fc8e 5dbc 2cd2 6c3d
000002b0: 506f 9abe 35e6 803d df15 2f3c 99b2 223e
000002c0: 7e40 e63d eca3 b0bb de55 653d 0caa 863d
000002d0: 7625 76bd 3649 c03d d980 01be 716a bbbe
000002e0: 74a0 d93b b57b 93be 5747 13bf 3490 823e
000002f0: dd4d c23d 9ad7 213e 39f2 85bd cf55 053e
00000300: 5c64 fa3e 2479 08bf 9d88 7d3d a7f3 0cbe
00000310: 3b15 42bd 2adf 183e 974a fc3d 8e53 42bf
00000320: 7cd3 d1be a33b ddbd 6f1e bdbd 824e b7bd
00000330: ce1f c23d 7785 ca3d 9300 333e 5e6a 493e
00000340: c556 6e3c 112c 7bbd cc65 613e fc8e f33c
00000350: 8281 e0be d4ee 363e 85ab 90bd 3525 8a3d
00000360: be02 bb3d 40f5 183e c8df 2b3d 10e5 003c
00000370: 1789 b03e 9556 16bd c21e 5dbe 1c80 abbd
00000380: a77a 01be 1785 883e 0486 993c 7079 c63d
00000390: ae0a 94be 678a 0b3d f142 ec3e 8341 e3bc
000003a0: 366a 913e b2f1 a9be 5ac7 50be afa7 4c3d
000003b0: 9412 003d 94cf 2abf 33f7 cb3d 8e63 bc3e
000003c0: ed8a 063e 679e 833d 7b7d 393d bc42 58be
000003d0: 8f9a 653e 5e93 323e 42dd 46bd 0be6 8fbe
000003e0: c110 c4bd 17d3 2f3d 4791 5db9 d9e7 083e
000003f0: cc10 ebbc 1633 c7bd 1089 8d3d ac33 8c3e

layer2.bias f4 [128]
-0.006217966 0.037885748 0.09023095 -0.028273629 0.06430483 0.03784546 0.06409478 0.06461634
0.03313028 0.12266155 0.02776895 0.11736002 0.11320692 -0.046636943 0.06648891 0.039537903
0.06543896 0.050506156 0.044439867 0.0038689917 -0.06472963 0.02377428 0.09876938 0.059835646
0.10748954 0.017701693 -0.08426144 -0.09170991 0.03894734 0.06935728 -0.072898075 0.06001213
0.069414414 0.06679403 -0.09520082 0.023428222 0.13113873 -0.03714553 0.09845662 -0.060960077
-0.029264778 0.09304833 0.044617936 0.03072119 0.024329856 0.073134035 0.038412556 0.039219767
0.0009406069 0.14362088 0.053879283 0.027986694 0.10016188 -0.052203387 -0.031755313 -0.02179206
0.015954114 0.025181513 0.07578033 -0.023417028 -0.07156244 0.10728018 -0.05865124 0.045655657
0.057605773 0.0004264563 0.052595813 -0.023619225 0.0147088235 0.011859526 -0.04653574 0.092392795
0.08474285 0.037305232 0.04891113 0.060751755 -0.06334541 0.010145689 -0.02658995 -0.013681061
0.07728412 -0.020227695 -0.10677942 0.06166184 0.028808093 0.019849379 0.10549895 -0.00022362305
0.08001375 0.042923387 0.06320923 0.12905432 -0.06911461 -0.01813132 -0.015415741 0.013709822
-0.08481118 0.0953051 0.010761452 0.023046654 0.04708969 -0.057923056 0.028716546 -0.056883786
-0.0683356 0.10669557 -0.061030507 -0.07918505 -0.07591423 0.053417686 -0.038448934 0.041311875
0.072430655 0.13612548 -0.04521102 -0.10099565 0.08050639 0.0031879093 0.103767514 0.024517316
0.019276034 0.15177014 -0.017814457 0.060114954 0.08672158 0.046670765 0.073928066 0.106648475
00000000: 14c0 cbbb 162e 1b3d 01cb b83d 199e e7bc
00000010: 40b2 833d d703 1b3d 2044 833d 9255 843d
00000020: 9eb3 073d fb35 fb3d b67b e33c 735a f03d
00000030: 08d9 e73d 6106 3fbd 562b 883d 7ff2 213d
00000040: dd04 863d 8bdf 4e3d 9406 363d e98e 7d3b
00000050: f890 84bd 47c2 c23c 9a47 ca3d 3916 753d
00000060: 7a23 dc3d 2403 913c 4391 acbd 68d2 bbbd
00000070: 3f87 1f3d 310b 8e3d 964b 95bd 47cf 753d
00000080: 2529 8e3d 4fcb 883d a6f8 c2bd 8bec bf3c
00000090: 3b49 063e e925 18bd a0a3 c93d 46b1 79bd
000000a0: b0bc efbc 1f90 be3d 4cc1 363d 01ab fb3c
000000b0: 684f c73c 4cc7 953d 7c56 1d3d e8a4 203d
000000c0: 0f93 763a 5a11 133e 86b0 5c3d 5a44 e53c
000000d0: ac21 cd3d 38d3 55bd dc11 02bd 4385 b2bc
000000e0: 34b2 823c 7649 ce3c b832 9b3d 11d5 bfbc
000000f0: 548f 92bd b6b5 db3d 483c 70bd 6d01 3b3d
00000100: 08f4 6b3d ff95 df39 b56e 573d 1b7d c1bc
00000110: 47fd 703c 754e 423c 439c 3ebd 6f38 bd3d
00000120: a98d ad3d 5fcd 183d 0957 483d d5d6 783d
00000130: 3dbb 81bd 1b3a 263c 2bd3 d9bc 8726 60bc
00000140: 2347 9e3d 8db4 a5bc 2baf dabd 2091 7c3d
00000150: f3fe eb3c 2a9b a23c d50f d83d 5b7c 6ab9
00000160: 40de a33d 6fd0 2f3d d773 813d d126 043e
00000170: f68b 8dbd 2288 94bc 4e92 7cbc 299f 603c
00000180: 7cb1 adbd 522f c33d cd50 303c 56cc bc3c
00000190: 1ee1 403d ba40 6dbd f63e eb3c f9fe 68bd
000001a0: 89f3 8bbd 3583 da3d 20fb 79bd c62b a2bd
000001b0: eb78 9bbd 81cc 5a3d a17c 1dbd a436 293d
000001c0: 8656 943d 7a64 0b3e 312f 39bd cfd6 cebd
000001d0: 89e0 a43d 3eec 503b 1084 d43d 8ad8 c83c
000001e0: c6e8 9d3c a269 1b3e a0ef 91bc 193b 763d
000001f0: 159b b13d d829 3f3d 9967 973d 846a da3d

layer3.weight f4 [4, 128]
-0.7700854 0.08517684 0.10684295 0.018787134 0.23643334 0.20912203 -0.068827435 0.18210538
-0.14481695 -0.35924575 0.12737443 -0.03296463 0.122031376 -0.3282999 0.00033102583 0.14518484
0.2108426 0.11901274 0.39182103 -0.17652108 -0.076789156 -0.0059139556 0.17401461 -0.29651713
0.118580945 -0.096593566 -0.016429896 0.27599275 -0.67589664 0.15121496 -0.030036421 0.19419457
0.19412616 0.19101414 0.13924153 -0.2063597 -0.09609188 0.3024723 -0.4139605 -0.05363702
-0.57343435 0.16802724 0.14819632 0.12486374 0.08484196 -0.042333312 0.4307708 -0.34755728
0.24907285 -0.6832512 0.09753844 0.21883923 0.13893846 0.08225584 -0.09265943 -0.020276947
0.032656427 0.12597877 -0.2989601 0.20639725 0.040358488 -0.48318416 -0.014733859 0.18192376
0.2858786 0.10300047 0.33545548 0.081539996 -0.12671885 0.057502765 0.07903691 -0.01323378
0.18174814 -0.044067275 -0.9860202 0.33716986 0.08269252 0.066975504 -0.013661 -0.023155551
0.14925838 -0.09995991 0.23465535 -0.275974 0.101417415 -0.11144376 0.19258933 -0.4865228
-1.1243356 0.17641486 -0.09200483 0.16676894 0.0030424136 0.13164283 -0.13647148 0.25415763
0.010612213 0.19893311 -0.119499706 -0.20870163 -0.073277056 0.08476575 -0.0744698 -0.07660015
-0.0791784 -0.46287596 0.040875003 -0.013044408 -0.094466425 -0.2480952 -0.051850576 0.0636764
0.06454847 0.16862622 0.0082748365 -0.076838784 -1.0756772 -0.010724163 -0.5335474 -0.3263113
-1.0006744 0.15087357 -0.02439796 0.0016463755 -0.4014328 -0.055794563 -0.1586027 0.013838715
0.10308843 -0.018539129 -0.4811764 -0.04464773 -0.010385554 -0.7702702 0.34988812 -0.8886437
-0.085258365 0.08838569 0.120437145 0.44475117 -0.2428203 0.24680084 0.042133246 0.2441086
0.18114477 0.14814891 0.008750615 -1.0154856 0.07088652 0.258795 0.2852917 0.015039144
0.5432709 0.13556306 -0.07377479 -0.79894364 0.18218417 -0.007055489 0.056111895 -0.4671569
0.2522967 0.21954274 0.17925057 0.25285643 0.22246486 -0.20890728 -0.26412213 0.009205609
-0.2619553 0.17840037 0.17813687 0.3560283 -0.22538875 0.21697398 -0.087631546 -0.5200214
-0.7604919 0.2597513 -0.4780258 0.39194486 0.26728103 -0.2671742 -0.011077209 -0.55946124
0.06475729 0.10395901 0.42478693 0.056026287 -0.013954131 -0.45776132 0.015551379 -0.6409619
-0.4703388 0.10939769 -0.46011478 0.01454729 -0.41951838 -0.011791737 -0.17135623 -0.4253585
-0.17461018 -0.4703926 0.48402035 0.19911548 -0.052520126 -0.6790179 0.1155451 0.010625119
0.09905798 -0.022198277 -0.5616371 0.51633966 0.15024742 -1.0628729 -0.018412644 -0.26238126
-0.041541204 0.028874896 -0.46384314 -0.08396465 0.02606196 -0.81940854 0.50814414 0.2584822
0.010915132 0.13261211 0.39707848 0.30343243 0.0010198967 -0.61480314 -0.28926146 -0.040449798
-0.08003323 0.40508002 -0.48887482 -0.03489962 -0.028643105 0.06469388 -0.025148135 0.22972937
-0.39383906 0.2497095 0.03323443 -0.07469151 0.056277864 -0.58386797 -0.21588606 -0.11608268
0.18338825 0.1974268 0.06582267 0.015327989 -0.08451645 -0.12112431 -0.4125306 0.6664261
00000000: 5124 45bf 3271 ae3d 7ad0 da3d 7ae7 993c
00000010: 951b 723e 1624 563e 66f5 8cbd d579 3a3e
00000020: e54a 14be 0fef b7be 716e 023e eb05 07bd
00000030: 96eb f93d ed16 a8be 898d ad39 56ab 143e
00000040: 1fe7 573e f4bc f33d c49c c83e f1c1 34be
00000050: a243 9dbd dbc9 c1bb e330 323e 18d1 97be
00000060: 91da f23d d9d2 c5bd fd97 86bc ec4e 8d3e
00000070: 9007 2dbf 18d8 1a3e f10e f6bc f1da 463e
00000080: 02c9 463e 3699 433e 5595 0e3e f54f 53be
00000090: d2cb c4bd a6dd 9a3e a1f2 d3be 7eb2 5bbd
000000a0: 98cc 12bf 550f 2c3e c7c0 173e 8fb8 ff3d
000000b0: 9fc1 ad3d b265 2dbd fe8d dc3e 07f3 b1be
000000c0: f40c 7f3e 8de9 2ebf 3cc2 c73d 6417 603e
000000d0: e245 0e3e c075 a83d 3ac4 bdbd d71b a6bc
000000e0: bfc2 053d 9400 013e 4c11 99be cd59 533e
000000f0: f14e 253d ea63 f7be 4966 71bc 394a 3a3e
00000100: ae5e 923e e9f1 d23d d2c0 ab3e 71fe a63d
00000110: 96c2 01be 0588 6b3d 1ade a13d 7fd2 58bc
00000120: 2f1c 3a3e e37f 34bd d26b 7cbf 87a1 ac3e
00000130: b25a a93d 742a 893d 63d2 5fbc b6b0 bdbc
00000140: 30d7 183e c8b7 ccbd 7e49 703e 774c 8dbe
00000150: efb3 cf3d a03c e4bd 2336 453e 8419 f9be
00000160: 3bea 8fbf 19a6 343e 076d bcbd 7ac5 2a3e
00000170: 3b63 473b 61cd 063e 2ebf 0bbe f320 823e
00000180: d9de 2d3c 1fb5 4b3e 43bc f4bd e1b5 55be
00000190: 4812 96bd aa99 ad3d 9f83 98bd 8ae0 9cbd
000001a0: 4928 a2bd 14fe ecbe 8c6c 273d 36b8 55bc
000001b0: 9d77 c1bd ab0c 7ebe 4561 54bd c668 823d
000001c0: fd31 843d 5aac 2c3e 2e93 073c a75d 9dbd
000001d0: caaf 89bf 66b4 2fbc 9096 08bf 4612 a7be
000001e0: 1916 80bf 9a7e 1a3e 3bde c7bc 32cb d73a
000001f0: 9a88 cdbe d788 64bd bf68 22be c7bb 623c
00000200: 0720 d33d 5fdf 97bc c15c f6be 8ae0 36bd
00000210: 2c28 2abc 6e30 45bf 8924 b33e 277e 63bf
00000220: f09b aebd 8e03 b53d c0a7 f63d 6db6 e33e
00000230: e2a5 78be 5cb9 7c3e e993 2c3d 9bf7 793e
00000240: 047e 393e 59b4 173e bd5e 0f3c 6ffb 81bf
00000250: f42c 913d c780 843e c111 923e be66 763c
00000260: cd13 0b3f 0bd1 0a3e 3d17 97bd 9287 4cbf
00000270: 7d8e 3a3e bb31 e7bb 96d5 653d 302f efbe
00000280: 082d 813e d0cf 603e 768d 373e 6676 813e
00000290: d4cd 633e caeb 55be 043b 87be 1fd3 163c
000002a0: 011f 86be 96ae 363e 8369 363e 5749 b63e
000002b0: 4fcc 66be 6d2e 5e3e 2b78 b3bd 1f20 05bf
000002c0: 99af 42bf 1ffe 843e ccbf f4be ffac c83e
000002d0: 0fd9 883e 0fcb 88be 2f7d 35bc da38 0fbf
000002e0: 789f 843d 76e8 d43d ac7d d93e d27b 653d
000002f0: de9f 64bc b15f eabe 36cb 7e3c 1416 24bf
00000300: 3fd0 f0be e50b e03d 2a94 ebbe c257 6e3c
00000310: 1dcb d6be 2132 41bc 0278 2fbe 97c8 d9be
00000320: 03cd 32be 4dd7 f0be 84d1 f73e eee4 4b3e
00000330: 581f 57bd 1ed4 2dbf e9a2 ec3d fb14 2e3c
00000340: e9de ca3d 29d9 b5bc 73c7 0fbf d62e 043f
00000350: 76da 193e 380c 88bf 1dd6 96bc d656 86be
00000360: 1c27 2abd 0c8b ec3c d97c edbe a9f5 abbd
00000370: e47f d53c c2c4 51bf bc15 023f c757 843e
00000380: 62d5 323c 78cb 073e df4d cb3e 7f5b 9b3e
00000390: 0eae 853a bd63 1dbf 141a 94be b0ae 25bd
000003a0: 76e8 a3bd a666 cf3e cd4d fabe e7f2 0ebd
000003b0: f2a4 eabc 3a7e 843d 7603 cebc 2d3e 6b3e
000003c0: 46a5 c9be d9b3 7f3e d320 083d ddf7 98bd
000003d0: 9e83 663d 5f78 15bf 3c11 5dbe c2bc edbd
000003e0: 21ca 3b3e 402a 4a3e 09ce 863d 3f22 7b3c
000003f0: f616 adbd 0610 f8bd 3637 d3be e79a 2a3f

layer3.bias f4 [4]
-0.016747398 -0.06830843 0.04151047 -0.022402871
00000000: d731 89bc 4ae5 8bbd e206 2a3d 3a86 b7bc
