models/dagger_model_iter5.pth (torch, 75510 bytes, 6 tensors)

layer1.weight f4 [128, 8]
000000 2e d7 ae 3d aa 71 4c 3d 31 7b 5d bf 1b 23 72 40
       0.08537136 0.049913086 -0.865161 3.7833927
000010 23 d5 4d bd 14 4c 70 be 43 23 9d 3d f1 2d ca 3e
       -0.05025209 -0.23466522 0.07672741 0.39488176
000020 87 7a 53 3e 4b 9a 87 3d ed 03 54 3e 33 ad 16 bf
       0.20652209 0.06621226 0.20704623 -0.5885803
000030 59 0f e1 3e 89 85 00 3f 31 f1 e0 be 47 a3 05 bd
       0.43957022 0.5020376 -0.43934014 -0.032626417
000040 02 43 7f be 47 20 ef be 52 37 82 3f aa 5b 2f 3f
       -0.24927905 -0.46704313 1.0173132 0.68499243
000050 b4 2d 88 3e 65 6f 19 3f 62 e5 8d 3d af 6e 17 3e
       0.2659737 0.599356 0.06928517 0.14788316
000060 31 4b 45 bf c4 85 a6 3e 1a cc af 3e f5 89 25 bf
       -0.7706786 0.3252393 0.34335405 -0.6466363
000070 6e 45 a8 3e 4c cb eb 3e 61 e5 f3 3e 2c 20 e8 be
       0.3286547 0.4605354 0.4763594 -0.45337045
000080 af 81 58 bd 9f 58 f3 3d ad b6 57 3f 58 5c 03 bf
       -0.05285805 0.118821375 0.84263116 -0.5131278
000090 9b 83 ed 3e 9e 34 47 3f cc c6 2c bf 8e db 02 3f
       0.4638947 0.7781466 -0.6749084 0.51116264
0000a0 08 f6 fc 3d d8 48 01 3f ef dd 5e bf dd 1f 20 3f
       0.12351614 0.50501776 -0.87057394 0.6254862
0000b0 d1 66 9e 3e 72 d1 06 be e8 7d 1a 3e 97 18 d7 3c
       0.30937818 -0.13165835 0.15087092 0.026256843
0000c0 94 01 b9 3e 39 c3 d9 3e 49 a8 65 bf 16 61 a4 be
       0.36134017 0.42531756 -0.8970991 -0.3210532
0000d0 3e 16 2b 3e 37 e6 8f be b6 99 a2 3e 22 45 0c 3d
       0.16707703 -0.28105327 0.31757897 0.034245618
0000e0 94 95 60 3e 63 99 31 3e a4 23 91 bf 73 12 2d 3f
       0.2193206 0.17343669 -1.1339002 0.67606276
0000f0 e7 40 8f 3e a0 7e 63 bf c6 aa 2b 3e 69 ca 9b be
       0.27979204 -0.8886509 0.16764364 -0.30427864
000100 b7 06 a7 be c7 60 80 bd 00 e3 16 bf 51 87 bd 3f
       -0.3262231 -0.06268459 -0.58940125 1.480692
000110 bf b9 b0 3e 98 79 c1 be c3 a3 0d 3c 48 ee eb be
       0.34516713 -0.3778808 0.008645001 -0.46080232
000120 ec e0 1c bf 68 0e 30 bf af a4 d0 bf da 34 06 3f
       -0.61280704 -0.6877198 -1.6300257 0.52424395
000130 62 38 1b bf c6 08 f3 be 2e 2f 2c 3e 33 55 5d 3e
       -0.6063291 -0.4746763 0.16814873 0.21614532
000140 42 d8 82 3d b7 92 8d be be 2f 02 bf e9 1e 83 be
       0.06388904 -0.27650997 -0.508541 -0.2560952
000150 7f 86 a5 3e d6 82 89 3f 39 ee 81 be b6 28 2a bf
       0.32329175 1.0743053 -0.25377062 -0.6646837
000160 d3 09 f9 be d5 21 9d 3d 58 7d a9 3e 17 f2 40 3f
       -0.48640308 0.076724686 0.33103442 0.753694
000170 c4 f8 d2 bd 65 ce 49 3f 83 11 99 3d 5d 2e 95 be
       -0.103013545 0.7883056 0.07474043 -0.29136935
000180 1a 4f 26 3f 41 61 e3 3e f6 68 2c bf ae f6 0a 3f
       0.6496445 0.44410136 -0.6734766 0.54282653
000190 1c 1e 6c 3e 2e a2 cb be 08 d4 98 3e 0d 56 2a 3e
       0.23058361 -0.3977217 0.29849267 0.16634388
0001a0 20 8f 93 be e7 94 a4 3e 13 65 d3 bc 8e b9 ee be
       -0.28820133 0.32144853 -0.025805032 -0.46625942
0001b0 81 53 95 3e a8 27 c6 be 1c 3a 8d 3d f0 f6 16 bb
       0.2916527 -0.3870213 0.06895849 -0.002303537
0001c0 59 cf 73 be bf 78 b9 3e d9 3b 23 3f b1 f9 9c 3e
       -0.23809566 0.36224934 0.63763195 0.3065925
0001d0 94 da 7a bf f0 e8 a7 bd 85 f7 88 3d 89 f6 bc bd
       -0.97989774 -0.08198726 0.066878356 -0.0922671
0001e0 c0 b6 60 bf 88 30 1c be b8 dc 24 bd 08 7e 70 be
       -0.87778854 -0.15252888 -0.040249556 -0.23485577
0001f0 57 8b f9 3e 2c 26 0e 3f 19 05 80 be c0 03 a3 3c
       0.4873912 0.55526996 -0.2500389 0.01989925
000200 9a 79 4a bd 2e cd b4 3e e9 61 23 3e bb ce 28 be
       -0.049432375 0.3531279 0.15955319 -0.16485111
000210 8a 36 36 3e 49 b7 67 3f 9f 6a 05 bf d8 ba 95 be
       0.17794243 0.90514046 -0.52115816 -0.29244113
000220 57 ec b2 be 36 10 b8 3e a7 67 52 bf 66 c0 2e 3e
       -0.34945938 0.35949868 -0.8218941 0.17065582
000230 4e e2 a3 3e dd 1a 52 3e 01 26 82 be 26 47 35 3e
       0.32008594 0.2051806 -0.2541962 0.17702922
000240 47 a9 b4 3e 4e 2f 85 3e 66 b5 23 3f b3 87 14 3f
       0.35285398 0.26012653 0.6394867 0.5801956
000250 9c cf dd be 79 f5 7a bf 15 ed b4 3e 01 2b 83 be
       -0.43322456 -0.9803081 0.3533713 -0.25618747
000260 5a 9a 95 3f 35 02 bc be f1 00 e7 3d 95 ad fa bd
       1.1687729 -0.36720434 0.112794764 -0.122401394
000270 20 d2 1a 3f ea bb 57 3e 60 f7 9c be 5c 7a 9d 3e
       0.60476875 0.21067777 -0.30657482 0.30757415
000280 0f 2f 04 3f a8 7f 0a 3c 26 98 9a 3e 24 72 14 be
       0.51634306 0.008453287 0.30194205 -0.14496666
000290 d1 59 68 bf 78 c7 33 3f cf 4c 66 3d 55 78 4f bc
       -0.9076205 0.7022624 0.056225594 -0.012662967
0002a0 79 06 2e 3f 9f 79 80 bc dd 1a be 3e a0 8f df be
       0.67978626 -0.015682993 0.3712987 -0.43664265
0002b0 8d 1f 3c bf 6a d9 e5 be d6 6f 71 3d da 78 71 bd
       -0.7348564 -0.44892436 0.058944546 -0.058953144
0002c0 c1 3d 2e 3e 6e 99 8a be d6 af 48 bf f9 57 b7 be
       0.17015745 -0.27070183 -0.78393304 -0.35809305
0002d0 22 24 a2 3e b7 7a b6 bf 1c 70 6e 3e fc d3 ca 3d
       0.31668192 -1.42562 0.23284954 0.09903714
0002e0 09 10 6c 3c fe b2 10 3f a2 d9 4b 3e 88 ba 26 3f
       0.01440812 0.5652312 0.19907239 0.65128374
0002f0 74 2e 66 bc a1 e0 0e 3d 78 b5 01 bd f2 69 74 be
       -0.014049161 0.03488219 -0.031667203 -0.2386854
000300 98 8f 56 be dd c8 95 bf 45 1d 1b 40 54 ac 9c 3f
       -0.20953214 -1.1701924 2.4236615 1.224009
000310 76 d6 5e 3f 9b 59 0e be 00 a8 94 3d 13 71 95 3e
       0.8704599 -0.1390137 0.07258606 0.2918783
000320 43 54 e0 bd f6 ee 76 3e 07 50 c5 3e 42 37 1f bc
       -0.10953572 0.24114594 0.3853762 -0.009717764
000330 97 8c 5d bf 56 9d 5e bf aa fa 4d bd a1 a7 f9 bd
       -0.8654265 -0.86958826 -0.05028788 -0.12190176
000340 e2 2b 63 bd 29 0f bd bd 64 2d 86 bf 25 7e 49 40
       -0.05546177 -0.09231407 -1.0482602 3.1483243
000350 34 d9 b9 3d 97 16 dd bd 33 bd 15 3e d0 6c ba 3d
       0.09074631 -0.10795324 0.14622955 0.091027856
000360 e4 bf 03 be 88 e6 e8 be cc d2 86 bf 41 a5 65 3f
       -0.12866169 -0.4548838 -1.053308 0.8970528
000370 f2 65 80 bf 62 f4 f5 3d bd 03 a8 be e7 f9 14 bf
       -1.0031111 0.12009503 -0.32815352 -0.5819382
000380 be 0d a8 bd 31 bd af 3e 21 3b 47 3f da 1c 25 bf
       -0.08205746 0.3432403 0.778246 -0.6449715
000390 70 19 38 3f 4c 26 4b 3f 0c 42 39 bf 88 37 23 3e
       0.71913815 0.7935531 -0.72366405 0.15939152
0003a0 71 c9 88 be 39 3e 41 3e 6f 7d 9c 3d f7 90 d0 3e
       -0.26716188 0.18871392 0.07641112 0.407356
0003b0 fd d0 b3 be d9 77 3d bf 19 a2 85 be 81 b0 9e bd
       -0.35120383 -0.74011 -0.26100233 -0.07748509
0003c0 6a fa 68 3f eb 10 b9 be 2e 91 01 bd 3c 68 cc be
       0.910071 -0.3614572 -0.031632595 -0.39923275
0003d0 be 32 89 be b7 07 93 3d a6 31 03 3e 9d be f7 3c
       -0.26796526 0.07179206 0.12811908 0.030242259
0003e0 43 16 af be 74 9c 15 c0 e8 e5 da be e6 d3 cc 3f
       -0.34196672 -2.3376741 -0.4275353 1.6002166
0003f0 ed 89 12 bf 4c 13 1e be 24 d6 d3 bb 4b 10 48 3e
       -0.5724171 -0.15437049 -0.0064647365 0.19537465

layer1.bias f4 [128]
000000 a0 9c 29 3c 9b 07 ad 3d bc a6 9d 3e aa 36 59 be
       0.010352284 0.08448716 0.3079127 -0.21212259
000010 6b 82 e2 be 97 6e 9d be 5f b0 8b be c8 cf 7e bd
       -0.44240126 -0.30748436 -0.27282998 -0.062209874
000020 00 cf d6 3d 15 b6 73 be 27 fd 8a 3d 8b f2 f0 3d
       0.10488701 -0.23799928 0.06786566 0.117650114
000030 57 83 26 be fc 61 24 bd f9 2a e8 3d cf 9a 32 3e
       -0.1626104 -0.040132508 0.113363214 0.17441867
000040 b0 d3 cb be 3f 44 e9 3d cc 32 68 be 77 8d 34 3d
       -0.39809942 0.1138997 -0.22675627 0.044080224
000050 c2 b4 92 3d ed cd 03 3e 02 83 15 be ff f5 85 be
       0.07163383 0.12871523 -0.14600757 -0.26164243
000060 61 a3 5f be 47 02 4e 3e 34 41 93 3d 17 18 17 3e
       -0.21839668 0.20118056 0.07190171 0.14755283
000070 e4 f6 98 be 81 7e 57 3e 5f 26 ad bc 5d 48 11 bd
       -0.29875863 0.21044351 -0.02113646 -0.0354694
000080 76 a9 9c be dd 2e 37 be 91 ed 8b 3e cb 2c dc 3d
       -0.30598038 -0.1788897 0.27329686 0.10750731
000090 bf 3d c2 be d8 04 e4 3d c2 5b 2c 3d 02 46 6c be
       -0.37937734 0.11133736 0.042079695 -0.23073581
0000a0 22 e5 1a 3e 67 0b 04 3d a9 bc c9 3d ed 39 d7 3d
       0.1512647 0.032237437 0.09850437 0.10509095
0000b0 9e 0c 08 3e 4e 9a 67 3c 7e d2 8c be 15 d2 4c 3e
       0.13286063 0.01413591 -0.27504343 0.20002015
0000c0 58 02 a3 3d 20 78 53 bd 5e 15 8f 3e 05 2c 75 3c
       0.079594314 -0.051628232 0.2794599 0.014964108
0000d0 49 00 9e 3e 23 f0 35 3e be 18 a4 bc 43 4c 90 bd
       0.30859593 0.17767386 -0.02003133 -0.07045796
0000e0 d5 ce ee 3d 65 dd 06 3d 69 5c 84 be 4e 5c 6b 3e
       0.11660544 0.032925982 -0.25851753 0.2298443
0000f0 1f 68 04 3e da cb b0 3c 9e b9 1e 3e 57 aa aa be
       0.12930344 0.021581579 0.15500495 -0.33333084
000100 3b 77 fe 3d b6 94 cf 3b 85 a8 2d be 99 f3 99 3d
       0.12425085 0.0063348664 -0.16958816 0.07517166
000110 a1 d8 e0 3d 56 bd de 3d 70 0e b8 be d4 8c 0c 3e
       0.10978819 0.10875957 -0.35948515 0.13725597
000120 31 bd fa 3d 87 ac e4 be 86 e7 06 be b0 bb b4 be
       0.12243117 -0.44662878 -0.13174257 -0.35299444
000130 92 4b b2 bd 07 c9 13 3e 6a 1c 7c 3e 1a 50 0b be
       -0.0870582 0.14432155 0.24620214 -0.13604775
000140 c4 5f 30 bd 24 01 da bd 39 d2 48 3d c1 94 9e be
       -0.04306008 -0.10644749 0.04902861 -0.30972865
000150 e5 6f c5 bb 14 1d 08 be d5 e8 8d 3d 58 eb dd 3c
       -0.0060253018 -0.13292342 0.06929175 0.02708976
000160 fc 91 e2 3d 3f e2 36 be 89 8d 37 3e 3b 8a 70 3e
       0.110630006 -0.17859744 0.17925085 0.2349023
000170 9b 15 d2 bc 11 24 5b bc bc 76 06 3e 5f 6b 6c 3e
       -0.025645068 -0.013375298 0.13131231 0.23087834
000180 73 13 2c be 98 8a 15 be 66 75 84 3e cb 05 84 3e
       -0.16804294 -0.1460365 0.25870818 0.2578567
000190 2b 5c 8a 3d a9 d8 92 be 12 9d 20 3c b1 28 98 3d
       0.06755861 -0.28680924 0.0098030735 0.07429636
0001a0 a3 2c 81 be 90 da 45 3d b1 2d 83 be 99 cb fc 3d
       -0.25229368 0.04830414 -0.25620797 0.12343521
0001b0 9f 97 42 be 17 c0 84 bc 39 8b f9 bc 69 9e 51 3d
       -0.19003151 -0.016204877 -0.030461894 0.051176462
0001c0 1e 85 ca 3d 2f 7e 45 3e 30 e6 6e 3d d0 a5 e8 bc
       0.09888671 0.19286416 0.058324993 -0.028399378
0001d0 45 ce 85 3e 2e a3 91 be 0c 4d 85 3e f2 30 58 be
       0.26133934 -0.2844481 0.26035345 -0.21112421
0001e0 f9 08 80 3e 93 a1 77 3e 29 20 af be 37 18 13 3e
       0.25006846 0.2418273 -0.34204224 0.14364706
0001f0 84 da be 3e 58 96 b9 be 07 fc 90 be e1 0d 3d be
       0.3727609 -0.36247516 -0.28317282 -0.18462326

layer2.weight f4 [128, 128]
000000 95 13 e2 bd 0e 73 dc bc 66 8b 64 be d8 61 05 3e
       -0.11038891 -0.026910331 -0.22318801 0.13025606
000010 77 a8 34 3f 62 d2 0c be 3b e9 05 be 28 a6 4d 3e
       0.70569557 -0.1375213 -0.13077252 0.20082915
000020 31 9a dc bc 82 7f 9d 3e a7 3a b1 3e 2c 3b 15 bf
       -0.026928993 0.30761343 0.3461506 -0.58293414
000030 bb da f8 bd 4c 79 86 3d d7 21 44 be 29 01 aa 3d
       -0.121510945 0.06566104 -0.19153534 0.083010025
000040 91 02 67 3e 61 50 66 bd cc 57 64 3f a6 24 02 3e
       0.22559573 -0.056229 0.8919647 0.12709293
000050 8d ef 99 3d ec f4 83 3d 45 30 a0 3e 2e 99 2e bf
       0.07516394 0.064431995 0.31286827 -0.68202484
000060 f1 b2 91 3e 28 ed 80 bd 22 78 da bc 27 b3 e0 3e
       0.28456834 -0.06295234 -0.026668612 0.43886682
000070 e5 58 bd 3e 8d 63 5d bd 06 5d 04 3e b9 1b e1 3c
       0.36981884 -0.054050017 0.1292611 0.02747904
000080 ae 47 b1 bd f9 b2 e8 bd 44 64 b3 bd e4 56 05 be
       -0.0865625 -0.11362261 -0.087593585 -0.13021427
000090 dd a1 c4 3d 8b c7 b0 be fb ea fe 3e d8 58 a0 be
       0.096011855 -0.3452724 0.4978865 -0.31317782
0000a0 fb 8e 2a 3e 58 b6 08 be 87 9c 78 3e 40 16 2d 3f
       0.16656105 -0.13350809 0.2427846 0.67612076
0000b0 a8 14 df 3e 56 7a 9c 3e a9 b2 7d bf 6d 8f 50 3e
       0.43570447 0.30562085 -0.9910074 0.20367213
0000c0 53 14 80 bd 26 8c fb bd ee 61 96 bd be 3a 22 bd
       -0.062538765 -0.122825906 -0.07342897 -0.039606802
0000d0 cb 00 49 3e 19 f3 2e be fc 95 95 3e 0d 65 88 3e
       0.19629209 -0.17084922 0.29215991 0.26639596
0000e0 f7 0c 7c 3e c3 bd 05 be 23 5f e2 3e db e4 b6 be
       0.2461432 -0.1306067 0.4421321 -0.35721478
0000f0 4d f5 df 3e 30 b3 d2 bd 6d 58 23 3e d9 37 b5 bd
       0.43741837 -0.102880836 0.159517 -0.08848543
000100 c5 dc 3d bf e9 ae 9d 3d d2 bf b6 3c 95 4a 9e 3e
       -0.7416499 0.07699377 0.022308264 0.30916277
000110 5d 9d f3 3d bc b8 83 be 5b 76 e4 be 88 34 36 3f
       0.11895249 -0.2572688 -0.44621548 0.71173906
000120 e6 52 b6 3e e0 e4 59 be 69 38 60 be c7 63 f1 3d
       0.3561012 -0.21278715 -0.21896519 0.11786609
000130 95 30 09 bf 59 13 40 3e 5d fe de bb cb a6 92 be
       -0.53589755 0.1875738 -0.006805225 -0.28642878
000140 a9 16 5f be e6 c3 93 be 54 06 f9 be 3f 83 41 3c
       -0.21785988 -0.28860396 -0.4863764 0.011811077
000150 4e ca 29 be c6 32 83 bd 05 1f 55 3e 49 67 04 bd
       -0.1658108 -0.06406169 0.20812614 -0.032325063
000160 f6 2b cc 3d f4 70 16 be da 15 e1 3d 59 33 92 bd
       0.099693224 -0.14691526 0.10990496 -0.071387
000170 75 d2 89 3e 65 d4 5b be 20 20 1a 3e 66 74 7f 3d
       0.26918378 -0.21467741 0.15051317 0.062366866
000180 53 3d 3f bf de dd 2e 3e 73 4c 32 3e de f2 47 3e
       -0.7470295 0.17076823 0.17411976 0.1952624
000190 b1 20 dd 3e 11 85 86 3e b2 63 09 3f dd f3 95 3d
       0.43189004 0.26273397 0.5366775 0.07321904
0001a0 db 4a 1c 3e 52 b4 ca 3e bc c5 09 3f 7f f6 4b 3c
       0.1526293 0.39590698 0.53817344 0.012448906
0001b0 f3 c1 bf bc b3 06 c6 3e cb 6e 11 3d df 48 4c be
       -0.023407912 0.38676986 0.03550605 -0.19949673
0001c0 a9 49 45 3d 70 8a 27 bd ad 35 99 3c fb 7e cf be
       0.04816595 -0.04090351 0.018702352 -0.40526566
0001d0 d0 ad b7 be 48 89 b0 bd 85 66 53 3e cb d7 16 3f
       -0.35874796 -0.08619934 0.20644577 0.58923024
0001e0 59 c5 d5 be a9 b6 05 3e 2f c4 62 bd 6e f5 0a 3e
       -0.41752127 0.1305796 -0.055362877 0.13570186
0001f0 7e 1f 5f bf 43 1a 5f bd 83 72 0a bd b1 d5 4d bd
       -0.8715743 -0.054468405 -0.033800613 -0.05025262
000200 1e 6a 54 3f 5c 95 f9 3d d9 43 42 3e c0 c9 81 3d
       0.8297442 0.12186691 0.18971194 0.06337309
000210 ec 42 b7 be 47 a8 12 bf df 9f b4 3e a6 ac d4 3c
       -0.35793245 -0.5728802 0.35278222 0.025961231
000220 79 47 28 3f 2f e3 00 3f 64 84 9f bc 74 02 2f 3d
       0.6573406 0.50346655 -0.019472308 0.04272695
000230 90 0b bc 3d fe 68 3b 3d 25 a7 0c 3d 47 f4 98 bd
       0.09181893 0.045754425 0.03433909 -0.07468467
000240 34 c4 3a be 90 3b 62 3e de 8d 64 3f 33 b7 20 be
       -0.18238908 0.22093034 0.8927897 -0.15694885
000250 c0 39 1f 3e 14 4e 13 3e f7 21 d1 3e c0 08 8a be
       0.15549374 0.14385253 0.40846226 -0.269598
000260 3b c3 a1 be 4e c3 29 3e d2 85 03 3f 14 4e 30 bf
       -0.31594262 0.16578409 0.5137607 -0.6886914
000270 ae 8b 8f 3e 23 d3 f2 3d 73 fb bf 3c 39 e9 27 3f
       0.28036255 0.118566774 0.02343533 0.65590245
000280 fa c0 99 be 1e c2 81 3f c6 bd 03 3e b5 4a c0 3d
       -0.30030042 1.0137365 0.12865362 0.09389249
000290 1b 57 84 be 5f ad fe 3d 10 63 c0 be 7a 5a a6 3e
       -0.25847706 0.12435412 -0.3757558 0.32490903
0002a0 8d 18 fb 3d ff 59 9d 3e 92 c9 19 bd 12 0c e9 bd
       0.12260542 0.30732724 -0.037545748 -0.11379255
0002b0 de 99 bf be 70 11 c1 3d f5 10 0b be 0d 94 5f 3e
       -0.3742208 0.09427154 -0.13580687 0.2183382
0002c0 98 36 29 3e 9b de d5 be 23 df b4 3d 50 de 25 3e
       0.16524732 -0.41771397 0.088316225 0.16198087
0002d0 81 fa c6 bd 14 c0 57 3d 46 49 49 be f1 d4 d2 be
       -0.097157486 0.052673414 -0.19656858 -0.41178086
0002e0 2d de 9a 3d 8c bb 1e bf 99 89 0c bf 9a 88 05 3e
       0.07561908 -0.62004924 -0.5489746 0.1304039
0002f0 cf 4d 65 3e a7 bd 9b 3e 47 06 e3 3b f2 b2 40 bd
       0.22392963 0.3041813 0.0069282386 -0.047045656
000300 67 bd 16 3f 72 76 3f bf 9d 88 7d 3d 1f ed 2a be
       0.58882755 -0.7479011 0.061897863 -0.16692017
000310 c6 4c 80 bd 23 c9 76 3e f2 f1 ae 3d 05 da 43 bf
       -0.06264643 0.24100165 0.08542241 -0.76504546
000320 4a b9 d2 be 18 d0 7c be 89 9e 46 bd 65 11 c3 be
       -0.4115699 -0.24688756 -0.048491035 -0.38099208
000330 e3 3c 12 3f 96 22 92 3d 4e 37 0f 3e b6 98 ca 3e
       0.57124156 0.07135503 0.13985941 0.39569634
000340 91 68 8d bd 19 3c 74 bd f4 19 b2 3e c9 58 a8 bc
       -0.0690471 -0.059627626 0.34785426 -0.020550149
000350 15 21 f9 be e9 49 a5 3e 5f 59 82 bd 9d 4b b8 bd
       -0.48658052 0.3228295 -0.063647024 -0.08998797
000360 81 f1 56 3d 6b c5 8d 3e fc bf ac bd 69 6c 9d be
       0.05247641 0.2768968 -0.084350556 -0.30746773
000370 7c 05 ee 3e 79 bf 50 3e 1f 96 6b be 20 fd aa bd
       0.4648856 0.20385541 -0.23006485 -0.08349061
000380 2a c9 24 3d 17 55 20 3f d1 6c 24 bd 39 4b d0 bb
       0.040230907 0.62629837 -0.040142838 -0.0063566235
000390 00 fe 05 bf 13 b0 2b 3d 4f 2e f7 3e b5 2e 20 bd
       -0.523407 0.041915964 0.48277518 -0.039107043
0003a0 bd 6b 13 3f ab f5 b0 be 6c 4b 9b be d2 e2 28 3d
       0.5758627 -0.3456243 -0.3033098 0.041231938
0003b0 73 71 0c be d5 ea 47 bf 99 cc 16 3e b5 75 03 3f
       -0.13715152 -0.780927 0.14726485 0.5135148
0003c0 d4 f2 8e 3d 26 c5 9f 3d 5a 37 0a 3e 37 06 91 be
       0.069799095 0.07801275 0.13497677 -0.28325054
0003d0 ed 80 a4 3e c9 2e 58 3e 57 3c 3e 3d 32 3e 6b be
       0.32129613 0.21111597 0.046444263 -0.22972944
0003e0 fc 6c c1 bd 84 1d 03 bd 47 91 5d b9 11 d9 15 3d
       -0.09444615 -0.03201057 -0.00021130322 0.036583964
0003f0 28 4a 5b ba a8 6d 9b be 10 89 8d 3d dd c6 29 3f
       -0.0008365237 -0.303571 0.06910908 0.66319066

layer2.bias f4 [128]
000000 72 f3 32 bd ac 54 1e 3d 1a 21 06 3e 3d 7b 39 bd
       -0.0436892 0.03865497 0.13098565 -0.045283545
000010 b0 c4 91 3d 17 bc 09 3e bc 14 4a 3d 02 cc 07 3e
       0.07117593 0.13450657 0.04933618 0.13261417
000020 00 c8 be 3d 43 5b e1 3d 08 e8 b1 3d dc 05 29 3e
       0.09315491 0.11003735 0.086868346 0.16506141
000030 cb ca 44 3e 8b ac 81 3c a8 dd 11 3d 83 2e 9b 3d
       0.19217984 0.015829345 0.03561178 0.07577231
000040 66 86 bb 3d e8 73 d9 3d df db 8c 3c a3 73 3c 3d
       0.09156494 0.106178105 0.017194686 0.046008717
000050 f8 90 84 bd a7 04 f5 3b 3d 93 32 3e a4 0e 7a 3d
       -0.06472963 0.0074773612 0.1743898 0.06104912
000060 f8 66 08 3e ad e1 99 3d 43 91 ac bd 09 0c 86 be
       0.1332053 0.07513747 -0.08426144 -0.26181057
000070 d2 67 8b 3d 02 04 12 3e 96 4b 95 bd 53 6b 27 3e
       0.068069115 0.14259341 -0.072898075 0.16349535
000080 10 5a 1e 3e 31 85 d0 3d 8d 97 e6 bd cf ba ae 3d
       0.15464044 0.10181654 -0.11259375 0.08531725
000090 b8 e8 2a 3e 7b 5b 8b bd 7d d8 dd 3d 46 b1 79 bd
       0.16690338 -0.06804558 0.108323075 -0.060960077
0000a0 4a db 6e bc a8 e4 0d 3e 70 cb fd bb f2 9c dc 3d
       -0.01457865 0.13856757 -0.007745199 0.107721224
0000b0 d7 45 c8 3d a1 dc fa 3d 65 b5 63 3d bc 7c 38 3d
       0.09778946 0.12249113 0.055592913 0.04504083
0000c0 9b b1 e2 3c 7b 81 1c 3e 94 ba 16 3e 02 b5 70 3d
       0.02767258 0.15283768 0.14719611 0.058766373
0000d0 03 6d 0a 3e 86 25 2a 3d 01 eb 89 3d ff e8 ab 3c
       0.13518147 0.04153969 0.067342766 0.020985125
0000e0 34 b2 82 3c 4a 28 87 3d aa 40 2c 3e 7e 32 4b 3d
       0.015954114 0.065994814 0.16821542 0.0496087
0000f0 54 8f 92 bd 4e fd 12 3e a7 75 a3 bd a6 1b 1b 3e
       -0.07156244 0.1435444 -0.07981425 0.15147266
000100 e1 50 0b 3e b1 f2 e3 3c cd e5 e5 b9 1b 7d c1 bc
       0.13605072 0.027825685 -0.000438495 -0.023619225
000110 7b ff 26 3d f3 f5 2e 3d ef 2a 31 bd 2c 96 13 3e
       0.04077099 0.042715024 -0.043253835 0.14412755
000120 58 07 08 3e a1 cd 73 3d 1e ba 24 3e 3a 07 c8 3d
       0.13284051 0.059522275 0.16086623 0.09767003
000130 53 32 11 be c0 33 cd 3d a7 d2 4d bd 1e c1 a4 3c
       -0.14179353 0.10019636 -0.05024972 0.020111617
000140 ed db 01 3e 2a f9 4b bc 39 9a 85 bd 2d ae 6f 3d
       0.12681551 -0.012449542 -0.06523556 0.058515716
000150 c2 71 ea bc ce c2 0d bd 25 4a 1b 3e 0f d7 9d 3d
       -0.028618697 -0.03460961 0.15165003 0.07707035
000160 e8 7e 09 3e fd f9 95 3d 9d 12 b0 3d f9 6e 3c 3e
       0.13427317 0.07323072 0.085973 0.18401708
000170 d7 5f 90 bd 83 75 bb bd b3 5e 27 bd d8 4d 53 3d
       -0.0704953 -0.09153273 -0.040861797 0.05158791
000180 7c b1 ad bd 05 04 07 3e 5e 96 b7 3d 9f 5a f6 3c
       -0.08481118 0.13185127 0.08964227 0.030072508
000190 8f 5f 20 3d de ed 57 3d 25 c0 66 3d f9 fe 68 bd
       0.03915363 0.052717082 0.056335587 -0.056883786
0001a0 89 f3 8b bd 6b db 10 3e 8f 46 d7 bd 30 88 a4 bd
       -0.0683356 0.14146201 -0.10511505 -0.08033788
0001b0 eb 78 9b bd e2 da 21 3d f9 ea 93 bd c6 5d db 3d
       -0.07591423 0.039515384 -0.07222552 0.10711245
0001c0 54 47 2d 3e 75 74 3a 3e 31 2f 39 bd cf d6 ce bd
       0.16921741 0.18208487 -0.04521102 -0.10099565
0001d0 9f 98 6c 3d 5e a5 34 3d 7d 76 16 3e c4 cb 90 3c
       0.05776274 0.04410302 0.14693637 0.017675288
0001e0 0e 43 d4 3d 75 8e 40 3e 85 7a 3b bd 74 5f 73 3d
       0.10364352 0.18804343 -0.04577114 0.059417203
0001f0 93 24 da 3d f7 7e 95 3d d0 79 98 3d c9 bb f8 3d
       0.10651507 0.07299607 0.07445109 0.12145192

layer3.weight f4 [4, 128]
000000 fd 59 9e bf 5e 00 20 3e 05 60 08 3e 7a e7 99 3c
       -1.2371212 0.1562514 0.13317879 0.018787134
000010 bd 03 05 3f ae ed 9b 3e f3 6a 4b be 16 07 7f 3e
       0.5195883 0.30454773 -0.19865017 0.24905047
000020 64 3f a0 be 3a 1c cb be 7a e2 84 3e 2c a8 b6 3d
       -0.31298363 -0.39669973 0.25954038 0.08918795
000030 3f 6c 70 3e 7f a4 00 bf e0 e7 15 3c ba 72 7c 3e
       0.23478793 -0.50251 0.009149522 0.2465314
000040 07 de a2 3e 98 99 79 3e 92 26 12 3f c8 57 45 3d
       0.31810018 0.24374998 0.57090104 0.048179418
000050 a2 43 9d bd a6 8d 04 be 95 51 80 3e b0 2d fc be
       -0.076789156 -0.1294466 0.25062242 -0.49253607
000060 df c0 ac 3e b5 f1 6b be fd 97 86 bc e9 f8 d7 3e
       0.337409 -0.23041423 -0.016429896 0.4218209
000070 9f 1f 82 bf e3 bc a0 3e f1 0e f6 bc ee 1f 80 3e
       -1.01659 0.3139411 -0.030036421 0.2502436
000080 e7 b8 8c 3e 24 ab d3 3e 6c de 26 3d 77 d2 b9 be
       0.2748482 0.41341507 0.04073946 -0.36293384
000090 71 4c 1f 3d cd 43 cc 3e bb db ce be 7e b2 5b bd
       0.03889126 0.39895478 -0.40402016 -0.05363702
0000a0 4f af 35 bf 34 cf 90 3e f7 2b 11 3e 41 a2 bf 3d
       -0.70970625 0.28283083 0.14176928 0.09357119
0000b0 5f fb 3e 3e 25 4e 06 3e 77 51 1f 3f dd 40 0c bf
       0.18650578 0.13115747 0.6223368 -0.54786474
0000c0 e2 e0 9a 3e 03 43 2e bf 48 91 6f 3e 0d 12 10 3f
       0.30249697 -0.68071 0.23395264 0.56277543
0000d0 36 36 66 3e 34 b2 22 3e 77 65 09 bf 24 7d b1 3d
       0.22481617 0.15888292 -0.5367045 0.08666447
0000e0 bf c2 05 3d d6 f1 ae 3e e1 04 f8 be 3f 37 c5 3e
       0.032656427 0.3416888 -0.48441222 0.38518712
0000f0 f1 4e 25 3d 5d 02 50 bf a5 87 71 bc c5 4a 7f 3e
       0.040358488 -0.81253606 -0.014741813 0.24930866
000100 81 81 de 3e 4d 02 24 3e bb 4a 74 3f 71 fe a6 3d
       0.4345818 0.16016503 0.9542653 0.081539996
000110 b4 1c 54 3c ea 0c 3a 3e 4c 4d bc 3d cd 3f a9 3d
       0.0129462965 0.18168989 0.09194431 0.08264122
000120 4f b8 a2 3e bd 4c bd 3c 9b 16 23 c0 44 3e 0c 3f
       0.3178124 0.02310788 -2.5482547 0.5478251
000130 08 55 bb bd ed b5 7c 3d d8 6e af bd 51 a0 4f be
       -0.09147078 0.061696935 -0.08566064 -0.20276
000140 d5 ea 74 3e 30 9a 95 be e9 b4 6a 3e 69 f4 df be
       0.23917706 -0.29219198 0.22920574 -0.43741158
000150 d3 b9 a9 3d 44 47 44 bd 09 39 94 3e a4 b5 39 bf
       0.08287396 -0.047919527 0.28949764 -0.72542787
000160 a0 37 e3 bf 12 c9 a0 3e bd 31 25 3c 4d 19 c6 3e
       -1.775135 0.31403404 0.010082659 0.38691178
000170 34 66 28 3b cc be 1e 3e 32 cd b3 bd 41 4b b1 3e
       0.0025695683 0.1550247 -0.08779372 0.34627727
000180 d9 de 2d 3c 94 21 93 3e 2f 95 07 bd 4c 81 c2 be
       0.010612213 0.28736556 -0.033101257 -0.3798927
000190 62 86 a7 bd 5f 41 80 3e 4f a9 c0 bd 8a e0 9c bd
       -0.08179928 0.25049874 -0.09407293 -0.07660015
0001a0 49 28 a2 bd 06 9b 31 bf 96 6f b2 3d 06 92 57 bc
       -0.0791784 -0.6937717 0.087126896 -0.013157373
0001b0 9d 77 c1 bd 45 43 13 bf f9 f2 e4 bc 8e 50 74 3e
       -0.094466425 -0.5752452 -0.02794789 0.23858854
0001c0 cd 03 78 3e fe 74 9e 3d 2e 93 07 3c a7 5d 9d bd
       0.242202 0.07737158 0.0082748365 -0.076838784
0001d0 3c 83 ce bf c3 8e b5 3d 0e c6 15 bf 1f 82 fb be
       -1.61338 0.0886512 -0.5850533 -0.49122712
0001e0 7d e3 2a c0 11 03 7b 3e 49 15 e4 bd 32 cb d7 3a
       -2.6701348 0.24512888 -0.11136872 0.0016463755
0001f0 66 16 1a bf 93 50 58 3e ee 42 db bd 16 5a 94 3d
       -0.6019043 0.21124487 -0.10706125 0.07243745
000200 59 12 11 3e 6c cb a7 bd 02 9b 69 bf 8a e0 36 bd
       0.14167155 -0.081930965 -0.9125215 -0.04464773
000210 60 b0 cb bd af 71 cb bf 7a 63 0f 3f 37 65 c6 bf
       -0.0994575 -1.5894068 0.56011164 -1.5499638
000220 e8 3b 99 3e b5 b6 7d 3d 17 f1 87 3e 50 b9 47 3f
       0.29928517 0.06194182 0.26551124 0.7801714
000230 26 03 ea be 9e fe 3f 3e 0b 75 08 3d 60 bc 98 3e
       -0.45705527 0.18749472 0.033314746 0.2983122
000240 2a d6 51 3e c3 f3 90 3e 4a 30 99 3d 0c 0f 06 c0
       0.20491853 0.28310975 0.074799135 -2.0946684
000250 f4 2c 91 3d eb 6c fb 3e c9 32 1f 3f 32 4c 38 3d
       0.07088652 0.49106535 0.62186867 0.04499454
000260 d8 99 b3 3f b6 95 04 3f 3d 17 97 bd e1 c0 68 bf
       1.4031324 0.5179094 -0.07377479 -0.9091931
000270 40 27 e7 3e a2 5e c8 bd 96 d5 65 3d 44 fd 8c bf
       0.45147133 -0.09783675 0.056111895 -1.101479
000280 ba f4 08 3f af cc e2 3e 3e e0 cc 3e ec 58 28 3f
       0.53498423 0.44296786 0.40014833 0.65760684
000290 6d c8 91 3e 5a ec ea bd 61 e6 e1 be 1f d3 16 3c
       0.28473225 -0.11470862 -0.44121078 0.009205609
0002a0 bb 85 49 bf ff 21 ca 3e a8 9f a7 3e 86 66 40 3f
       -0.7871968 0.39479062 0.32738996 0.7515644
0002b0 28 74 8a be a0 a2 a7 3e d7 6c a4 bd 9c 8e 79 bf
       -0.27041745 0.3274126 -0.08028572 -0.9748323
0002c0 69 9f c1 bf 94 96 88 3e 61 ac b1 bf 65 18 85 3f
       -1.5126773 0.26677382 -1.3880731 1.039807
0002d0 59 47 c3 3e b2 5c 16 bf 0b c0 a9 3d 3a 99 83 bf
       0.3814037 -0.5873519 0.082885824 -1.0281136
0002e0 78 9f 84 3d 13 88 43 3d 99 86 98 3f ce 7e 32 3e
       0.06475729 0.047737192 1.1916076 0.17431185
0002f0 de 9f 64 bc 7c 7b 45 bf 7b 3c 25 3b 31 0c ac bf
       -0.013954131 -0.7714155 0.002521305 -1.344122
000300 4b e5 a0 bf e4 16 34 3e 68 0c 97 bf c2 57 6e 3c
       -1.2569975 0.17586857 -1.1800661 0.01454729
000310 73 38 75 bf eb 19 8d bd e6 2b 32 bf 27 c0 6d bf
       -0.9578926 -0.06889709 -0.69598234 -0.92871326
000320 32 a8 a5 be bd cc 92 bf f0 ee 8c 3f 85 5a b4 3e
       -0.32354885 -1.1468731 1.1010418 0.3522531
000330 dc 60 12 3e 1f d9 d0 bf 25 ba 89 3e e1 c9 91 3e
       0.14294761 -1.631626 0.2689983 0.28474334
000340 18 fd be 3d 2f 90 ad bd c6 22 4b bf 98 f4 22 3f
       0.093256176 -0.084747665 -0.79349935 0.6365447
000350 4e ed e3 3e e4 20 bd bf 48 fb 4f bd 5c 70 47 bf
       0.44516987 -1.4775662 -0.05077675 -0.7790582
000360 2a 1a 8a b9 06 00 ba 3d 37 8c 81 bf 40 14 6b be
       -0.00026340905 0.09082036 -1.0120915 -0.22956944
000370 e4 7f d5 3c 73 d6 ee bf 06 8e 4b 3f a6 ac 45 3f
       0.02606196 -1.8659195 0.79513586 0.77216566
000380 62 d5 32 3c 72 db 19 3e 32 85 59 3f 3a 23 09 3f
       0.010915132 0.15025118 0.84968865 0.53569376
000390 09 ae 85 3a 80 d3 01 c0 bc 0d 47 bf b0 ae 25 bd
       0.0010198961 -2.028534 -0.7775533 -0.040449798
0003a0 76 e8 a3 bd 7d a4 24 3f 3f fe 51 bf 83 7e 0e bd
       -0.08003323 0.6431349 -0.82028574 -0.03478862
0003b0 f2 a4 ea bc 4c 2b ab 3e f1 9c b9 bc 9d 52 95 3e
       -0.028643105 0.3343147 -0.022657843 0.2916459
0003c0 5f db 21 bf 9d ea 39 3f d3 20 08 3d dd f7 98 bd
       -0.6322536 0.72623616 0.03323443 -0.07469151
0003d0 d4 0c 4d 3c 9a 59 83 bf 01 05 fb be 74 6b 2d be
       0.0125152655 -1.0261719 -0.49027255 -0.16935521
0003e0 73 da b5 3e d7 cf a8 3e 57 84 76 3e 1e 2a 7a 3c
       0.35518226 0.3297107 0.24073921 0.015268831
0003f0 d6 5d 81 bd 7b 62 6f bf 80 bd 24 bf 4a 16 40 3f
       -0.06316726 -0.93509644 -0.64351654 0.7503401

layer3.bias f4 [4]
000000 4d 7f 3e bb 7e f3 a6 bd a6 4b 99 3c 9e e8 bc 3a
       -0.0029067576 -0.08151911 0.01871283 0.0014412587
