models/dqn_lunar_lander.pth (torch, 75490 bytes, 6 tensors)

layer1.weight f4 [128, 8]
00000000: cd03 dbbd 974b 35be 3145 063e 4cb5 663e
00000010: 6a1d 643e 8c54 333f 253c 1b3f 90e7 18be
00000020: f49b 4eba 3b39 0cbe 7c08 653f fb62 023f
00000030: 4106 b83d 013b 8bbf 20bb 9abe 2bc2 c4bc
00000040: 93f2 11bd 4d21 993e 11c6 ec3e 5790 debe
00000050: 26b3 62be fd9e 2f3e 1200 a63b 99f0 4dbe
00000060: 8151 36be ad53 7f3c f6f0 8c3f 4502 1bbf
00000070: 5373 843e a454 f73b 2cc2 ffbe c84c 283d
00000080: 05b8 543e 441d e83e 1dfe 0bbe 21a8 77be
00000090: 9813 43be ba76 f2be 56e0 83bf 372a da3e
000000a0: 1636 f3be 21e2 fd3d 9d8f 183f 9119 5dbf
000000b0: cde4 543f 4e5f 603f 1a33 edbe 1a10 24bf
000000c0: 98e6 d1bd df78 9d3e 402b 783e 2aeb a83c
000000d0: ccd1 5bbd 2292 78be 1f4e 1e3e fe3b 943e
000000e0: 8546 2b3c 0d51 713b ef75 0bbf 1a8b 64bf
000000f0: 6e2e 8fbc 5da3 c63c 150e 253c 9c2e 4f3e
00000100: f3d8 d23e 0dc7 c53e b7cd 99bc 638d 8dbe
00000110: e548 1e3f d658 f1bd fef8 46bf 5c27 36bc
00000120: e39e 25bf 482b d93e 8082 613e 1604 7cbe
00000130: 7935 c8bd 36e5 93be 961e 563e 1421 713e
00000140: 5ff9 adbb 7ba0 03be 1a09 f13e 583a 73be
00000150: 11d8 c4be 6a5a 09be a9d0 22be 09ff 20be
00000160: bf87 a33e b116 b4bd 7cff 1f3e 489c 1abe
00000170: 331d ec3e fa10 63be b8f8 21bf f59d 25bc
00000180: 5ad4 8b3a d622 883e 0bdf 33bf 34a7 65bd
00000190: 956f 2f3e c593 fcbe 3b99 63bf 2461 5c3e
000001a0: 385c 8fbd 413b ffbd 51ab e4be 5c1e d83e
000001b0: 9d35 5f3b 9f9e 44be 9bb7 67be 0212 5a3e
000001c0: 6381 a73e a608 26bd b59b 60be c5d7 973e
000001d0: de47 53be 858f 07bf e407 823c ae28 883e
000001e0: 7338 e4bd e0de 98be c644 83be fdd6 79bd
000001f0: 864a 863e f440 6e3e ceb7 2fbf 0e2f db3d
00000200: a7fb 283e 8937 453e 8d17 263e ad48 413e
00000210: 616d 83bd eb3c 05bf 0b55 b9bd 83cc be3e
00000220: c08b f7bd cc94 b43d f5f6 3b3e 6799 133f
00000230: c0a7 323d 6363 343e ae00 3b3f a886 18bf
00000240: 1697 f73d c6ff 68bd 99cf 74be ac5f 69bb
00000250: 28d8 64bd 1c63 71bf 4aa4 e8bd cb56 783e
00000260: da6b 8abe fcd7 30be b34a 873e f7c6 933e
00000270: e016 96be 4125 2e3f 8139 af3e 0236 b0be
00000280: 2b7c 153e 0690 b23e c1f8 f4bd c78a afbf
00000290: d78b bd3d d737 8ebd 9b92 d2be 133c 08bf
000002a0: 2c35 a7be 44ac 723e 3812 673e e7c8 0d40
000002b0: 1a48 c0be 9e33 91bb 751f 733e 8a3e fa3e
000002c0: 2e58 1cbc 2e1c d83c 91a7 313e cb6c 723e
000002d0: b9df 683e 73d2 27be 42d2 ef3e f7c2 dc3e
000002e0: 9ea9 11be e8d1 acbc c948 cdbc b980 3cbf
000002f0: 3a8a 453f b10a 2a3e 4a8f 5a3e cedf 803e
00000300: 8cce deba e2a4 8f3e 2727 46be 1e62 44bd
00000310: 6302 d8be b7df 11bf 5062 95be 7f69 8fbe
00000320: de8e bb3e b769 fd3d 3dda 7bbf b83e b9be
00000330: 264a 4dbe 4489 1dbe 596f cf3c 8ca1 ebbe
00000340: a332 49bf bb69 f9ba 72c1 88be 50e4 1fbc
00000350: f0f9 f13c 46f8 36be 4ffa c2bb 8781 a33e
00000360: 3819 793e bda8 0bbe 6720 983e ba50 8ebe
00000370: 2a16 413d c414 c0be 6c51 2fbf 1753 40bd
00000380: 7efc 6fbf dbf1 3b3e d23f f93e 6d4f 9e3c
00000390: aae1 ae3e b589 8b3e 1611 65bf 4f8f a13e
000003a0: c172 963e 579e 033f bde0 5bbe ae5f bcbe
000003b0: 4d9e 443e 8791 db3e cd12 c8bd 0e01 eabd
000003c0: 3608 26be 701c 893e 1648 153e 6ac5 d73d
000003d0: 186b 86be a7c3 3b3f 5276 abbd 7d38 6e3e
000003e0: dd27 16be a610 ae3e d6b3 0f3e 0715 0cbe
000003f0: 0493 023d bb8b c53e 0f18 5f3d bd5e f13d
-0.10694084 -0.17704616 0.13112332 0.22530097 0.22276846 0.70050883 0.6063865 -0.14932084
-0.0007881515 -0.13693707 0.8946607 0.5093228 0.08985568 -1.0877382 -0.3022089 -0.024018368
-0.035631727 0.2990822 0.46244863 -0.43469498 -0.22138652 0.17150493 0.0050659264 -0.20111312
-0.17804529 0.015583915 1.1011035 -0.6055034 0.25869235 0.0075479317 -0.4995283 0.04108885
0.20773323 0.45334828 -0.13671155 -0.2418523 -0.19050443 -0.47356206 -1.0302837 0.42610332
-0.47502202 0.12396646 0.59594136 -0.86367136 0.8316162 0.87645423 -0.4632805 -0.6408707
-0.102490604 0.3075628 0.24235249 0.020619947 -0.053666875 -0.24274495 0.15459488 0.2895202
0.010453825 0.0036821992 -0.5447683 -0.8927475 -0.017478194 0.02424782 0.010074158 0.20232624
0.41181144 0.38628426 -0.01877485 -0.27646932 0.6182998 -0.11784522 -0.7772368 -0.011117782
-0.64695567 0.42415833 0.22022438 -0.24610934 -0.09775824 -0.28885812 0.20910105 0.23547775
-0.0053092684 -0.12854187 0.47077256 -0.23752725 -0.38446096 -0.13413396 -0.1589991 -0.15722288
0.31939504 -0.087933905 0.15624803 -0.15098679 0.46116027 -0.22174445 -0.6327014 -0.010108461
0.0010668144 0.26589078 -0.7026221 -0.05606766 0.17132409 -0.4933149 -0.88905686 0.21521431
-0.07000011 -0.12462474 -0.44661954 0.42210662 0.0034059056 -0.19201134 -0.22628634 0.21295932
0.32715902 -0.04053559 -0.21934398 0.29656807 -0.20632884 -0.5295337 0.015872903 0.26593536
-0.11143579 -0.2985754 -0.25638407 -0.060996044 0.26228732 0.23266965 -0.6863984 0.10702334
0.16502248 0.19259466 0.16219921 0.1887538 -0.06417347 -0.5204608 -0.09049424 0.37265405
-0.12087202 0.08817443 0.18355925 0.5765595 0.04361701 0.17616038 0.7304791 -0.5958047
0.12089364 -0.05688455 -0.23907317 -0.0035610003 -0.055870205 -0.94291854 -0.11359461 0.24251859
-0.2703541 -0.17269892 0.26424178 0.28862736 -0.29314327 0.68025595 0.3422356 -0.34416205
0.14598148 0.34875506 -0.119615085 -1.3714226 0.09255188 -0.06944244 -0.41127476 -0.53216666
-0.32657754 0.23698527 0.22565544 2.215387 -0.3755501 -0.004431202 0.23742469 0.4887584
-0.009542508 0.026380625 0.17349078 0.23674314 0.22741593 -0.16388874 0.468401 0.43117496
-0.1422486 -0.021096185 -0.02505912 -0.73633915 0.7716404 0.16605641 0.21343723 0.2517075
-0.0016998812 0.28055483 -0.19350873 -0.047945134 -0.4218932 -0.56981987 -0.2917657 -0.28010175
0.36632437 0.12373679 -0.9837988 -0.36180663 -0.20047817 -0.15384394 0.02532165 -0.46021688
-0.7859289 -0.0019028703 -0.26710087 -0.009759024 0.029538125 -0.17868146 -0.0059502493 0.3193476
0.24326026 -0.13638587 0.2971222 -0.27795964 0.047140278 -0.37515843 -0.68483615 -0.04695424
-0.9374465 0.1835398 0.48681504 0.019324983 0.34156543 0.272535 -0.89479196 0.31554648
0.29384425 0.5141348 -0.2147245 -0.36791748 0.19201012 0.42884466 -0.09769211 -0.114259824
-0.1621407 0.2677951 0.1457828 0.105357006 -0.2625358 0.73345417 -0.08372177 0.23263736
-0.14663644 0.33997077 0.14033446 -0.13679896 0.031878486 0.38583168 0.054466303 0.11785648

layer1.bias f4 [128]
00000000: 8adf 29be fa6c a73e 01ed bb3e 9d0e d33a
00000010: fe34 803e 68d4 973e 810f fe3e 69b6 153a
00000020: 8a6d c93e a5f2 c1bc b2c1 a13e bf9c fdbe
00000030: bbdb eebe e8fd 1dbe ac4d 1fbe 6063 9a3e
00000040: ddc0 7fbd 0e06 07be a1b3 44bb 43f3 17be
00000050: 2b48 7e3e b011 da3d 7c40 613e 50a2 7e3c
00000060: 5aeb 2f3e 9a18 97bc 4354 af3c 2585 0bbf
00000070: a83b 893d ec38 ac3e 0704 c33e c533 c33e
00000080: 8aa8 26be c465 f13e 3510 133d 0489 cc3d
00000090: 29fc 28ba 8d21 dcbe 6c74 813d 8540 f23e
000000a0: d9de 133d e1da a2be 58c9 303e 84e2 5a3e
000000b0: 8f27 4fbb 18e5 46bd 1088 173e 2d01 f33d
000000c0: 3daa 6f3e fe49 853e 9678 aebe 1227 153e
000000d0: bfae 583d f152 de3c 798f 403e 25c9 69be
000000e0: db30 7c3e 9c01 0cbf 1fff 22be 302f b33e
000000f0: eb30 9f3e e91b df3e 2dcf e23e 0dca 8e3e
00000100: 6068 3fbe 91c5 9a3e af83 23be c34c 973e
00000110: 3f76 ad3e 3e45 a03e be5b 5e3e bc1b a4bd
00000120: 88c9 c13e 0271 f23e bad7 a83e 80d3 af3d
00000130: 9e31 8b3c 7f2a 973e 4270 dd3b d4be 8b3e
00000140: 4284 a3bd fb13 cc3e 28c3 b23e 96bb b8bb
00000150: 801b a0bc aa13 243e c4dd 243e 2b77 d1bc
00000160: c74a 933e 4b33 cc3e 51da 683e 12ce 073b
00000170: 8fc6 dfbe ecf7 ac3e 1786 143e 2c62 733e
00000180: 7fe7 9e3e 97c8 90be 629a d43e 16fd 0cbe
00000190: aedc 623e 977a 923d 6456 823e 09b4 443d
000001a0: 4bf3 f7bd 266d 953d eae2 8fbe 8ea5 973d
000001b0: b231 9abe 8d62 32bc 3d19 10be 31af 9ebe
000001c0: 60b1 943e 8e31 b2ba 41c5 af3e b8b4 d13e
000001d0: a118 9f3e a780 403e 99af 9b3e 10ae ac3e
000001e0: 95ab 9f3e a1f1 053e fe6b 5abd 43cd 013f
000001f0: 88d7 04be 0ef2 0b3e 5787 79be 1006 e2be
-0.1658918 0.3270033 0.36704257 0.0016102378 0.2504043 0.2965424 0.49621204 0.000571108
0.39341384 -0.023675272 0.3159309 -0.4953365 -0.46652016 -0.15428889 -0.15556973 0.30153942
-0.062439788 -0.13185903 -0.0030014294 -0.1483889 0.24832217 0.10647905 0.21997255 0.015541628
0.17179623 -0.018444348 0.021402484 -0.5450004 0.06700832 0.33637178 0.3808901 0.38125435
-0.1627523 0.47147954 0.035904128 0.09987071 -0.0006446266 -0.42994347 0.06321034 0.4731485
0.036101196 -0.31807616 0.17264307 0.21375471 -0.0031609272 -0.048558325 0.14797997 0.11865459
0.23404785 0.26033014 -0.34076375 0.14565685 0.052901026 0.027139159 0.1880473 -0.22830637
0.24628012 -0.54689956 -0.15917633 0.3499694 0.3109201 0.4357598 0.44298688 0.27888528
-0.1869216 0.30228856 -0.15968202 0.29550752 0.33879277 0.31302828 0.21714684 -0.080131024
0.3784907 0.47351843 0.32977086 0.08585262 0.016991433 0.2952461 0.006757767 0.27294028
-0.079842106 0.39858994 0.34914517 -0.0056375964 -0.019544363 0.16023126 0.16100222 -0.025569519
0.28767988 0.39882883 0.22739531 0.0020722193 -0.43706176 0.337829 0.14504276 0.23767918
0.31035993 -0.28278038 0.41524035 -0.1376842 0.22154495 0.071522884 0.25456536 0.048023257
-0.12106951 0.07296209 -0.2810281 0.07404624 -0.3011604 -0.010887754 -0.14072128 -0.30993035
0.29041576 -0.0013595091 0.3433018 0.4095819 0.31073478 0.18799077 0.30407408 0.3372655
0.31185594 0.13080455 -0.053325646 0.5070383 -0.12972844 0.13666555 -0.24368034 -0.4414525

layer2.weight f4 [128, 128]
00000000: 5fc7 b33d 3c8f 2fbe 97e2 12b7 d17d e0be
00000010: 8fe1 bebc c651 eebd a67e 0e3d 076c 123e
00000020: 407b 5ebd a220 3d3e 1f31 56bb 0c44 80be
00000030: aa5c 6dbd 259a 0abf a579 31bd d664 393e
00000040: 2836 803d 77b2 803e ffe6 143c de5a 61bc
00000050: 7562 95bd 2313 b8be 0f84 193e f7e5 973e
00000060: 5b8e 0dbd ee2d 833e 11f5 5b3c 36af 4dbd
00000070: 78d6 91bd 0cc6 893d 8ee8 1a3d 43b8 4f3c
00000080: bd30 febd c640 c33c 6d6a 6d3d 6fb2 febc
00000090: 77c4 c03c 4fe4 60bd bf43 13be 8ef3 f23d
000000a0: 400c 1f3d 8005 59be 8dac 27be b072 6cbe
000000b0: 9b58 eabc 4356 be3e 4e04 993d ac9c 1e3c
000000c0: a34f 213d 5b71 0f3e 679e c53d 42d2 a5be
000000d0: 188e bd3d ed24 87be ff4c eebd 6e3d 1fbe
000000e0: ce70 543e 46d5 31bf 2c33 e8be 9c9c 1fbd
000000f0: 185f 49be a7a9 e43d 2a9a 3b3d 38c6 503e
00000100: 89d7 62bc 1078 683e c514 09bf 2d83 d33d
00000110: 8475 963d 72dc 193e 09fb b4bd 6c1a b33e
00000120: 536b 80bd f039 033d 971c 493d 49a5 443e
00000130: 45b6 a8bd c607 a73c 8d57 993e 2cef 373e
00000140: 1ae9 ebbe 05c5 053e 0003 013e 3e9e de3c
00000150: 5c30 e8bd baa5 343d 1744 793d c6fa 43be
00000160: 6d23 96bd 8525 e33c b8c0 0bbe a04a 4d3e
00000170: 43bc f6be a195 f93c c1c6 313e 913c a03d
00000180: 5a9c 80be a01e a83e 842e 9f3d 1fcd 58bf
00000190: 2ca2 81bd 4eaf ef3e 941f 2a3e 999e 973e
000001a0: e503 ca3e 341c 893e 95de e1bd e96a 3fbb
000001b0: f222 a33e 3dea 62bf 87ea dfbe 5d2a 01bf
000001c0: bf25 e43c 2792 4a3e 0235 9d3c 2bd8 833d
000001d0: e128 183e 0599 c9be fc7a 283e 57cc 9a3d
000001e0: b96a a43b c9b5 c4bd e5cb 38be 72ee d9bc
000001f0: 51e1 f0be fe31 91bc 6cb1 303e 2151 42be
00000200: 1e13 dd3e 3816 10bf ee93 f83c d31e 98be
00000210: 8376 86bd c1ec b73e b515 ba3b f228 31bf
00000220: 6714 c33d 28c7 41be 4fef c7be e61b dd3e
00000230: fe48 95be 3d9a be3e 06d5 723d 4ffd 843d
00000240: a648 693d 9e85 30bf a616 28be b81d 093f
00000250: d642 143e 7ed4 703d 16f2 313e e5fb 67be
00000260: 30e4 9dbe adc8 89bf 9eb2 a53e 2f3d 693e
00000270: 688d b6be 737f ea3d 7307 6dbd 5c08 1ebd
00000280: 949a f93e 36bc 843e bd2a 0cbe 26fd 023e
00000290: e19b a6be 02b7 9e3e f280 063f 7ffb 223e
000002a0: cdf5 123e 68b4 ab3e 7757 7e3e 466b 463e
000002b0: d664 acbe 019a d0be 2702 61be a972 09bd
000002c0: a22b a9bd b82e c33e 660b c03d 32a9 c63e
000002d0: 87d5 8dbe 4fee 1e3f af58 a93d b1b6 653e
000002e0: 0b4e 913d d832 82bf b4bc 05be abaa b23b
000002f0: 744d e03d 6650 913d e06d 993c cd14 b23e
00000300: dad7 193e 3470 a83e 3f04 133f bba9 1cbd
00000310: af93 733d 2589 be3d 4314 193e 9339 ee3d
00000320: 2227 953d 2527 fe3d 116c 2e3e fa68 febe
00000330: ed1d 10be f3b9 0ebe 2f86 69bd a1e9 883d
00000340: c0f5 9f3d 29bd 2dbe 5081 a13e 8d0b 943e
00000350: a472 e2bd 2ee8 463e 970a be3c 2604 ed3e
00000360: 5e28 943e 6e64 c3bd c4b9 ca3d 3e33 30c0
00000370: 9c98 053f baf9 333c 6c42 473d 7684 123e
00000380: 413a f7be 5157 8c3e 8e0a 583e 02c7 2ebe
00000390: 3035 933c 9e0c 1dbf 2fcd 1b3e d9a8 773e
000003a0: 3058 2ebf 2568 c6be f66d c73e c126 57be
000003b0: 4e64 3e3e deb6 203e 0b89 4cbd d965 ba3e
000003c0: 2d28 6dbc 21c6 fabd 8b80 a5bd c834 9f3c
000003d0: d260 f83d 6528 0b3e d7a5 babe 4e31 c9bd
000003e0: 3a93 b23d 3666 a1bd 4b49 033e 9fab c23d
000003f0: cac9 343e 6617 55be 3f48 893e fd33 bd3e
0.087782614 -0.17144483 -8.755035e-06 -0.4384599 -0.023300914 -0.11636691 0.03478875 0.14299022
-0.05431676 0.1846948 -0.0032683087 -0.25051916 -0.0579497 -0.54141456 -0.0433289 0.18104872
0.062603295 0.25136158 0.009088277 -0.013754575 -0.0729417 -0.359521 0.14991783 0.29667637
-0.03455959 0.2562098 0.013425128 -0.050215922 -0.07120985 0.067272276 0.037819438 0.012678209
-0.1241164 0.023834597 0.057962824 -0.031090943 0.023531182 -0.054905232 -0.14381312 0.118628606
0.038830042 -0.21193504 -0.16374417 -0.23090625 -0.028606704 0.37175187 0.07471524 0.009680908
0.039382588 0.14008085 0.096493535 -0.32386976 0.09255618 -0.2639536 -0.116357796 -0.15550777
0.20746157 -0.69466054 -0.4535154 -0.038967714 -0.19665182 0.11165171 0.04580132 0.20388114
-0.013845333 0.2270205 -0.53547317 0.10327754 0.07346633 0.150255 -0.08836944 0.34981096
-0.062704705 0.032037675 0.04909953 0.19203676 -0.0823789 0.020389449 0.29949608 0.1796233
-0.4607628 0.13063438 0.125988 0.027175065 -0.11337349 0.04410336 0.06085595 -0.19138631
-0.07330976 0.027727852 -0.13647735 0.20047998 -0.48190507 0.030466856 0.17360975 0.07824052
-0.25119287 0.32835865 0.07772544 -0.8468799 -0.0632976 0.46813434 0.16613609 0.29613188
0.39456096 0.2677933 -0.11028782 -0.002920801 0.318626 -0.8863867 -0.43733618 -0.50455266
0.02785003 0.19782315 0.019190315 0.06437715 0.14859344 -0.39374557 0.16453165 0.07558506
0.005017605 -0.09604985 -0.1804653 -0.026602957 -0.47046903 -0.017724033 0.17255181 -0.1897626
0.43178648 -0.56283903 0.030343976 -0.29711017 -0.06565573 0.35922816 0.005678857 -0.692031
0.09525376 -0.18923628 -0.39049765 0.43185347 -0.2915725 0.3722705 0.059285186 0.06493627
0.05695405 -0.68953884 -0.1641489 0.5356097 0.14478621 0.0587964 0.17377505 -0.22654684
-0.30838156 -1.0764366 0.32362837 0.22777246 -0.3565476 0.1145009 -0.057868432 -0.03858219
0.48750746 0.25924844 -0.13688178 0.12791881 -0.325408 0.30999 0.52540505 0.1591625
0.14351578 0.33536077 0.24838053 0.19376859 -0.33670682 -0.40742496 -0.21973477 -0.033556614
-0.082602754 0.3812158 0.09377174 0.3880096 -0.2770197 0.6208238 0.08268868 0.22432972
0.07094964 -1.0171766 -0.13060266 0.005452474 0.10952273 0.07095413 0.01872915 0.34781495
0.15023747 0.32898104 0.57428354 -0.038247805 0.059467014 0.09303502 0.14949135 0.11632075
0.072828546 0.1240981 0.17033412 -0.49689466 -0.14073916 -0.13938121 -0.057012733 0.06685186
0.07810545 -0.1696669 0.3154397 0.28915063 -0.11057022 0.19424507 0.023198409 0.46292228
0.28937048 -0.0954064 0.09898713 -2.7531276 0.5218599 0.010984832 0.04864733 0.14308342
-0.48286632 0.27410367 0.21097776 -0.17068103 0.017969698 -0.6134738 0.1521499 0.24185504
-0.68103313 -0.3875133 0.3895108 -0.21010877 0.1859295 0.15694758 -0.04993538 0.3640583
-0.014474911 -0.12244821 -0.08081158 0.019434348 0.12127842 0.13589628 -0.3645465 -0.09823857
0.087194875 -0.07880823 0.12820928 0.095053904 0.17655101 -0.20809707 0.26812932 0.36953726

layer2.bias f4 [128]
00000000: 25bb c13d 0a5f 6d3d 1bbb 7d3c b992 f23d
00000010: f841 5c3d 9f96 6a3e aa10 4b3e 570f 50be
00000020: 2850 41b9 2398 c9bd 566b 1d3e 388a 16bd
00000030: 01d6 1b3d 1298 b43b acc2 623e 8474 87bd
00000040: ac3d 313e 9e23 0d3d 6c1a 2fbd 8b8d a93d
00000050: fc37 e73d f7a7 803e 0474 2d3e 9892 323e
00000060: 6bc0 353e 024b 163e 88f2 c23d 921a 623c
00000070: 5ee4 83bd 037c a9bd 5f7e 48bb dcd7 7c3e
00000080: 50d1 b1bd feed 943e 22b6 933d 3cff 123d
00000090: 872d 8a3e 96e5 1dbd 3cf5 023d 405d 843d
000000a0: 9b47 683e 950d 47bb 2c3b ff3d 0f73 83bd
000000b0: b185 4e3d 8bcb 3d3e cfea ee3d 11b2 d53c
000000c0: 1ca6 073e 39d2 cc3d 7fe6 253e c66c 803d
000000d0: 9332 1a3e 97cf 1e3d 0d97 853e 4439 04bd
000000e0: 9f31 da39 2653 ef3d 2cf0 c73c 0cda b03c
000000f0: a376 c9bc 3fcb ef3d 342b 913d 11e0 a13d
00000100: bab6 a3bd cea7 283e 8a32 883c dc87 1f3d
00000110: 21d8 473d 4cdf 953d 9e0c 47bd 5588 2abd
00000120: 8043 54bd 50fb 13bd 927d 9f3c 781c 763e
00000130: aa0d 703e adbf 113c 1d1d 0dbe 7ab7 143e
00000140: 4a61 c23d 5683 3c3d 947c e43d 5a17 f53d
00000150: e775 0a3d b9c0 4cbd 70e3 343d be39 c0bd
00000160: 5200 3abd 4fcc 613d 6f55 3fbd 9506 573e
00000170: c484 793e dd48 bcbc 6f36 ea3d 78fe 02bd
00000180: 0372 f5bc bb06 9b3e ed07 e53d aa56 3bbd
00000190: 085a c33d fc7f af3d de75 47bd 1b19 903d
000001a0: 2a46 24bd 3f5c 843b 818c 4bbd b6b6 26bc
000001b0: c437 373b ced6 52bd c851 6abd 1d62 ecbc
000001c0: 4ca6 503e e2c5 373c 4f3b d6bc 98b0 93bc
000001d0: fe0f b93d 5d9c 6abd cabe 38bd 81df 793e
000001e0: ee10 a53d 031a cf3c e63d fcbc 53ac d53d
000001f0: 5e50 b1bc 2351 a4bd 55a8 893d 3a49 1a3e
0.09459523 0.057951964 0.015486504 0.118443914 0.05377385 0.2290902 0.19830576 -0.20318352
-0.00018435775 -0.09843471 0.15372977 -0.03675291 0.038045887 0.0055112923 0.22144574 -0.066140205
0.17308682 0.034457795 -0.042749807 0.0827895 0.11289975 0.25128147 0.16938788 0.17438734
0.17749183 0.1467705 0.095189154 0.01380028 -0.06440042 -0.082756065 -0.0030592901 0.24691719
-0.08682501 0.29087824 0.072124735 0.03588794 0.2698786 -0.03854903 0.031972155 0.064630985
0.22683565 -0.0030373086 0.12462458 -0.0641843 0.050420467 0.18534677 0.1166588 0.026085885
0.1324696 0.10001034 0.16201209 0.06270747 0.15058355 0.03877219 0.26091805 -0.032281175
0.0004161717 0.11685781 0.024406515 0.021588348 -0.024592703 0.11708688 0.070883185 0.079040654
-0.07993837 0.16470262 0.016625661 0.038947925 0.0487901 0.07317981 -0.048596017 -0.041633923
-0.051822186 -0.036128342 0.019469056 0.24034297 0.23442712 0.008895797 -0.13780637 0.14523116
0.09491213 0.04602369 0.11156574 0.119673446 0.033803847 -0.049988482 0.044162214 -0.093860134
-0.04541046 0.055126484 -0.046712335 0.20998605 0.24367052 -0.022983963 0.11436164 -0.03198096
-0.029961592 0.30278572 0.11183152 -0.045736946 0.095386565 0.08569333 -0.04869639 0.070360385
-0.040105976 0.004039317 -0.04969454 -0.010175398 0.0027956823 -0.051474385 -0.0572069 -0.028855378
0.20375937 0.0112166125 -0.026151327 -0.018028542 0.090362534 -0.057278026 -0.045103826 0.24401666
0.0805987 0.025280958 -0.030791234 0.10433259 -0.021644767 -0.08023288 0.0672156 0.15066996

layer3.weight f4 [4, 128]
00000000: cf6d 0fbe 3eee 2cbf 74d2 f6be 4b28 3bbe
00000010: 9725 1abf cfc1 e33e f0bd 4d3f 4bef a0bf
00000020: a3cb 663f 344c 3dbf c986 343f 8192 d9be
00000030: 79eb f5be 737d 1b3d ae58 ac3e ee50 abbe
00000040: b90d 9f3e 61ba 623f f17d 0f3d 5a5a 003f
00000050: 851c 283f 5bf1 843e 1367 b73e 0750 e03e
00000060: aa3d 103f bd1e ff3e c87c d3be 226c 30bf
00000070: 4e65 bebe e94d cebe fc51 e1be b927 3e3f
00000080: b234 26bf 2cbd d13e 6e29 8c3f fa4c b3be
00000090: 0b87 ab3e cbed dbbe c324 fcbe 4431 093f
000000a0: 2450 8a3e c6c7 d9be 62b4 533f fda0 91be
000000b0: 39ca ae3e c064 903e 81f7 013f f340 e9be
000000c0: e09f 233f a43b f1be 956c 9b3e a9d0 60bf
000000d0: 260a b13e 43bb 3d3f 2b71 563e 6d9c 95be
000000e0: f973 28bf 801f 973e 3633 a2be f257 79be
000000f0: 6b7b a1be bdd6 b03e 4dc1 b03c 3ccf 483f
00000100: 7821 19bf ef72 343f d5f1 063c 0312 07bf
00000110: 00a2 2fbf f202 dabe 6f5e 21bf 7769 cebe
00000120: de29 3abf b55b a8be b522 01bf 9465 0f3f
00000130: dece c53e 1a74 3bbd cfc4 79bf d51f 853e
00000140: a794 ed3d 2093 c1be ef41 223f 5518 f93e
00000150: 5e69 53be 6d60 3ebf accc f73e 9c55 5bbf
00000160: 6c77 11bf 7e0d 0a3f 12bc 07bd f41b 923e
00000170: 117c bb3e f3ff c23e b102 363e a1cf c8be
00000180: 2149 343f 1a1a cb3e a457 e03e c322 ad3c
00000190: 6194 dcbe 3558 df3e f349 e4be e7d9 edbb
000001a0: c4b9 2abf c27d 8b3c 5d78 12bf dc39 5cbc
000001b0: 1e21 c63b 4f91 10bd 0fef 763c 3e1f 403d
000001c0: bdc1 2c3f 9722 423e 3759 27bf 1c39 c6be
000001d0: bf03 16bf 4bcb 1abf fa5b 733c 6964 ad3e
000001e0: 12ec dbbe 9b36 01bf e795 9bbe 1e94 cc3e
000001f0: d10f 2abf 0639 23bf 4613 a13e 8cfd 733f
00000200: e0c8 00bf 2d67 5ebf c383 13bf 170d 1d3d
00000210: a69e 00bf 4411 ad3e 91a7 9f3f 31fb 7dbf
00000220: 9289 723f bbe7 52bf fd1c 6b3f 0654 b7be
00000230: b72b cbbe 32a7 b2bc 4b07 b43e c4c3 c0be
00000240: dbcf c13e 60a6 c03e 2ae0 183c 7e82 e73e
00000250: 2780 e63e bd1b cc3e 760d bf3e 29d9 633e
00000260: 9ed3 3a3f 1ede 1d3f 80fe bdbe 3e94 2ebf
00000270: 6aa9 e2be a726 b4be 7384 11bf b239 4d3f
00000280: f492 3ebf 8a73 a63e 3b8f 733f a0fe d7be
00000290: 2ee6 853e 79b4 d0be 2db0 b1be 05c0 e93e
000002a0: 03a0 883e 6e56 e7be 60a9 463f f434 6bbf
000002b0: c63a 703e 06cb e13e d600 0e3f 2150 a9be
000002c0: f017 1d3f 6833 03bf 7110 913e 695a 57bf
000002d0: 79e2 e23e bb31 333f 1f0e dd3d 64f2 91be
000002e0: f33f e7be e8f1 f53e 63b1 dfbe 4f93 a8be
000002f0: 30a5 98be 85ad fc3d 938b b03f 951a 2a3f
00000300: afdf f2be 90c9 203f 250f 823c 3b9d 0bbf
00000310: 3055 23bf 6608 11bf 3d67 09bf 265a 01bf
00000320: 6796 1fbf 3e78 d1be 3123 a2be 1fa5 ff3e
00000330: 8144 d53e fb4d e73b 0f49 63bf 3378 c83e
00000340: 7dbc 923e 8e9d f7be 5910 0c3f 6c26 673e
00000350: bc9d d4be 6a31 3cbf cbab 183f 89d3 60bf
00000360: 124d fabe ce53 e53e ab7e 18bd 0805 a23e
00000370: 5986 6c3e afa9 193e 599a e63d a2ab bcbe
00000380: 0ac5 143f 60e5 b73e 2920 ca3e 1c6c 29bc
00000390: 2d81 09bf 66ef e43e 6b05 f4be 3283 373f
000003a0: d7c0 3cbf 35ca 76bc 3525 cdbe c793 103d
000003b0: b948 273c 3220 003d 7d7e a3bc bd64 193d
000003c0: 1980 1f3f 3869 9c3e c486 16bf 9cf2 ffbe
000003d0: e119 74be c1eb 6cbf 78d2 0c3b a332 b83e
000003e0: 76a8 a6be 9b4b bebe def1 6dbf c17c 983e
000003f0: 537c 57bf 0266 2ebf a39d e03e 00a9 613f
-0.14006732 -0.6755103 -0.48207438 -0.1827709 -0.6021361 0.44483802 0.80367947 -1.2573026
0.90154475 -0.739444 0.70518166 -0.42494586 -0.48031214 0.037961435 0.33661407 -0.33460182
0.31065157 0.8856564 0.035032216 0.50137866 0.6566852 0.2596539 0.35820827 0.43811056
0.5634409 0.4982814 -0.41306138 -0.68915 -0.37186664 -0.40293816 -0.44007862 0.7427936
-0.64924157 0.4096464 1.0950143 -0.35019666 0.33501467 -0.4295486 -0.49246797 0.535908
0.27014267 -0.42535228 0.8269712 -0.28443137 0.3413866 0.28201866 0.50768286 -0.45557365
0.63915825 -0.47115815 0.3035628 -0.8781839 0.34578055 0.74113864 0.20941608 -0.29220906
-0.6580196 0.2951622 -0.31679696 -0.24349955 -0.31539473 0.34538832 0.021576548 0.78441215
-0.59816694 0.70487875 0.008236368 -0.5276186 -0.6860657 -0.42580372 -0.6303472 -0.40314838
-0.72720134 -0.32882467 -0.50443584 0.5601437 0.3863439 -0.04576502 -0.9756593 0.26000848
0.11600619 -0.3780756 0.63381857 0.48651376 -0.20645663 -0.74365884 0.4839834 -0.85677505
-0.5682285 0.5392684 -0.033138342 0.28536952 0.36618093 0.380859 0.17774464 -0.39220908
0.70424086 0.3966835 0.43816864 0.02113474 -0.43081954 0.43621984 -0.4458767 -0.007258642
-0.66689706 0.01702774 -0.5721491 -0.013441529 0.0060464283 -0.035294827 0.015071644 0.046904795
0.6748312 0.18958507 -0.65370506 -0.38715446 -0.58599466 -0.6046645 0.014853472 0.3386567
-0.42953545 -0.50473946 -0.30387804 0.39956754 -0.66430384 -0.63758886 0.31460017 0.95308757
-0.5030651 -0.86876184 -0.5762293 0.03834256 -0.5024208 0.33802235 1.2473012 -0.9921141
0.94741166 -0.8238484 0.9184111 -0.35806292 -0.3968179 -0.02180824 0.35161814 -0.37649357
0.37853894 0.37626934 0.009330789 0.45216745 0.45019647 0.39864913 0.37314957 0.22250809
0.7297915 0.6166705 -0.3710823 -0.6819495 -0.44269878 -0.3518574 -0.56842726 0.8016616
-0.7444298 0.32510024 0.9514043 -0.4218645 0.26152176 -0.4076269 -0.34704724 0.45654312
0.2668458 -0.45183128 0.77602196 -0.91877675 0.2345992 0.44100207 0.55470026 -0.33068946
0.6136465 -0.51250315 0.28332856 -0.8412233 0.4431341 0.6999776 0.10793709 -0.28505242
-0.45165977 0.48036122 -0.43690023 -0.32924888 -0.29813528 0.12337784 1.3792595 0.6644681
-0.47436282 0.6280756 0.015876362 -0.5453679 -0.6380186 -0.5665344 -0.53673154 -0.5052818
-0.6233887 -0.4091205 -0.31667474 0.49930665 0.41653827 0.0070588565 -0.88783354 0.39154205
0.2865943 -0.48362392 0.54712445 0.2257325 -0.41526592 -0.735129 0.59637135 -0.8782278
-0.48886925 0.447905 -0.037230175 0.31644464 0.23098125 0.15006135 0.11259908 -0.36849695
0.5811316 0.35917187 0.3947766 -0.010340717 -0.5371273 0.44713897 -0.47660384 0.71684563
-0.7373175 -0.015062858 -0.4006745 0.03529718 0.0102102095 0.031280704 -0.019957775 0.037449587
0.62304837 0.30549026 -0.58799386 -0.49989784 -0.23837997 -0.9254723 0.0021487754 0.35976133
-0.325504 -0.37167057 -0.92947185 0.2978268 -0.8417408 -0.681244 0.43870267 0.881485

layer3.bias f4 [4]
00000000: ef4c 5a3d 5876 763d 9022 563e 633a 103e
0.053296026 0.060171455 0.20911622 0.14084773
