models/imitation_model.pth (torch, 75480 bytes, 6 tensors)

layer1.weight f4 [128, 8]
00000000: 1c67 1f3e ad77 fdbd fb20 a83c 6d58 1040
00000010: 2e12 3e3e e250 57be 362d fc3d 4091 653e
00000020: 27d4 743e 1fbc e83d 23e1 8a3d da04 d3be
00000030: dff4 133e ee3e 6f3e 3180 47be 6b55 b8bb
00000040: 8033 95be d55a 89be 709e e73e 13d8 f23e
00000050: 5208 ef3d ada3 253f 4815 2d3e a755 6b3e
00000060: d250 d3be 5b8f 973e b56a 343e 8169 0bbf
00000070: dcb0 a5bb 25dc 3b3f d698 be3e 3bfc 08bf
00000080: b3bd 923e d4ec 0d3e 4b92 153f 136a 08bf
00000090: b87a 1b3f ae7c 5b3f 9254 1dbe 1927 943e
000000a0: 0294 f13e 161b 963e 4907 31bf d12f 783e
000000b0: 99f8 4d3e 8b52 82bd 7784 893e 41a7 c73d
000000c0: 191d 8c3e 9073 a73e 5d8e f3be 9a55 19be
000000d0: 560c 0b3e aa60 b9be e0c8 9d3e d416 9a3d
000000e0: 7599 043e 1b6c 383e 2e18 97be 64d0 b43e
000000f0: a2e3 dc3e a399 33bf 294b 723c 4477 a0be
00000100: b86d 90be 524e 2cbd c7a3 04bf 3efa 993f
00000110: 26d1 493e a2ad 5bbe 0127 17be 5c6a 80be
00000120: 06bf 77be fc83 82be 1fca 4ebe 2e05 d13d
00000130: e432 78bd 8f82 53be 07b1 853c 02f0 2abb
00000140: 409c 473e 0e92 37be dd28 61be 7ed0 fcbd
00000150: d818 bd3e 206a 1b3f d321 28be 0dbe 9c3c
00000160: 48a6 c5bd 9e44 af3d 8085 563e b0b2 c83e
00000170: ebc5 afbe 84d3 1c3f 3707 cfbd 795d bcbe
00000180: c877 b43e 61eb a03e fbaa 8bbe 391a 443d
00000190: 4560 783d 0f24 03be c53c 793e 25fa 5b3e
000001a0: 3c38 0dbe 0241 983e 8de8 15bd 279b 52be
000001b0: c682 33bb f702 d33d 6e6b 173e ab75 e83d
000001c0: d6a6 7dbe 8d3e 613e c234 083f 574e 483e
000001d0: e140 32bf d2d3 4abe 1ba6 f73d fbe9 fbbd
000001e0: d8de eebe 94e8 c6bc 768e 2f3e 0ebf 63be
000001f0: 7ed6 633e fbe7 3a3f 97c6 c03d 057a 893e
00000200: f8a6 4d3e 1023 953e 4e70 373e 4adb 7dbe
00000210: 5d4d 76be 78e8 cd3e 9fe0 a0be dff8 c33b
00000220: 9b52 8ebe 89fe ac3e 72a8 08bf 30df 753d
00000230: 3e22 393e 4a2f 263e fd9e 24be d387 3b3e
00000240: efce 34be 818b 623e 6a02 f73e 7e82 6f3e
00000250: b14d 90be 119e 50be 0c22 973d fbdc 97be
00000260: 936a 0e3f 7c3c a5be 8704 bbbd 1dc6 e1bd
00000270: c4e8 003f f2f2 0e3f 990a e0bd 74d0 5c3e
00000280: 5610 013e 74b3 49bd 8d8b b23d cbff b8bd
00000290: a21c 80be 4aa3 513e 22bf 883c 0d07 09bd
000002a0: 1fb0 fb3e 7515 68bd 5e97 573e ed36 ddbe
000002b0: 42ca d8be b162 ffbe 5ba0 1dba 124f 36be
000002c0: 6c6c b93e ffcd 0dbe a610 04bf 98dc 01be
000002d0: d1f5 003f c12b bcbe e9ff 5b3e e20f 4a3d
000002e0: 103c 99be 4f47 c43e d3aa 8e3e 5250 9b3e
000002f0: 67dd 71be 82bc 793d 78b5 01bd f269 74be
00000300: aa68 8ebe 1ce3 26bf fe65 453f de3e ed3e
00000310: fcb1 f93c 73ef 01be 1416 203d fd44 743e
00000320: 9e30 8dbe 160d 583e a419 853e a011 b0bd
00000330: ce35 2cbf 9ac4 4ebf a40e 733e a748 b7bd
00000340: ca13 a93c c64e 2fbe a738 31be b170 c23f
00000350: bba6 623e 98c7 013e 19be 863e 84e7 b93d
00000360: 00e7 15be d27b 7abe 01d3 d3be 5577 4c3e
00000370: b869 9cbe 2c68 66bd de5d 97be d713 95be
00000380: e0f4 cbbe 15bf 9b3e 1b84 f73e e730 e0be
00000390: caf2 523e 4da0 5b3f a9e1 ffbe 27b0 b03e
000003a0: 3fb6 6abe f8cd dc3d afe6 9d3d 3ba4 c53e
000003b0: 38c4 16be e61d e8be 12bb a93d fe41 f83d
000003c0: 524d e83e 7e9b 86be f623 07be e252 dbbe
000003d0: 27ef 96be a51e d33d c39e 313d 7f53 debc
000003e0: 9b43 bc3c 91ac 2bbf 7ef0 65bd f9b5 6b3e
000003f0: b47e 233c 5628 f33c 7717 243e e9ae 883e
0.15566677 -0.12376342 0.020523539 2.255397 0.18561623 -0.21026948 0.12313311 0.2241869
0.23909055 0.11364006 0.06781223 -0.4121464 0.1444888 0.2336385 -0.19482495 -0.005625417
-0.29140854 -0.26827112 0.45238066 0.47430477 0.11671509 0.64702874 0.1690265 0.22981893
-0.41272599 0.2960156 0.1761883 -0.5445786 -0.0050564837 0.7338279 0.3722598 -0.53509873
0.28660354 0.13859874 0.5842635 -0.53286856 0.6073413 0.8573712 -0.15364292 0.2893608
0.47183233 0.2931754 -0.6915174 0.2423699 0.20114364 -0.063634 0.26858875 0.09748698
0.2736595 0.32705355 -0.47569552 -0.1497406 0.13578925 -0.3620656 0.30817318 0.07523885
0.12949164 0.18009989 -0.29510635 0.3531524 0.4314242 -0.70156306 0.014788427 -0.31340992
-0.2820871 -0.04206688 -0.51812404 1.2029493 0.1970869 -0.21452954 -0.14760973 -0.25081146
-0.24193963 -0.2549132 -0.2019429 0.10206066 -0.060595408 -0.20655273 0.016319765 -0.0026082997
0.19493198 -0.17926809 -0.21988244 -0.12344454 0.36933017 0.6070881 -0.16419153 0.019133592
-0.09650856 0.085580096 0.20949364 0.39198828 -0.34330687 0.6126025 -0.10108798 -0.36790064
0.35247636 0.3142958 -0.27278885 0.04787657 0.060638685 -0.12806724 0.24339588 0.21482141
-0.13790983 0.29737097 -0.03659873 -0.20566998 -0.002739118 0.103033 0.14787075 0.113505684
-0.24770674 0.21996517 0.532055 0.19561134 -0.6963025 -0.19807366 0.12092229 -0.123004876
-0.4665439 -0.024280824 0.17144188 -0.2224085 0.22249791 0.73010224 0.09412878 0.26850906
0.20083225 0.29128313 0.17913935 -0.24790683 -0.24052949 0.40216422 -0.31421372 0.0059805955
-0.27797398 0.33787945 -0.5338203 0.0600273 0.18079469 0.16228977 -0.16076274 0.18313532
-0.17657064 0.22123529 0.4824403 0.23389623 -0.28184274 -0.20372798 0.07379541 -0.29660782
0.5563137 -0.32272708 -0.09131723 -0.11024115 0.5035517 0.55839455 -0.10939521 0.21563894
0.12603888 -0.049243405 0.087180234 -0.09033164 -0.25021845 0.20472446 0.016692702 -0.03345399
0.49157807 -0.056661088 0.21053836 -0.43205968 -0.4234181 -0.49879983 -0.00060129695 -0.178036
0.36215532 -0.13848113 -0.51587903 -0.12681806 0.50375086 -0.36752132 0.2148434 0.049331553
-0.29928637 0.38335654 0.27864704 0.30334717 -0.23619615 0.06097079 -0.031667203 -0.2386854
-0.27814227 -0.6519029 0.7710875 0.46337026 0.030480377 -0.12688999 0.039083555 0.23854442
-0.27576154 0.21098742 0.25996125 -0.08597112 -0.672696 -0.8076874 0.23736054 -0.08949404
0.020639319 -0.17119893 -0.17306767 1.5190641 0.22133915 0.12673795 0.26316908 0.09077361
-0.14638901 -0.24461296 -0.4137192 0.19967397 -0.30549407 -0.05625169 -0.29563802 -0.291167
-0.39835262 0.30419222 0.48342976 -0.4378731 0.20600429 0.85791475 -0.49976853 0.34509394
-0.22921084 0.10781473 0.07710015 0.3860186 -0.14723289 -0.4533531 0.08287634 0.12121962
0.4537149 -0.26290506 -0.13197312 -0.42836672 -0.29479334 0.10308579 0.043364298 -0.027139423
0.022981456 -0.6706019 -0.056137554 0.23018636 0.009978939 0.02968232 0.16024576 0.26695946

layer1.bias f4 [128]
00000000: 7155 563d 7d31 293e 54d2 3f3e 143c f0bd
00000010: 9f5c 88be b7cc 52be dace 81be 033e 26bd
00000020: 973b bc3d fcc3 6fbe 516b d93d f667 803d
00000030: 3f52 ecbd 1861 6dbd d9c5 c13d 3285 9a3e
00000040: 486b 89be 7244 323e 1e5a 94be 585b 123e
00000050: c0bb 8d3d 80c0 4b3e d5e7 70bd ed07 b4be
00000060: d129 3ebe b39b 783e 1cf1 b23d 1e6b 023e
00000070: 401f 0cbe e18d 843e 99ca 9b3d 596f 2ebe
00000080: 1a32 7ebe 50ae 1bbe 6105 a63e 1cf3 283e
00000090: f84b 87be 9943 943d f04b febd bfc5 f9bd
000000a0: 37d5 6a3e f7da 513d f139 393e 5502 bb3d
000000b0: 57ae 893d 01f2 04bc 1907 7dbe 1e1e 783e
000000c0: 9ae9 093e 3e59 eebc 0596 a13e d9e8 adbd
000000d0: c9fd 9b3e 2891 463e 2f9f 05be 46ec 00bd
000000e0: 0618 3e3e 7747 febd 041a 63be dac6 223e
000000f0: 0037 a13d 5883 933d 4bb4 6c3e 6993 a3be
00000100: e47e b63d 0c6d ef3c 85a8 2dbe 5029 913d
00000110: 37b0 2e3e 8028 da3d 2da9 99be f1ab b73d
00000120: a340 6d3d a938 9cbe 4b7e 89bd 3d1b 92be
00000130: e98c 16be 419e 873e 8d05 993e f1da 2bbe
00000140: 7d34 f0bc 8c36 02be 8091 9e3d 1ee9 8cbe
00000150: 9578 383d b67a b1bd 9647 d33d ff94 c13c
00000160: 9423 9e3d 8d2c 03be 886a 893e 8dc8 563e
00000170: ab6d 58bd 8e41 81bd ad71 bc3d d889 433e
00000180: 6d7c 87bd 1b53 11be dd80 983e 030c 473e
00000190: 5fc2 d43d e4b9 a3be b7e9 edbc 43ce 533e
000001a0: 3e10 6ebe aff0 babd 69c6 45be 3648 433e
000001b0: 11e3 0cbe cefc 72bd 5bfc 3a3d 0aed 9a3d
000001c0: 475c 483e 9f73 6b3e 511b 983d ee99 9cbd
000001d0: fb68 253e 83db 0fbe e594 8a3e bea9 c5bd
000001e0: 1c8a 2e3e 33b0 6c3e 2920 afbe 7d8d 4d3e
000001f0: f91b 9a3e 79cc 88be 07fc 90be 52e7 86be
0.052327577 0.16522785 0.18732578 -0.11730209 -0.26633164 -0.20585905 -0.25353128 -0.040586483
0.09191053 -0.23414606 0.10616172 0.06269829 -0.11539125 -0.057953924 0.094615646 0.30179745
-0.26839662 0.17408922 -0.28975004 0.14292657 0.06920576 0.19897652 -0.058814842 -0.35162297
-0.18570639 0.24278145 0.08737394 0.12736174 -0.13683796 0.25889495 0.07607002 -0.17034663
-0.248238 -0.15203214 0.3242598 0.16498989 -0.26425147 0.07239456 -0.12416828 -0.1219592
0.22932898 0.05123421 0.18088509 0.09131304 0.06722706 -0.008114339 -0.24709739 0.24230239
0.13468018 -0.029095288 0.31559768 -0.08491678 0.3046706 0.1939131 -0.13049005 -0.031475328
0.18563852 -0.124159746 -0.22177893 0.15896168 0.078718185 0.07202786 0.23115651 -0.31948403
0.08910921 0.029226802 -0.16958816 0.07087958 0.17059408 0.10652256 -0.30011883 0.08968342
0.05792297 -0.30511978 -0.067135416 -0.28536406 -0.1470219 0.26487926 0.29887047 -0.16782738
-0.029321903 -0.1271612 0.07742596 -0.27521604 0.04503687 -0.086659834 0.10316388 0.023630617
0.0772163 -0.12809964 0.2683909 0.20974942 -0.052838963 -0.06311332 0.092013694 0.19095552
-0.06615529 -0.14191858 0.29785815 0.19438176 0.10388636 -0.3197776 -0.029042108 0.20684151
-0.23248383 -0.09127938 -0.19313969 0.19070515 -0.13758494 -0.059323125 0.04565082 0.07564743
0.19566451 0.22993325 0.07427085 -0.07646547 0.16153328 -0.14048581 0.27066723 -0.096515164
0.17044872 0.2311409 -0.34204224 0.20073505 0.30099466 -0.267185 -0.28317282 -0.26348358

layer2.weight f4 [128, 128]
00000000: f1dd 92bd f8e4 4cbd 11f3 1fbe 88ff d83d
00000010: f43e a33e 56fb 303d 9c03 303d b2f7 b53d
00000020: 4973 1cbd 092f 673d a553 d8bc 197d cfbe
00000030: 7bc9 adbc e111 893d 0c65 0bbe 0100 ef3c
00000040: ab0a ddbd 8fda 033b 5055 24be b517 da3d
00000050: a993 893c 833e a33d 3023 e83c e966 b3be
00000060: 3c85 2d3d 0974 c33c f3a0 63bd c32c 00bd
00000070: 4272 023e e8f7 263d 15d9 a03b d503 8a3d
00000080: 5b8f 12be 3f9e 95bb b934 c2bb 8495 28bd
00000090: 70b3 1c3d c0f1 4cbe 62bc 843e 93e3 b5be
000000a0: aa65 863d 7d15 8cbd 169f a83e a068 573e
000000b0: 543d 033f 36f0 833d 274b 05bf d245 7e3d
000000c0: 8ffc 76bd de81 91bd d03d 273b f5c3 40bd
000000d0: 83ce 213e f282 7dbd 6d9e 843e 2c8f 8b3d
000000e0: 2baa e93d 4d9b 8dbd 02a3 5c3f c43e 91be
000000f0: 0d9f 033e e12f 45bd 621f cf3d c56d e03d
00000100: ddd6 46be 41fb 853e d2bf b63c 02de c63e
00000110: a8e1 1e3e 32dc b1be e80e 82be 3c3c 6d3e
00000120: 47ad 003f 48d5 4fbe e3b5 6ebd 0b03 c1bd
00000130: 20c4 a1be 56a0 de3d 5c66 1c3b 0141 a6be
00000140: 467d 953c 6538 73be bb53 a7be 67e9 17bc
00000150: d92e bb3e e6e2 dc3c 10a7 143e d894 a3bd
00000160: 3894 6dbd 4212 8f3c f504 723d 76f0 0cbd
00000170: b95d 693d d3fd b23d 5a7b 683d 5e9f 58bd
00000180: 372c e0be 76bc 8fbc 9289 7ebd a034 883d
00000190: aa2a 3e3d cea8 a3bc d051 653e a3e3 d63d
000001a0: 09b9 b63d a4bd 353e 8687 3c3e 0888 a13d
000001b0: 0407 aebd e2ce c73e c6ee 31bd dd70 06bf
000001c0: 7869 8c3d 604d 23bd f0ba 513c 981a b0bd
000001d0: 0a85 34be f73d 0bbe 85d1 cd3d e3b1 c83e
000001e0: 41f2 02bd a8fb 99bd 2fc4 62bd f7b6 b83d
000001f0: 3911 d9be 9caa 23be 8372 0abd 03e9 97bd
00000200: c305 ab3e b8d5 123d d3ff 373e b83a 0a3e
00000210: f73b 84be 2d67 143e 7e4c 0a3e 1082 993e
00000220: f5f2 173f 3aac 193d f0e7 a2bd f661 a13d
00000230: 49fe ed3d 266a 143d d9e8 1a3c 9d70 833c
00000240: 9e56 82bc b48f 2e3e b75e ee3d c0b6 c83c
00000250: 3d53 de3d 8e6b 643c 353a 623e 30e4 dc3d
00000260: 0d20 3c3d f740 063e b695 273e e33f bfbd
00000270: 35a9 793d c132 2a3e bdaf 02be 75bc 9b3a
00000280: ce28 94bd e788 de3e a6ad fc3d efdf 173d
00000290: 1486 7dbd 5cca 0c3e 4f95 85be 4fe3 6a3e
000002a0: 49f5 a53c feca 123e 3c96 62bd 6f59 19bb
000002b0: bb48 b9be 8527 453d d0dd 2abd 251b ec3d
000002c0: dbf0 d43d 5fa2 ad3d c765 963c 6877 643d
000002d0: 5d3e 88bd dd41 893d de4e 28be 96bf adbe
000002e0: a43e 673c 0152 7bbd 62a2 00bf c664 7f3e
000002f0: bf06 ce3d 3b60 113e c87a c6bd 1786 533e
00000300: aad7 b33e 03c1 a6be 9d88 7d3d f188 47be
00000310: 32f1 97bd 3210 e03d 097b 0c3d 99a1 f9be
00000320: e37a eebe e92c a3bd c6e7 e3bb 9de1 3bbe
00000330: 22bb b43c b4fd 9e3d 2a1b 2e3e 482c d63d
00000340: 1807 073e 2be0 b4bc 31cb 493e edb6 4b3d
00000350: 7c85 c1be d357 ed3d ffd6 9abd 5a33 4c3d
00000360: 6b57 953d ae78 d83d 52b5 ec3c 27ff 783d
00000370: abdb 713e b2a6 03bc 05d2 42be b600 22bd
00000380: f518 05be e497 2b3e b9a5 373d c0e0 343e
00000390: 53fb 6cbe df41 a43c a9d9 c93e 0bdd 4bbd
000003a0: 19d6 413e d324 6ebe ed14 9bbe cea9 ab3c
000003b0: e0d3 983c 513c f7be 74e9 b93d 8cba a03e
000003c0: ed0b ca3d 090e 243d 9168 313b 522b 17be
000003d0: 0352 423e 5083 d83d 4a6d 0fbd 18ca 25be
000003e0: 3e5b 87bd 8f86 c33d 4791 5db9 e4b6 da3d
000003f0: 19ec 84bd 3cff 9dbb 1089 8d3d 547c 573d
-0.07171238 -0.05002305 -0.15620066 0.10595614 0.31883967 0.043208443 0.042972192 0.08885135
-0.038195882 0.05644134 -0.026407072 -0.4052513 -0.021214237 0.06692863 -0.13612765 0.029174807
-0.107930504 0.0020119285 -0.16048169 0.10649053 0.016794043 0.079709075 0.028337091 -0.35039452
0.04236339 0.02385904 -0.055573415 -0.031292688 0.12738898 0.040763766 0.0049086907 0.06739012
-0.14312498 -0.0045659835 -0.005926695 -0.041158214 0.038257062 -0.20014095 0.25924975 -0.35525188
0.0656236 -0.06840036 0.32933873 0.21036005 0.51265454 0.06442301 -0.520678 0.062078305
-0.060299452 -0.07104848 0.002551902 -0.04706188 0.15801434 -0.061892457 0.2590212 0.06814417
0.1140941 -0.06914387 0.8618623 -0.283682 0.12853642 -0.048141364 0.10113408 0.10958437
-0.19417901 0.26168254 0.022308264 0.38841254 0.15515769 -0.34738308 -0.25401998 0.23167509
0.502644 -0.20296204 -0.05827893 -0.094244085 -0.31594944 0.108704254 0.0023864722 -0.3247147
0.018248212 -0.23751982 -0.3268107 -0.009271956 0.3655918 0.026963662 0.14516854 -0.07987374
-0.05800268 0.01746476 0.05908676 -0.03440901 0.056974147 0.087398194 0.056758262 -0.05288636
-0.43783733 -0.01754592 -0.062142916 0.066506624 0.046427406 -0.019977953 0.2239449 0.10492637
0.089220114 0.17748123 0.18411073 0.07887274 -0.08497432 0.39025027 -0.043440603 -0.52515966
0.06856054 -0.039868712 0.012800917 -0.08598822 -0.17628875 -0.13597856 0.10049728 0.39198217
-0.031969313 -0.07518703 -0.055362877 0.09019273 -0.42395952 -0.15983051 -0.033800613 -0.0741749
0.33402833 0.03584835 0.17968683 0.13498962 -0.25827 0.14492483 0.13505742 0.29982042
0.593551 0.037517764 -0.07954395 0.07880013 0.11620767 0.036234044 0.009454929 0.01604491
-0.015910443 0.17047006 0.11639159 0.024501204 0.1085572 0.013941659 0.22092517 0.10785711
0.045929004 0.1311072 0.16365704 -0.09338357 0.060952384 0.16620924 -0.12762351 0.0011881726
-0.072343454 0.43463823 0.12337808 0.037078794 -0.061895445 0.13749069 -0.26090476 0.22938274
0.020258563 0.14335248 -0.055319056 -0.0023399254 -0.361883 0.048133392 -0.041715443 0.11528615
0.10397502 0.084782355 0.018359078 0.055777937 -0.0665252 0.067020155 -0.16436335 -0.3393523
0.014114056 -0.061357502 -0.50247777 0.24940786 0.100598805 0.14196865 -0.096913874 0.2065662
0.35125476 -0.3256913 0.061897863 -0.19485833 -0.07419051 0.10940589 0.034297023 -0.48756102
-0.4657813 -0.0796755 -0.00695512 -0.18347783 0.022061888 0.07763234 0.1700255 0.10457665
0.131863 -0.022079548 0.19706418 0.049735 -0.37797153 0.11589017 -0.075605385 0.04985366
0.07292064 0.10569893 0.028895054 0.060790207 0.23618953 -0.008035349 -0.19025429 -0.03955146
-0.12997802 0.1675716 0.04483578 0.1766386 -0.23142748 0.020050941 0.39423874 -0.04977135
0.18929328 -0.23256235 -0.30289403 0.020954993 0.018655717 -0.48288205 0.09077731 0.31392324
0.09865556 0.040052447 0.0027070383 -0.14762619 0.18976597 0.10571921 -0.035016336 -0.16190374
-0.066092 0.095471494 -0.00021130322 0.10679415 -0.064903446 -0.004821686 0.06910908 0.052608803

layer2.bias f4 [128]
00000000: 1446 003b 1843 bc3c e098 ad3d 1026 b8bc
00000010: 0e2c 7e3d 566e 2c3d 11d9 643d 12ac 583d
00000020: 6226 b43c 8f74 dd3d 02a9 473c 9242 f63d
00000030: e87f e53d 9211 60bd 562b 883d d2a6 fb3b
00000040: d4e3 dd3c 046d 243d 9f99 af3c 8504 07bc
00000050: f890 84bd 1540 c13c 696a 923d c176 7f3d
00000060: 0536 da3d 11be 46bc 4391 acbd 67fd cabd
00000070: 10ac 023d 5269 593d afbc 8abd d661 433d
00000080: caf3 5d3d 2786 6e3d 4f8a b7bd 6789 083d
00000090: 0d42 ec3d 7ef6 aebd d3e4 b63d 46b1 79bd
000000a0: 2c80 28bd 59ae 8b3d f74c 253d 2704 2f3c
000000b0: 7748 f63a c32a 543d 7111 46bc a0f0 053d
000000c0: d7fb 28bc e0a5 083e b622 4c3d 9891 d43c
000000d0: ade9 913d 06ea 45bd 38c5 24bd 6d8f bfbc
000000e0: eae4 ce3c 56c9 ee3a ac9b a83d eb4c 1abd
000000f0: 548f 92bd e9d6 bb3d 483c 70bd 58f8 3f3d
00000100: 8282 7d3d 94d5 eabc e19c 88bc 43ef 25bc
00000110: 630d da3b 05ca 643b b8cf 46bd 6616 b93d
00000120: a07b a03d ca39 0b3d 31af da3c ffba 553d
00000130: acbb 6ebd 23ed 763c 53d6 d1bc 9e30 0dbc
00000140: 5635 673d 5cc6 bfbc bd97 c3bd 8590 8b3d
00000150: a86e 143d 19a6 403c c4fd ba3d 2f7f 1f3c
00000160: 23ca a83d c9cf 153d 5e63 723d 903d f33d
00000170: 1b3f 81bd f4ba 82bc b8c0 1cbd a387 403c
00000180: 7cb1 adbd 685a 7e3d 0284 793c 16f5 13bc
00000190: 1d05 563d f139 50bd e061 c83c f9fe 68bd
000001a0: 9264 81bd 2862 a73d a4a9 8bbd c62b a2bd
000001b0: eb78 9bbd 5619 8b3d a17c 1dbd 8be4 f33c
000001c0: bcbe 823d d0ab 023e 312f 39bd cfd6 cebd
000001d0: a2f2 a53d 08bf d0bb 7b05 d63d f57a cd3c
000001e0: 6583 b53c 7221 093e dc29 a7bc 193b 763d
000001f0: 4db6 a73d be8b fa3b e4b1 713d f9e9 b13d
0.001957302 0.022981212 0.08476424 -0.022479087 0.062053733 0.042097412 0.055871073 0.052898474
0.021990959 0.108132474 0.012186291 0.12024416 0.11206037 -0.054704256 0.06648891 0.0076797986
0.027086176 0.040143028 0.021435557 -0.008240824 -0.06472963 0.023590127 0.071492024 0.062369112
0.10654835 -0.012130276 -0.08426144 -0.09911614 0.031902373 0.053078957 -0.0677427 0.047700725
0.054187573 0.058233406 -0.08961927 0.033334162 0.11536036 -0.085431084 0.089303635 -0.060960077
-0.04113786 0.068203636 0.040356603 0.010682142 0.0018789907 0.051798593 -0.012089119 0.03270018
-0.01031395 0.13344526 0.04983779 0.02594833 0.07124648 -0.048318885 -0.040227145 -0.02338382
0.02525564 0.0018217962 0.08232817 -0.03767101 -0.07156244 0.0917185 -0.05865124 0.0468677
0.06189204 -0.028666295 -0.016676368 -0.010127845 0.006654428 0.0034910452 -0.04853794 0.09037475
0.078360796 0.03399066 0.026694866 0.052180286 -0.058284447 0.015071186 -0.025614893 -0.008617548
0.05644735 -0.023410015 -0.09550426 0.06814674 0.036238343 0.011758351 0.09130433 0.009734913
0.082416795 0.036575112 0.059176795 0.118769765 -0.063108645 -0.015958287 -0.03826973 0.011751088
-0.08481118 0.062097937 0.015229227 -0.009030601 0.05225097 -0.050836507 0.024460733 -0.056883786
-0.063180104 0.08173019 -0.06819466 -0.07918505 -0.07591423 0.06791942 -0.038448934 0.029772064
0.06384036 0.12760854 -0.04521102 -0.10099565 0.08102919 -0.006370429 0.10450264 0.025083045
0.02215738 0.13391665 -0.020405702 0.060114954 0.08189068 0.007646053 0.05900754 0.08687205

layer3.weight f4 [4, 128]
00000000: 9e46 0bbf 2763 ec3d beb9 063e 3cad dc3c
00000010: 5256 1c3e dce0 063e d26a 92bd feee 0b3e
00000020: cfdd b6bd 2600 a8be b956 a43d 1ec2 5bbd
00000030: 2852 003e 38c3 023d 898d ad39 aa7a b73d
00000040: 8432 393e 1963 003e d0bd 973e 75ea 8fbe
00000050: a243 9dbd 546a 92bd a089 c13d 6842 84be
00000060: e268 ec3b 8fd5 8abd fd97 86bc 1d85 5a3e
00000070: 9728 ecbe 069f 193e d224 10bd 4611 1a3e
00000080: d44f 173e 1c7f 253e 31df 883d 9bc4 7cbd
00000090: 6f52 1dbd 4109 663e 76f4 a3be 7eb2 5bbd
000000a0: f7f2 c9be cd86 eb3d 4779 ae3d a775 993d
000000b0: 9c0a 823d b978 7abc 1868 ab3e 1811 79be
000000c0: fceb 043e b75b 0fbf a21d b63d 9ce0 103e
000000d0: e9c8 c13d 59e8 813d 0526 94bd a26c babc
000000e0: 7d43 193d a076 7b3d bff4 0bbe fd1c 183e
000000f0: f14e 253d a89e 9ebe 4966 71bc 6ec0 013e
00000100: 820a 793e 2db8 5e3d b7aa 5fbd 84e9 b13d
00000110: 3dcb c6bd 5598 b23d d20a bd3d c53a df3c
00000120: f566 283e 2d03 77bb 7a3a c3be b418 663e
00000130: cfb9 f33c 02b0 9b3d d07e 72bd c4c4 90bd
00000140: df92 f03d d032 88bd 1b6d 2d3e 3f3b a8bd
00000150: caca 423d 7f69 edbd d202 123e f3a9 c0be
00000160: 3ccd 5cbf 845b c43d faa2 3bbd 1088 d83d
00000170: ca3b 143c 357f 073e f38e 9dbd bb93 133e
00000180: d9de 2d3c 91ff 273e 1fa2 b5bd 6dfb 26be
00000190: 4983 8bbd 19db e43d a864 d2bd 8ae0 9cbd
000001a0: 38b7 acbd 7e6c 91be 12ff 073c 36b8 55bc
000001b0: 9d77 c1bd bd91 5cbe 4561 54bd 212e 9c3d
000001c0: 15be 203d 81c1 223e 2e93 073c a75d 9dbd
000001d0: 4269 1cbf 972c d33b 9c68 dabe 875d 87be
000001e0: d2be ddbe 5145 f53d a76c 63bd 32cb d73a
000001f0: e19c b0be 2033 423d 879d ecbd 1995 043c
00000200: 1c8b db3d a3ad 44bd b5f9 b2be 8dfb 51bd
00000210: 3603 a1bd 1be9 bcbe f07c 503e 5f5e 1fbf
00000220: 33c2 8bbc 75f0 d03d 5ff4 353d d803 903e
00000230: 3b60 0ebe 5b23 cf3d e993 2c3d 30d2 3c3e
00000240: 310a 093e 8457 b53d d792 edbd f0f9 0dbf
00000250: f42c 913d de5d 4d3e 7b50 453e aaaf 0c3d
00000260: 70a3 873e 9d15 bc3d 3d17 97bd c022 44bf
00000270: 92f4 a13d 01cc 753c 96d5 653d 1c5a 19be
00000280: bfb2 2c3e a04c fb3d aa5b 1f3e 91d2 793d
00000290: c2ef 0f3e f0f2 41be 9a61 2bbe 1fd3 163c
000002a0: f991 2ebe 12c0 e33d e550 283e a0c5 6b3e
000002b0: 9ac2 60bd 7e27 003e 5e9c 1a3c 8d79 56be
000002c0: 5fe5 c4be 693c 463e 32ed 6ebe dc30 323e
000002d0: 177d 443e 2821 38be d07b 983b efc9 9fbe
000002e0: bab8 8a3d ba43 9a3d da58 213e 8796 af3c
000002f0: de9f 64bc 3a5d 76be 36cb 7e3c 789f a5be
00000300: bb1a 5abe b01f 713d 49a1 09be 7e5f 6e3c
00000310: 74b3 61be ed49 38bd bfa1 bfbd c539 8fbe
00000320: fff0 b8bd 0147 a3be 7730 603e 3a49 69bc
00000330: 8c00 ecbd 3ecb b8be 2dc4 c13d 8189 1d3c
00000340: c694 5f3d 56e4 80bc b451 c5be 0c3e 613e
00000350: d079 c73d 0fed 7abf 8ccc b83b 85aa 13be
00000360: 1900 50bd 0e29 2cbc 7146 91be 646c 69bc
00000370: d7a9 e93c cb16 19bf 9c02 893e 6323 533d
00000380: 62d5 323c a953 c13d 7691 4f3e 5534 a23d
00000390: 3893 9d3b 0711 bcbe cb38 b2bd b0ae 25bd
000003a0: 76e8 a3bd 59a7 cd3d 4afc 86be e7f2 0ebd
000003b0: f2a4 eabc 337c 703d 7603 cebc b687 143e
000003c0: 6e2c 27be e4a1 103e d320 083d ddf7 98bd
000003d0: 7c1d e33b f4cd c0be 5fb6 f3bd cc45 91bd
000003e0: 477f 0c3e 7339 f93d 62d4 5e3d 3f22 7b3c
000003f0: e4e0 1fbd 8bd1 823c 9b9c 9bbe 7d88 083f
-0.5440463 0.11542349 0.13156793 0.026938073 0.15267304 0.13171715 -0.071492806 0.13665387
-0.089290254 -0.32812613 0.080243535 -0.05365192 0.1253134 0.031924456 0.00033102583 0.08958943
0.18085676 0.12537803 0.29637003 -0.28108564 -0.076789156 -0.07149187 0.09450078 -0.25831914
0.0072146514 -0.06779014 -0.016429896 0.21339841 -0.46124718 0.15002069 -0.035191365 0.15045652
0.14776546 0.1616177 0.066831954 -0.061710935 -0.038408693 0.22464468 -0.32022446 -0.05363702
-0.3944318 0.115003206 0.085192256 0.074931435 0.0634968 -0.015287572 0.33477855 -0.24322927
0.12980646 -0.5599932 0.08892371 0.14148182 0.09462149 0.06343145 -0.07233814 -0.022756878
0.037417877 0.061392426 -0.13667582 0.14854808 0.040358488 -0.3098042 -0.014733859 0.12671062
0.24320415 0.054374862 -0.054606166 0.08687118 -0.097067334 0.08720461 0.092305794 0.027249703
0.16445525 -0.0037691102 -0.38130552 0.22470361 0.029751686 0.0760193 -0.05920297 -0.0706878
0.117467634 -0.06650317 0.16936152 -0.08214425 0.047556676 -0.115923874 0.14258888 -0.3762966
-0.8625066 0.09587768 -0.045809723 0.10572827 0.009047458 0.1323212 -0.07693281 0.14411823
0.010612213 0.16406085 -0.08868813 -0.16306849 -0.0681215 0.11174602 -0.10273105 -0.07660015
-0.08433384 -0.28403085 0.00830056 -0.013044408 -0.094466425 -0.2153997 -0.051850576 0.07625986
0.039243776 0.15894128 0.0082748365 -0.076838784 -0.6109811 0.0064445245 -0.42657936 -0.26438543
-0.43309647 0.11976112 -0.05552354 0.0016463755 -0.3449469 0.047412038 -0.115534835 0.008092188
0.107198924 -0.048017155 -0.34956136 -0.05126529 -0.078619406 -0.36896595 0.2036016 -0.62253374
-0.017060375 0.102021135 0.044422504 0.28127933 -0.13903897 0.101141654 0.042133246 0.18439555
0.13382794 0.08854583 -0.11600273 -0.554595 0.07088652 0.20055339 0.19268982 0.034347214
0.2649188 0.0918381 -0.07377479 -0.76615524 0.07907976 0.015002252 0.056111895 -0.1497578
0.16865061 0.122704744 0.15562311 0.060991827 0.14056304 -0.1894033 -0.16736451 0.009205609
-0.17047872 0.11120619 0.16437109 0.23024607 -0.054873087 0.12515065 0.009436695 -0.20944805
-0.38456246 0.19358982 -0.2333267 0.17401451 0.19188343 -0.17981398 0.0046534315 -0.3120875
0.06773515 0.07532449 0.1575655 0.021434082 -0.013954131 -0.24059 0.015551379 -0.32348228
-0.2129926 0.05886811 -0.13440432 0.014549134 -0.22041112 -0.044992376 -0.093570225 -0.27973762
-0.09030341 -0.3189011 0.21893488 -0.01423865 -0.11523542 -0.3609256 0.09461246 0.009615303
0.05458524 -0.015733879 -0.38538897 0.21996325 0.09740031 -0.9801797 0.0056396183 -0.14420517
-0.050781343 -0.010507835 -0.28374055 -0.014247034 0.028523369 -0.59800404 0.26759803 0.05154742
0.010915132 0.09439785 0.20270333 0.07920138 0.0048088096 -0.3673174 -0.08702239 -0.040449798
-0.08003323 0.10041685 -0.26364356 -0.03489962 -0.028643105 0.058712196 -0.025148135 0.14504895
-0.16325542 0.14124256 0.03323443 -0.07469151 0.006931005 -0.3765713 -0.11900019 -0.07093391
0.13720427 0.12169161 0.054401763 0.015327989 -0.03903283 0.015969058 -0.30392918 0.53333265

layer3.bias f4 [4]
00000000: 3cb2 13ba 4deb 84bd 2c0f 6c3d f16f 5fbd
-0.0005634164 -0.064901926 0.057631657 -0.054550115
